logs/Rain100L/PReNet_SE_behindConv0/net_latest.pth (torch, 688738 bytes, 34 tensors)

conv0.0.weight f4 [32, 6, 3, 3]
00000000: c096 163d b865 33bc 55b4 eebd 4894 543b
00000010: a3da 03be 58f0 bcbc ed35 fb3d c250 d73d
00000020: 442f 66bd 5574 e33d 379e 2dbd e0a3 eebd
00000030: 8bc9 c73d ed1b 42be 65a8 a1bd bab9 6b3d
00000040: d9bb 57bc d5fd c2bd 8695 e9bd e0ed d8bd
00000050: 545a 453e 34be e1bd e963 5cbe 1f32 6e3e
00000060: bd9b 05bd dc0a edbd f7c5 123e 10f5 123e
00000070: f770 11be aa9b c9bd c601 b53c 194c 4a3d
00000080: 3202 293d 4d39 1e3e 5068 afbd 5acf adbd
00000090: 8577 363d 033e 403d 9a99 9a3d d586 d9bc
000000a0: fea7 05be 4cfe d73d ab58 823e 8e7d 403d
000000b0: 9b3a 98bd 4b5f 22be bc00 dcbd b765 113e
000000c0: e7cd 23bd 8e91 06be ed39 683d 49cb 493e
000000d0: 5a0a 1fbd a556 31bd caef b7bd 1638 c93d
000000e0: ed21 39bd 6744 f03d 6a87 ba3d 784e 93bd
000000f0: 7737 87bc aefe 11bd 2198 09be 23be d93d
00000100: 582e 213e 0a19 03bc 7862 e8bc f259 65bd
00000110: bce0 cfba 710c 2c3d 3032 833d 280a e53d
00000120: e110 053e 0f2a 8d3c 205d 883d 86e9 093e
00000130: 731d 58bd 8d77 853d 66fa 79bd 6a76 cebd
00000140: 98c3 9b3d 1856 1f3e 2706 dfbd 20ca 33be
00000150: df77 fc3d 7ad0 81bd dea4 f43c d418 72bd
00000160: 7cc2 dabd b9d4 29be 73fe 12be f567 133e
00000170: 6df3 afbd a976 dfbd 8985 fa3d d661 973c
00000180: ac2e 07be 84be 293e 3b71 303e fb69 453d
00000190: 48cc 4cbe b064 393d 3ed0 093d 254d e43c
000001a0: d488 ff3d fbe1 b83d f959 fbbd 16bc 44bd
000001b0: d49c 1d3d 187b debd 109d 553d f95b c1bd
000001c0: ba4b 02be 2e92 0c3e b9dd 573d c81f b03d
000001d0: bc1f 8bbd 5545 e93d c571 7ebd 060e f0bd
000001e0: bd8d 0dbe 3811 45be 2802 aabd 7967 23bd
000001f0: 2dc8 653c 8c37 cc3d 0e33 b5bd b549 1abe
00000200: e53c 37be fcbd 1a3e 8099 54be af64 2abe
00000210: 6278 403d 014f e13d 01c8 243e f0b6 3fbd
00000220: 9f4b d9bd 2277 adbd dd84 cbbd 40e3 cebd
00000230: e23b 863d 441a 143e 2c69 f23c 6bd1 6f3e
00000240: 1951 bf3a d5be 793b bfe6 3dbe 1983 3fbd
00000250: c14e adbd 0331 f63d c211 3e3e 0dc3 8e3e
00000260: b719 013e 4c73 1f3e 0f7d 2e3d 3c73 78be
00000270: 5347 daba 41cc 09be 26bb c2bd 04b0 b23d
00000280: 1ba0 a43e 7d42 3d3e 480d 1dbe 3e79 8e3c
00000290: 3930 a2bc 5153 a7bd feba f63d 060c 113d
000002a0: 7142 3cbe 5b96 1d3e 4ed3 98bd 4df2 b93d
000002b0: 4da9 12be 24bb 143d 06c9 72bc 24b4 c8bc
000002c0: 15e9 de3d 5ee0 b13c 0e49 613d 3440 80bb
000002d0: 709d b73d b6ed d23d b9a4 493d 49e0 583e
000002e0: 63a8 7ebe a52a a13d 6572 293d f317 ffbc
000002f0: 8e29 7bbd 059a ccbd aade df3d 2a43 9f3d
00000300: b112 5cbe 6ab7 64bd cb26 383e ce44 25be
00000310: b642 4e3e 4cd2 803d c7e0 22be 3b6a 063e
00000320: 21e7 443d 7776 6dbd 77fe a93d c92e d63d
00000330: 677f 683c 5294 aa3d 080f fa3c a7e3 9a3e
00000340: 5135 64be 22ae 24be 5702 923e 0a08 b8be
00000350: dd79 bdbd a6b3 a13e 2d67 74be 7e96 42be
00000360: 35b4 a0bc 3d20 ebbd 94ec 93bd 1a32 ea3d
00000370: f127 bfbd cb9c 5fbc e52e 313e 50b8 a03c
00000380: b732 213d a227 61bc 3ecf 2d3d 8241 f73c
00000390: 1d48 0c3e eb67 a13c df41 55bb 8608 99bd
000003a0: 306b 0e3e d8ce 14bd dbd9 17bd 2e77 b6bc
000003b0: 046e 513d 8f8c cabd 442f d1bd d806 a53d
000003c0: 2af6 18be e0aa 98bc e9b4 b23d f16f 443e
000003d0: 8561 363d ed24 36be d4fc 6d3e 7419 06be
000003e0: 6f53 68be b252 2f3e ea10 19bd e979 90be
000003f0: d755 8fbd 801c 3c3e aaa8 ddbc 4701 a33d
0.03676486 -0.010949545 -0.11655489 0.0032437015 -0.12876372 -0.023063824 0.12266145 0.1051345
-0.05619742 0.11106173 -0.042387214 -0.116523504 0.09755238 -0.18955965 -0.07893447 0.05755017
-0.013167345 -0.09521071 -0.114054725 -0.10592246 0.19272739 -0.110226065 -0.21522488 0.23261307
-0.032619227 -0.11574337 0.1433333 0.14351296 -0.14203249 -0.09844144 0.022095572 0.04938898
0.04126186 0.15451546 -0.08564818 -0.08486815 0.044547576 0.04693414 0.075488284 -0.02655355
-0.13052365 0.1054655 0.25458273 0.04699474 -0.07433053 -0.15856664 -0.107423276 0.14198957
-0.039991286 -0.13141462 0.056695867 0.19706453 -0.03882823 -0.04329552 -0.08981283 0.09825151
-0.04519837 0.11731797 0.091078594 -0.07192701 -0.01650594 -0.035643272 -0.13436939 0.10631969
0.15740335 -0.008001575 -0.028367266 -0.05599398 -0.0015859823 0.042004053 0.06406057 0.11183578
0.1299472 0.01723197 0.06658387 0.13467988 -0.05276246 0.06516943 -0.061029814 -0.100811794
0.07605666 0.15560186 -0.10889845 -0.17557573 0.12327551 -0.06338592 0.029863771 -0.05910571
-0.10681626 -0.16585054 -0.14354877 0.14395125 -0.08591352 -0.109113045 0.12232501 0.018479269
-0.13201398 0.16576582 0.17230694 0.048196774 -0.19999802 0.04526204 0.03364586 0.027868817
0.1247727 0.09027477 -0.1227302 -0.048030935 0.03847964 -0.10863322 0.05215174 -0.094413705
-0.127242 0.13727638 0.052701686 0.08599812 -0.06793162 0.11390177 -0.062120218 -0.11721425
-0.138236 -0.1924485 -0.083011925 -0.0398936 0.014024776 0.09971532 -0.088476285 -0.1506718
-0.17894323 0.15111536 -0.2076168 -0.1663997 0.046989806 0.11001397 0.1609192 -0.046805322
-0.10610127 -0.084699884 -0.09937451 -0.10101938 0.065543905 0.14463145 0.029591165 0.2341973
0.0014596313 0.003810813 -0.18545054 -0.046755884 -0.08462287 0.12021067 0.18561462 0.27883187
0.12607466 0.15571326 0.042599734 -0.24262708 -0.0016653336 -0.13456823 -0.09508352 0.087249786
0.321534 0.18482395 -0.15337098 0.017391797 -0.019798385 -0.08170188 0.12047385 0.035411857
-0.1838472 0.15389387 -0.07462178 0.09079418 -0.14322396 0.036311284 -0.014818436 -0.02449996
0.108843006 0.021713432 0.05500131 -0.0039139036 0.08965576 0.10299246 0.049229357 0.21179308
-0.24868922 0.07869462 0.04136886 -0.03113935 -0.061318927 -0.099903144 0.10931142 0.077764824
-0.21491505 -0.05583898 0.17983548 -0.16139528 0.20142636 0.06290111 -0.15906058 0.13126461
0.048071984 -0.057974305 0.083004884 0.10458142 0.014190531 0.08329071 0.030524746 0.3025181
-0.22285964 -0.16082051 0.2851741 -0.35943633 -0.09251759 0.31582373 -0.23867483 -0.1900272
-0.01961718 -0.11480758 -0.07222858 0.11435337 -0.0933379 -0.013648222 0.17303045 0.019619137
0.039355006 -0.013742359 0.04243397 0.030182604 0.13699384 0.019702872 -0.0032540483 -0.07472329
0.13908076 -0.036330074 -0.037072998 -0.022273626 0.05113031 -0.09890091 -0.10214093 0.08057946
-0.14937654 -0.018636167 0.08725912 0.19183327 0.044526596 -0.17787524 0.23240978 -0.13095647
-0.22688077 0.1712139 -0.037369646 -0.2821801 -0.069987945 0.18370247 -0.027057964 0.07959228

conv0.0.bias f4 [32]
00000000: 272f ac3c 7c6d 5abe 8ee1 343b 1d92 12bc
00000010: 13c7 8f3c 6ff2 523d 0a3b 563c f7a7 8abc
00000020: 8f98 263d 96ae 0ebe 1a88 873d 7989 9bbc
00000030: 892b 313d 2161 e33c 4a7c 873c 4513 803c
00000040: 0b75 633d 46f1 7f3d 3431 dbbc 9b2a 8d3d
00000050: 1c86 9d3b 8f9c 1a3e 6b8d cf3b 5596 453d
00000060: 8c38 de3d e38f 183d ba3e 6c3c 7799 1b3c
00000070: 5056 59be 3f1e de3c 8dcd f23c 7a18 dbbe
0.021018578 -0.21330827 0.0027600261 -0.008945969 0.01755098 0.051500734 0.013075599 -0.016925795
0.040672835 -0.13933787 0.06617756 -0.01898645 0.04325441 0.027756276 0.016538758 0.015634188
0.055531543 0.062485956 -0.02675686 0.06892892 0.004807247 0.15098785 0.006333997 0.04823907
0.10850629 0.037246596 0.014419252 0.009497038 -0.21224332 0.027114032 0.02963903 -0.42792112

res_conv1.0.weight f4 [32, 32, 3, 3]
00000000: 20d8 8abd 73bc 773d 208b 84bd 1f06 cabd
00000010: 6245 123d c8b7 e13b 5bd0 7abd 9906 4e3c
00000020: 18a1 c13d b9de 833d a88d f5bd 1a69 c43c
00000030: 01e4 5f3d 1db3 41bd 75c3 a3bd 8735 a03d
00000040: f9af 223d 7e61 d1bd 42d8 c03c 5bd4 73bd
00000050: 91a7 2ebc 789f 113d 4542 ddbd 22cb d9bd
00000060: d98a 6b3d 1181 8c3c d6ef d7bd 7edf fc3d
00000070: 8b33 e6bd 043f 933c f48c a43d e625 29be
00000080: a436 89ba 5ddd 803d 5be3 cdbd 8740 963d
00000090: 5397 80bd f39c c33d 9818 d5bc e9c8 393c
000000a0: 9256 9f3d cdfa 953d 0713 3dbd 11b1 8e3c
000000b0: 6dc4 0f3e 1b4c 863d e80a 533d 4402 153c
000000c0: a90a 1f3e 1372 e7bc fc5f 953d 4a80 5c3c
000000d0: 5327 08bd 39a8 d7bc 38dd adbd 62c8 efbd
000000e0: dac1 06be b6e0 4abd 1a80 f0bd 204d 2cbd
000000f0: 220b 5e3d ccfc d53a 4c93 abbd b71e 4dbd
00000100: b1fe 853d 6e59 7c3d 0dec 413d 229a ad3d
00000110: b555 50bd 837e 7dbb 6156 04bd ff14 0abd
00000120: 2810 ee3b 4616 fa3d 75d6 bdbd 7c88 b13d
00000130: 9508 e9bb ab89 fcbc af1f 853d 17c0 413d
00000140: fefe 87bd 77cd d6bb 9f60 aebd 6816 d03d
00000150: 16b2 79bd a275 a33d e06c 043e 6122 6cbd
00000160: 3216 e33c f652 203e 91eb dd3c 5ada 2a3d
00000170: 92dc ab3d c05c cdbc bfcb 0c3e 009a a93d
00000180: 9e25 503d 5e9f a63d 76ae 7b3d ae86 edbc
00000190: 0f98 3fbc b39e 983c c98c 77bd b8e0 02be
000001a0: b368 543c 6c43 50bd 3a53 1dbe 0cd8 d33c
000001b0: c2ab 373e 34cf 14be d4ac f3bb 20d0 8e3e
000001c0: d240 e6bc ae04 91be 56c6 6a3e 15c9 3c3e
000001d0: 357f 1ebe d1ae a3bc 9ddd d73b 33cc e5bb
000001e0: f8dc 7cbd 4bca 70bd 1448 eabc 347e fd3c
000001f0: 2f5e 09be f4d4 f7bd 9c55 b1bd e84b 9b3d
00000200: 1ec3 03bd d62c b5bd 5436 5c3d c9e3 65bd
00000210: 9cca b8bc 4a38 7fbd 82da f0bd 9ff7 853d
00000220: 3c7b 54bc 9f91 00be 19b5 32bd 779b 683d
00000230: f3b2 0fbe 0189 1cbd f0ee 47bd 6d19 bebd
00000240: c351 38be 39a5 10be a93a 9ebd c3ce 10be
00000250: f9e9 73bd 77b3 e7bc b2fa 1cbc 18db 5f3c
00000260: 6829 5cbc ccb3 803d ecc6 1ebe ff94 c7bc
00000270: e6b4 52bd 2f38 09be 95cd 19bd 9cf0 8fbd
00000280: c858 2e3d 99b1 bdbc cce6 e63c e590 3d3d
00000290: 3e38 12bc b301 e13c 4eef 983d fb82 48bd
000002a0: 9746 69bd db14 abbd 88ae afbd e3b5 7d3d
000002b0: f825 72bd 87cc fdbd 6e73 4e3d 04b0 9c3d
000002c0: bb42 66bc 0058 7fbd 0790 313d a458 acbd
000002d0: 4546 13be 2194 05bd da7f 20bc 579f dfbd
000002e0: 7b03 adbd 9290 89bc 51a3 6dbd 9b03 2ebd
000002f0: 8258 90bc 1310 96bd 39e7 803d 85b3 0cbe
00000300: d6c0 22bd 068c 843d d648 9abc db20 5fbd
00000310: d076 65bc aeaf babd 6cbb acbc 8f06 443d
00000320: 1c8e 5e3d 0c7e 163d c4ba cbba 5416 4fbd
00000330: 719a b7bd 9c3e 2bbd 8b74 3fbc 5de4 5e3c
00000340: b623 c9bd cff5 463e d918 28bd 18f4 8cbd
00000350: cc7a 373d ded9 733b 7975 55bc 34f2 a43d
00000360: 2a69 15bc 59e1 45bd 181b c43c 7e46 8abe
00000370: 3a56 273e 2d9f 3c3d b2f4 1dbe 2d09 2c3e
00000380: 8448 a4bd edde 08be 3c70 e8bd 966d f3bc
00000390: 8276 20bd 8673 96bd 4d7c 803d a28b 9d3d
000003a0: ff52 3f3c 7fec c73b 2c8f 86bd be88 8ebd
000003b0: a31d 91bb 4c10 b23d 3c25 8a3d d1c1 ec3b
000003c0: 8b17 083e 736b 2c3d 9625 e03d ccb7 e4bd
000003d0: 2cfa 0a3a a118 bebd 14e0 1bbe 545c 953d
000003e0: 5344 9dbd 9d01 283c c6cb dcbc a291 1dbd
000003f0: 9b48 b33c 888c f53c 8e12 57bd eaa0 99bd
-0.06779504 0.060482454 -0.064718485 -0.09864449 0.0357107 0.0068883635 -0.06123386 0.012574815
0.09454554 0.06438965 -0.119899094 0.023975898 0.0546608 -0.047289956 -0.07996265 0.078227095
0.0397186 -0.10223673 0.02354062 -0.05952869 -0.010660068 0.035552472 -0.108036555 -0.10634448
0.057505462 0.017151387 -0.10543792 0.12347315 -0.112403 0.017974384 0.08034697 -0.16518363
-0.0010468555 0.06292222 -0.1005313 0.07336526 -0.06278863 0.0955142 -0.026012704 0.011339405
0.07780184 0.07323227 -0.046160724 0.017418416 0.14039774 0.06557485 0.051524073 0.009094778
0.1553141 -0.028252637 0.07293698 0.013458321 -0.033240627 -0.026325332 -0.0848946 -0.11708142
-0.13159886 -0.049530707 -0.117431834 -0.04206574 0.054209836 0.001632595 -0.08377704 -0.05007812
0.06542719 0.061608724 0.047344256 0.08476664 -0.050862987 -0.0038680143 -0.03230894 -0.03371143
0.0072651096 0.122112796 -0.0926942 0.086686105 -0.0071116188 -0.030827364 0.06500184 0.04730233
-0.06640433 -0.006555255 -0.08514523 0.10160524 -0.06096085 0.07981421 0.12932158 -0.057649974
0.027720544 0.15656647 0.027089866 0.041712143 0.0839168 -0.02506864 0.13749598 0.08281326
0.050817125 0.08135866 0.061445676 -0.028994884 -0.011693968 0.018630361 -0.060436998 -0.12781036
0.012964415 -0.05084555 -0.1536378 0.025859855 0.17936614 -0.14532167 -0.007436374 0.27893162
-0.02810708 -0.28323883 0.22927222 0.18436082 -0.15478213 -0.01998082 0.0065876977 -0.007012868
-0.06173417 -0.05878667 -0.028598823 0.030943967 -0.13414834 -0.121011645 -0.08658907 0.07582837
-0.0321685 -0.088464424 0.05376275 -0.056125436 -0.02255755 -0.06230954 -0.11760427 0.065413706
-0.0129688345 -0.1255555 -0.04362974 0.056788888 -0.14033107 -0.038216595 -0.048811853 -0.09282193
-0.1799994 -0.14125527 -0.07726032 -0.14141373 -0.059549306 -0.028283818 -0.009581255 0.013663076
-0.013437606 0.062842935 -0.1550557 -0.024363039 -0.05144205 -0.13400339 -0.037549574 -0.070283145
0.042565137 -0.023155974 0.028186224 0.04628076 -0.008924542 0.02746663 0.07467519 -0.048953038
-0.056952085 -0.08353587 -0.08578211 0.06194104 -0.05911824 -0.12392526 0.05040305 0.0765076
-0.014053996 -0.062339783 0.043350246 -0.08415344 -0.14382274 -0.03261197 -0.009796107 -0.109190635
-0.084479295 -0.01679257 -0.05801708 -0.042483907 -0.017620329 -0.07327285 0.06294102 -0.13740356
-0.039734684 0.0647202 -0.018833559 -0.054474693 -0.014005378 -0.091155395 -0.021085463 0.047857817
0.054334745 0.0367413 -0.0015543331 -0.050558403 -0.08965004 -0.041807756 -0.011685501 0.013604251
-0.098212644 0.19429706 -0.04103932 -0.06882495 0.044794843 0.0037208716 -0.013028496 0.08054009
-0.009119311 -0.04831061 0.0239387 -0.27006906 0.16341487 0.04605024 -0.15425375 0.16800375
-0.08021644 -0.1336629 -0.11349532 -0.02971534 -0.039175518 -0.07346253 0.062737085 0.076926485
0.011677503 0.0061011906 -0.065702766 -0.06959675 -0.004428582 0.08694515 0.06745383 0.007225253
0.13290231 0.04209466 0.10944669 -0.11167869 0.0005301561 -0.09282041 -0.15222198 0.07293001
-0.076790474 0.010254291 -0.026952635 -0.038468964 0.021885207 0.029974237 -0.05250793 -0.07501395

res_conv1.0.bias f4 [32]
00000000: 6d48 77bd e35b 823b 6136 62bc 47e1 e7bc
00000010: 3d88 d4bc a7b7 99bc c852 df3b 3fc0 b2bc
00000020: 9c95 62bd 7b3c 48bd 5c4e b9bb 5f7a 0dbd
00000030: 345b 9a3c 8e3c 06bd 1464 b7bc ce14 8a3c
00000040: bd62 71bc 0cec b13b ec07 0d3c 8b65 6c3c
00000050: 938b 02bd 42ef e93c 154c 68bb 0abd fc3a
00000060: c751 b5bc 1e89 44bc 6fca 9f3c 16ed 403c
00000070: 7a94 e53c 8ea2 8ebd 9519 603a 31f7 c6bd
-0.060371805 0.003978239 -0.01380691 -0.028305663 -0.02594387 -0.01876433 0.006815288 -0.021820186
-0.05531846 -0.048885804 -0.005655093 -0.03454053 0.018842317 -0.032772593 -0.022386588 0.016855624
-0.014733014 0.0054297503 0.008607846 0.014428507 -0.03187139 0.02855647 -0.003544574 0.0019282412
-0.022133721 -0.011995582 0.019505708 0.011775276 0.0280249 -0.069645986 0.0008548734 -0.09715117

res_conv1.2.weight f4 [32, 32, 3, 3]
00000000: e91d 6dbd 1143 0f3b 18a7 8c3d 0368 62bd
00000010: 522a 2f3d 5681 81b9 c6c7 4a3d 9c48 1d3c
00000020: 6cee 8cbd c160 543c 345f e23d 422c c23d
00000030: a11a 6f3d 1c16 86bd 11ce 27bc f406 053e
00000040: ab23 e6bc ac65 af3c 03d6 943d 5107 fa3c
00000050: 07d2 833d 56a6 fa3b 6b60 0d3d 5d72 673d
00000060: facb 863d d52f 28be 69b5 9dbd bf00 353b
00000070: 81fe 1fbd 7b87 173c 13a3 12bb e7c5 a4bd
00000080: 177e 853c 0072 55bd 7203 543c 9f54 f93c
00000090: c217 14bd 3ad4 38bc d3ec dcbb e036 963c
000000a0: 0a65 85bd b054 ce3b f3b8 773d 2821 6c3d
000000b0: ec49 9abe 5c04 0c3d e664 67bd ccbb fbbd
000000c0: 8235 fe3d 4f29 a3bd f26d 23be 71ec c3bd
000000d0: 1624 96bc 7916 e7bd 01bd 903d 8825 8f3d
000000e0: 95a2 38be 77b5 743d f706 e0bc bdc6 5abe
000000f0: a004 593d e168 91bd 607a 3dbd f497 f83d
00000100: d740 6a3d d9fd b6bc d235 2b3e f41c 3a3c
00000110: d398 64bd 0a6f 46bc 5dd4 5a3c 677b fc3c
00000120: 322b 1e3d 52f7 723d 6b85 dd3c db28 823d
00000130: 58d9 91bd 2054 fcbc c89d 243e d4bc 433d
00000140: 1c4a 87bd 14cd 99bd 08ab 4a3d e591 6cbd
00000150: afd9 683c 1da5 d23a 4c45 4abe 2939 54bd
00000160: 96de b6bc 3274 67be 8e9e 0cbd 426f 183d
00000170: f319 de3d 17f3 18be 9bdd 12be 5c11 5f3d
00000180: 1cae e1bd fc0d fbbd 6545 90bd f8ce 4f3d
00000190: 1cb2 00bc e1f8 aa3c a8cc c2bc a8eb 46ba
000001a0: 83f8 383d 706b 513e 77ab 943d 99eb 483d
000001b0: 90c2 d7bd d059 02bd 383c 203d e939 aa3d
000001c0: 687c a33c be8d a4bd a9ca 8e3b 88f6 953d
000001d0: 4fe9 f13c 131e 903d c6ff df3d 0078 783d
000001e0: d539 3d3d 4b2c dc3d b254 a93d 50d3 7a3d
000001f0: f8e9 49bb d093 a2bd 1ac7 b2bd f64d 9c3d
00000200: f2e3 5f3d b880 88bd 8bd6 2c3d 7b3b 063d
00000210: dabc a53d ecc5 00bc b119 3cbd bc37 8b3c
00000220: 67ea e03d 504b 06bd 00a6 113d 01f2 74bd
00000230: 0dc0 413d 5ff4 b53d a566 0ebc 1752 143d
00000240: 7408 243e 66c3 143d e642 e9ba c32b 9cbd
00000250: 2d10 aebd b56f c2bd f2b4 2abd 6183 1fbe
00000260: 6a21 a8bd 4705 14be 6c3b 983c c914 5d3b
00000270: 7ba3 a4bd 85fc 3dbd 5ba6 e1bc 3029 61bd
00000280: beae 653d 166e 243d aa30 a13d e342 3abd
00000290: 0460 33bc 91b5 a63d a311 b8ba b982 5f3d
000002a0: b499 3939 524b 523d 1430 3fbd 6e84 c6bd
000002b0: 56e2 2dbd afba 45be b1ff aa3c aac2 953d
000002c0: 3110 e7bc 6a7e 963d eecd 1d3c 79a3 33bd
000002d0: ef1d b0bd 9825 87bd 6c72 4ebd 449b 843c
000002e0: 4894 0dbe 9ffc 033c f05f 82bd a27d 86be
000002f0: bd1e b7bd abbe 333d 1aaf c9bd 5a57 25be
00000300: b68a 743d 4632 b8bd 9640 02be 535d 32be
00000310: 4b54 0dbe a747 77be 9305 2abe 3f51 083e
00000320: 28cd 16bc 6c86 c1bd 7bd9 003e ad96 b9bc
00000330: 2d59 88bd 1262 623d 4e39 79bd cdc6 903d
00000340: ae21 493b 591c f53d ca76 583d 70e6 acbe
00000350: d99f 13bb ac4e e4bd e1d1 8bbd 5dd1 d03d
00000360: dbd5 733d 4d45 de3b 573d 97bd aea0 a53d
00000370: 6f9f 88bd 4368 4a3d 18ea 3e3b 9ee3 11be
00000380: f6c5 473d 159f b93d b0f2 9fbd 0cfb 97bc
00000390: be4e a13d bfc8 f2bd 4ad6 14be 7919 373c
000003a0: 1f01 a9bd 3a85 c0bd 5fab d6bb 58bc 26be
000003b0: e139 5fbd 2221 c83d b5d1 2ebd 2d51 08be
000003c0: e0f5 643d 59dd a5bc c902 14be c483 20bd
000003d0: af73 d7bc 9a53 853c 8676 a83c 7b46 5fbc
000003e0: 4f22 ff3d ce5e ae3c 187e 023e 2e47 903c
000003f0: 619f e23d e549 303b 2c2a 073d 65ca 7c3d
-0.057889853 0.0021860043 0.06867808 -0.055274975 0.04276497 -0.0002470116 0.049506925 0.009599831
-0.06881413 0.012962521 0.11053315 0.09481098 0.058375005 -0.06547186 -0.010242001 0.12990934
-0.02809318 0.021410786 0.07267382 0.030521067 0.06436544 0.0076492233 0.03451578 0.05650555
0.06581874 -0.16424496 -0.07700617 0.0027618853 -0.039061073 0.00924861 -0.0022375032 -0.080455594
0.016295476 -0.052110672 0.012940275 0.030435858 -0.03615547 -0.0112810675 -0.006742099 0.018336713
-0.06513412 0.0062967166 0.060479116 0.057648808 -0.30134523 0.034183845 -0.05649271 -0.12291679
0.124125496 -0.07966863 -0.1595991 -0.09566582 -0.018327754 -0.11283583 0.070673 0.069895804
-0.1803077 0.05974337 -0.027347071 -0.21364875 0.052982926 -0.07100082 -0.046259284 0.12138358
0.057190742 -0.02233784 0.1671975 0.011359442 -0.055809807 -0.012111435 0.013356295 0.030820562
0.038615413 0.059317894 0.027041158 0.06355449 -0.07121533 -0.030801833 0.16075814 0.047787502
-0.06605932 -0.07509819 0.049479514 -0.057756323 0.014212056 0.0016070936 -0.19752997 -0.051812325
-0.022322934 -0.22602919 -0.034330897 0.03721548 0.10844793 -0.14936481 -0.14342348 0.054459915
-0.11019537 -0.12258527 -0.07044486 0.05073449 -0.007854965 0.020870628 -0.023779228 -0.0007588216
0.045158874 0.2045114 0.07259267 0.04905281 -0.10535157 -0.031823933 0.03911993 0.08311827
0.019956782 -0.08034848 0.004357655 0.07322413 0.029530196 0.07036986 0.10937457 0.060661316
0.04619773 0.10750636 0.082681075 0.06123668 -0.0030809622 -0.07938349 -0.08729382 0.07632057
0.054660745 -0.06665176 0.04219679 0.03277157 0.08092661 -0.007859688 -0.04592294 0.01699435
0.10982209 -0.032786667 0.0355587 -0.059801105 0.047302295 0.08884501 -0.008691465 0.0362111
0.1601885 0.03631916 -0.0017796427 -0.076255344 -0.08499179 -0.09493963 -0.04167647 -0.15577461
-0.08209498 -0.14455138 0.018583022 0.0033734313 -0.08038994 -0.0463834 -0.027545145 -0.05497092
0.05607485 0.04014405 0.0787061 -0.045473944 -0.010948185 0.081401 -0.0014043342 0.054568026
0.00017700234 0.051341362 -0.04667671 -0.09693228 -0.04245218 -0.19309495 0.020873876 0.0731252
-0.028205963 0.0734833 0.009631617 -0.04385707 -0.085994594 -0.06598967 -0.05040209 0.016187318
-0.13826096 0.008055835 -0.06365955 -0.26267725 -0.0894141 0.043883007 -0.09847851 -0.16146603
0.059702598 -0.08993964 -0.1271995 -0.17418413 -0.13801686 -0.24148427 -0.16603689 0.13312243
-0.0092041865 -0.09449467 0.12582962 -0.022654856 -0.06657634 0.05526931 -0.060845666 0.07069168
0.003069024 0.119682975 0.05284766 -0.3376956 -0.0022525697 -0.11147818 -0.068271406 0.10196183
0.05953012 0.0067831636 -0.073847465 0.08087288 -0.066710345 0.049415838 0.002913123 -0.14246985
0.048772775 0.090635456 -0.07809961 -0.018552326 0.07876347 -0.118546955 -0.1453487 0.011175507
-0.08252167 -0.09400411 -0.0065511907 -0.16282785 -0.054498557 0.097719446 -0.04268046 -0.13312216
0.055898547 -0.020247148 -0.14454187 -0.03918816 -0.02630028 0.016275216 0.020564329 -0.013627644
0.12457716 0.02128544 0.12743413 0.017612066 0.11065555 0.0026899513 0.032999203 0.061716456

res_conv1.2.bias f4 [32]
00000000: 62fd 85bc 3c9c 12bd 2df0 8fbd f51b 81bd
00000010: edf3 623b 05df 17bc b64d b53c 02fd 7cbd
00000020: 8a96 e13c d9ad 553c b0f6 59bc b599 143d
00000030: d384 2dbb cdc7 f0bc 1315 a63b 258a 09bc
00000040: fdc0 03bd 277d 9e3c 8f79 923c 8bf5 723b
00000050: 4fb3 8abc b94c 34bb f4b5 a03c ee93 c13c
00000060: 496a 113d 1f2e 793b 59d2 2a3d 3dd5 fabc
00000070: 8735 8cbb fa1b babc f9a1 78bc 0e64 30bd
-0.016356174 -0.035793528 -0.07028232 -0.063041605 0.0034630254 -0.009269481 0.022131782 -0.061764725
0.027537603 0.013041937 -0.013303444 0.0362794 -0.0026476874 -0.029392147 0.00506843 -0.008394753
-0.03216647 0.019346787 0.01788023 0.0037072625 -0.016931204 -0.002751155 0.019618012 0.023630109
0.035501752 0.0038021875 0.04170451 -0.030619258 -0.004278842 -0.022718418 -0.015175336 -0.04306417

res_conv2.0.weight f4 [32, 32, 3, 3]
00000000: 7943 473d 8da4 073e 5f78 09bc ccae f8bc
00000010: 8cb7 e33d 248c 53bd cc63 893d e13c 0e3e
00000020: f1d3 643d d7a5 a5bc d0f7 ecbc 7a50 65bd
00000030: 369d c5bd bd8e cbbd 3462 08be 4f16 0dbe
00000040: de9b 20be 2087 95bd ee9d 183e 68f1 92bc
00000050: a79b 3cbd 541a 273e 2f46 643d 6c0b 17bd
00000060: 78ed e83d 0146 363e 41b5 f73d e97d cf3c
00000070: b0dd 51bc 0e73 013e 401b a2bd adc7 c93c
00000080: be86 2e3e fe4d bc3d 916a b43c bd25 e13d
00000090: 94d5 8b3d d4c9 44bc 5a5f 89bd eafc 98bd
000000a0: dee1 823d 592d 16bc daf7 74bc 86cc ff3d
000000b0: 768a be3d 8a33 67bb 35c1 d53d e405 0c3e
000000c0: d2e3 eebd b509 ac3d 931f 903d 6a0f 56be
000000d0: 0ad2 9fbd 741c a43d 92a7 0abe 835f 913d
000000e0: 47ca 413c 6659 04be 4e74 94bd 73c1 d03d
000000f0: e016 3abe b276 5bbc fab6 493e 680c c9bd
00000100: 86dd 053d 022c c83d 6c59 9ebd bafa 1a3d
00000110: ad3d ee3b 706d 11bd 02c1 b6bc 8624 603d
00000120: c6ea 223d 67e1 23bd 8f1f 4e3d 1975 7b3d
00000130: b7f9 83bd e1ae adbd 92e8 6ebd f67c 5e3d
00000140: cbca 61bc a700 5abd d3ce 2dbd 9870 2d3c
00000150: de70 22bd 7ee5 88bc d238 ab3c 9926 99bd
00000160: fb8b d03c 783e 5bbc acc4 0c3e 97ac 513d
00000170: 22d7 043e c006 fb3d 55b5 853d d43f 883d
00000180: ccfd cc3c 7fcc b13d 0adb d93c 9266 c63d
00000190: fd76 813c 4285 7dbd 0728 ea3d 6ebe b33d
000001a0: 8340 4bbd 9b5e 693d 9eac 203c 4254 5cbd
000001b0: 9c43 01bd 7960 31bd f109 93bd 695a 4abd
000001c0: 1264 72bd 7604 4dbd af36 3abd cebb 97bd
000001d0: 5acc 8bbd 77eb 97bd f0c8 2d3d d789 613d
000001e0: f02f 47be 327b 283c c176 f4bd 0f5e cabd
000001f0: 6e18 3b3d fd9e 4cbb 3f71 c9bd f5d0 ce3d
00000200: 3260 db3d 4170 17bd 65d3 953c 9c9e fc3c
00000210: 4d95 8bbd b265 ed3c 188e ea3d fae1 17bd
00000220: 0684 ca3c f226 063e 26e1 19bc f240 8aba
00000230: 04b8 363e 3d58 b3bb 8239 93bd 477a f13c
00000240: 9d16 07be d9b7 8bbd d680 b53d d139 1bbe
00000250: 6057 03be 4418 383d 23ae 6abd 95f9 d8bd
00000260: 6538 ae3d c384 c2bc eedd 11bc 086c e33d
00000270: 7e8e 063d be78 8d3c 3711 1a3c 431d 31bc
00000280: ae9c 9bbd 9643 44bd fdca 52bc ecbe 7abd
00000290: 96d6 4c3c 097c 9bbd 4e3d 903b 0fee 9c3c
000002a0: 3b5a 0fbe a29c 82bd 09b2 dd3c 9ffd aa3b
000002b0: 8295 833d ef3c bb3d db26 da3d c143 023d
000002c0: 6c84 9a3d d32b 9abc 0965 8b3c f0fd 61bd
000002d0: ba3a d9be f87f a2bd b8ae c0bc 3ed6 6dbe
000002e0: b288 e3bc 6f4d 1cbd 689f 20be 6ed0 fcbd
000002f0: ecdf 0bbe 7ef1 213e 21ee 493d fb42 fabd
00000300: dae9 373e 0f56 073e 5cf8 babd 909d 7a3e
00000310: 0834 9a3d efa4 fabc 65e2 76bd a273 823c
00000320: 4775 d7bc bfa5 6e3d b428 323d d89f d7bc
00000330: caa2 b73b 4fa9 493d 6798 65bd 1eae 22bc
00000340: c7c4 d4bb d9fa 113c 9e68 1a3d a560 b9bc
00000350: e070 d9bc e79d 103d 1231 e9ba d133 183e
00000360: 07ac 1dbd 8491 663c de56 57bd 0345 673d
00000370: e9b8 123c 29b1 6f3c 86b0 853d 4ae9 013d
00000380: 1396 8f3d 6637 fcbd c1b4 5bbc f7b9 07bd
00000390: e774 88bd 621d c3bd e619 0fbb 9733 d3bd
000003a0: a6f5 26be 4a22 1dbd 569b 6d3d ef9a 8a3d
000003b0: 4a86 97bd 6eab 023e bed1 cb3d 4e8c e3bc
000003c0: 7e81 193e 85d9 64bd 4432 8abd 263f 6abd
000003d0: ec70 833d 683e b43c 4565 95bc 7571 343c
000003e0: a25c c8bc a8ec 433d de02 dc3c d04d da3b
000003f0: 5c0c 28bd 482f 453d d3ad 043e 58d8 80bc
0.04864833 0.13246365 -0.008390515 -0.030356787 0.11118993 -0.05164732 0.06708488 0.13890411
0.055866186 -0.02022068 -0.02892676 -0.05598495 -0.09649126 -0.099393345 -0.13318712 -0.13778041
-0.15684459 -0.07301164 0.14903995 -0.017937377 -0.04604688 0.16318637 0.055730995 -0.036876127
0.113734186 0.17800142 0.12095118 0.025328593 -0.012809202 0.12641546 -0.07915354 0.024631346
0.17043588 0.09194563 0.022023471 0.10993526 0.06827846 -0.01201101 -0.0670764 -0.074701145
0.06390737 -0.009166085 -0.014951671 0.124901816 0.09303753 -0.0035278522 0.10437242 0.13674122
-0.11664547 0.08400289 0.07037272 -0.20904317 -0.07803734 0.080132395 -0.13540486 0.070982955
0.011828012 -0.12924728 -0.07248746 0.101931475 -0.18172789 -0.013394998 0.19698706 -0.098168194
0.032681964 0.09774019 -0.077318996 0.037836768 0.007270536 -0.03550476 -0.02230883 0.05472233
0.03977468 -0.040009882 0.050323065 0.06139097 -0.06444114 -0.08480621 -0.058327265 0.05431839
-0.01378126 -0.05322328 -0.04243357 0.0105859265 -0.03965842 -0.016710993 0.020901117 -0.07478065
0.025457373 -0.013381593 0.137469 0.051189985 0.12972692 0.12257147 0.06528727 0.06652799
0.025023364 0.08681583 0.026593704 0.096875325 0.015803808 -0.061894663 0.11433416 0.08776556
-0.04962207 0.05697499 0.00980678 -0.053791292 -0.031558618 -0.043304894 -0.071796305 -0.049402628
-0.059177466 -0.050053082 -0.045462307 -0.07408868 -0.06826086 -0.07417958 0.042427957 0.055063095
-0.1945188 0.010283278 -0.11936713 -0.098812215 0.045677595 -0.0031222694 -0.09836053 0.10098449
0.10711707 -0.036972288 0.018289277 0.03083735 -0.06815586 0.028979156 0.114528835 -0.037080742
0.024721157 0.13100794 -0.0093920585 -0.001054792 0.17843634 -0.0054731653 -0.07188703 0.029477252
-0.1319222 -0.068221755 0.08862464 -0.15158774 -0.128263 0.044945017 -0.057294976 -0.10594479
0.0850685 -0.023744946 -0.00890301 0.1110459 0.032850735 0.017269488 0.009403518 -0.010810199
-0.07598244 -0.047916017 -0.012865779 -0.061217234 0.012502333 -0.07592017 0.0044018393 0.019156484
-0.13999264 -0.063775316 0.027062433 0.0052182223 0.06425001 0.091424815 0.10651942 0.031802896
0.07544789 -0.018819725 0.01701595 -0.055173814 -0.42427617 -0.07934564 -0.023520812 -0.23226258
-0.027775142 -0.038159784 -0.15685809 -0.12344442 -0.13659638 0.15814778 0.049299363 -0.12219807
0.17960301 0.13216422 -0.09129402 0.24474168 0.075294554 -0.030596225 -0.0602745 0.015924279
-0.02630104 0.058263537 0.04349585 -0.026321337 0.0056041228 0.04923373 -0.056053545 -0.009929208
-0.0064931842 0.008909904 0.037697427 -0.022629092 -0.02654308 0.035306837 -0.0017791113 0.14863516
-0.038494136 0.01407278 -0.052573077 0.0564623 0.008955219 0.014629641 0.0652781 0.031716622
0.07011046 -0.12315254 -0.013409794 -0.033136334 -0.06662922 -0.09527089 -0.0021835505 -0.10312574
-0.16304645 -0.03836278 0.058009468 0.067678325 -0.073986605 0.12760708 0.099521145 -0.027776863
0.14990804 -0.055871505 -0.06747869 -0.05718913 0.064180225 0.022002414 -0.018236766 0.011013378
-0.024458233 0.047833115 0.026856836 0.006662108 -0.04102741 0.048140794 0.12956934 -0.01572816

res_conv2.0.bias f4 [32]
00000000: 1880 03bb a14a e23c cbc5 9dbd 1ed9 073d
00000010: c5ab 1fbc 0ce0 073c 86e7 8dbc 3549 6c3c
00000020: 565f 3dbd 17d0 373c 3690 8ebd 571c af3c
00000030: 8119 8ebc 95bb 1cbb 0674 83bc 89de 2f3d
00000040: 3e70 113d 1152 fb3c 2a45 053d 321b 0b3d
00000050: 657a a73c 34b4 1bbd ff81 da3a 8829 9ebb
00000060: 8f78 23bc df66 82bb 6811 21bd dc8d 863c
00000070: 0b68 87bd 873f 973c 7756 243c d0e9 123c
-0.0020065363 0.027623476 -0.07703742 0.033166043 -0.009745543 0.008293163 -0.017322313 0.014421751
-0.046233498 0.011219046 -0.069611 0.021375818 -0.017346146 -0.0023915519 -0.016046535 0.042936835
0.035507433 0.03067878 0.032536663 0.033961482 0.020444104 -0.038013652 0.0016670822 -0.0048267283
-0.009977474 -0.0039795483 -0.03932324 0.016425066 -0.066116415 0.01846291 0.01003038 0.008966878

res_conv2.2.weight f4 [32, 32, 3, 3]
00000000: eea6 fd3d df6f 753d 78ae 133c afd7 863c
00000010: 48d7 46bd 254d 923b 5301 1b3e 8d65 203d
00000020: 83fe 6abd 9601 293d 89b7 b4bc 9157 5c3c
00000030: 4ff6 2c3c acdd a5bd e469 5fbd 79b9 413c
00000040: 3603 6ebc f75f 8f3c 2851 2ebd 7f1b 5b3d
00000050: d4da 5dbd fcb1 edbc 7413 883b b5a1 6a3d
00000060: ebff 93bc 6081 bf3c 79e6 d7bc dac0 593b
00000070: d32f 2abd 5079 cebd 448b 4dbd 9026 51bd
00000080: a415 02bd 48a0 b9bd fda9 473d bbd9 93b8
00000090: 8e46 75bd 7f91 42bd 78e7 55bd 20af c0bc
000000a0: 4a75 413b 5c7f 32bd a9de 4f3d 8c77 d4bc
000000b0: 7c8f 853c 5ed6 c13d 69ce c63c 6f96 41bc
000000c0: 923b aa3d 2c6a 81bc 9bd1 de3b 552c bfbc
000000d0: 3667 86bd a0c1 523b 7793 9fbc 4a92 ccbd
000000e0: 85f6 23bd 16fc eebb e223 8d3d 6894 fd3c
000000f0: c323 1abb 4116 f73d db7b bd3d 9778 383d
00000100: 522d 51bd c34a ac3d 8286 403c 3418 cf3c
00000110: 028d 0ebc 5c05 0ebd 3203 653d 635b 913d
00000120: 30fb 4abc 3d83 1d3d be61 cd3b 15b4 dbbc
00000130: 6dac d13c 74d9 9bbc 1956 c4bc d7d0 ebbb
00000140: 1a0c 0cbc 26a9 50ba 3795 b8bc fa5b 9ebd
00000150: 4362 3cbd 1afc 933c 1b1a 87bd 2908 82bc
00000160: c94a 84bd 8a06 65bd ce69 2cbd 069c 8cbc
00000170: 8da4 33bd f322 073d e4bb a1bc 40d1 d03c
00000180: 1976 79bd 6c55 8bbd 7f9f 03bd 65e9 f2bd
00000190: 3a51 6f3d 25f0 933c e4bd 46bd 00af dabc
000001a0: c58a 143a 4f50 6abd 2040 bf3d 943b e23d
000001b0: 0832 b63d 067f fdbb acc0 3cbe 514f ba3b
000001c0: f61c c3bb b733 03be 818f d03d e610 9dbd
000001d0: 9eca 29be 5ac6 213d 7da3 b2bd a6d6 cebd
000001e0: 6113 653d 310d 9c3d 6d94 353d 60cb 5bb9
000001f0: cba0 d43b 0a9e 13bd e252 fabd a0b5 2fbe
00000200: ef96 54be 8b27 8fbb d913 11bd 1237 46bd
00000210: a6b2 703c c810 08bd f2ba 9fbd b464 58bd
00000220: 389b 3fbc 02df 0fbd 5334 803c 2aff bb3c
00000230: a6eb 67bd 5b3d 863d b90e b2bc a081 893c
00000240: fa2f f4bd 078e c5bd 0c41 0ebe 1540 0fbc
00000250: bf5c 69bc 552c 33bd 34df bc3d 785d 2e3e
00000260: 8c72 833d e049 023e ff04 cc3d c579 c53d
00000270: 9f46 d1bd a027 533d cf9c 96bd 9aa5 2bbd
00000280: 75d5 9fbd 3731 08bd 3407 2e3c 7449 1bbd
00000290: ec8d 1abd 607f df3c fe9b 0dbd fe2c 793d
000002a0: 7b77 b3bd bbd4 b3bd 012c c73c dee3 243d
000002b0: 6ec6 273d 3faf e03c ecc9 8bbc 5e56 323d
000002c0: 993e d9bd fd65 70bd 7652 13bc 024b 4fbd
000002d0: 42a7 963c 8dd9 343c 3898 193e 68a4 73bc
000002e0: 04bb 803c b88d 923d 176b f1bd 5f03 fb3c
000002f0: 1eb3 1f3d 8236 d0bc 54c7 2f3d 282c f33b
00000300: 8fd7 0d3d d09e 193d 87ce 3ebd cd54 cdb9
00000310: 72b1 3bbd 1ec8 08bd c4c5 833d 3b69 92bd
00000320: faf5 bfbd 98b4 9abd 2504 ddbd 8721 2d3d
00000330: 6fe3 abbc 1420 cd3d eb4e 1a3e 3b0c 2abd
00000340: 8c91 d33d 1617 51bd 9909 b9bc 6db6 c0bb
00000350: 4f01 fabb bdeb e4bc 5245 7e3d 52e4 f03c
00000360: 1470 053d c11d 23bd df29 d6bd d026 fd3c
00000370: 069c 373d b770 a5bc 410c 323d fcd9 31bc
00000380: ada6 fbbd d59b 843c 4eb8 e03d c942 283e
00000390: 03b0 a53c d9fe fbbc 12b7 b93d d0ad 623d
000003a0: 2367 423d 3d72 c2bc d9ae 973b 656a 46bc
000003b0: 9bdf 9bbd 362e 57bd 3da5 33bd f4f3 6abd
000003c0: 468b 953c 3250 e63c a171 4dbc 684e 05bc
000003d0: 7ab0 8b3d cef2 7dbd a28b 22bd 8c7a eabb
000003e0: 5b2a c9bd 035c 8bbd 1313 cdbd 1ad4 b4bd
000003f0: ea82 443d 14f0 20bd 3adf 64bd fbd3 523d
0.12385355 0.05992114 0.009013765 0.016460268 -0.048545152 0.0044647628 0.15137224 0.039159346
-0.057371628 0.041261278 -0.022060173 0.013448612 0.010556771 -0.08098921 -0.054544345 0.011824005
-0.014527133 0.017501814 -0.042557865 0.05349302 -0.05416377 -0.029015534 0.0041527096 0.057283122
-0.018066367 0.02337712 -0.026355015 0.003322652 -0.041549515 -0.10081732 -0.050181642 -0.051062167
-0.03175892 -0.09063774 0.048746098 -7.050062e-05 -0.05988174 -0.047502037 -0.0522227 -0.023521006
0.0029519373 -0.04357849 0.050749455 -0.02593591 0.01630377 0.094647154 0.024268346 -0.011815651
0.083121434 -0.015797697 0.0067998893 -0.023336569 -0.06562655 0.0032158867 -0.019479496 -0.0998884
-0.04003002 -0.0072932346 0.0689161 0.030954555 -0.002351985 0.120647915 0.09252139 0.04503688
-0.05106861 0.08412697 0.011750819 0.025280096 -0.008700611 -0.03467308 0.05591125 0.07097509
-0.012388989 0.038455237 0.0062677553 -0.026819268 0.025594914 -0.019024588 -0.023966836 -0.0071965265
-0.008547807 -0.00079597754 -0.022532089 -0.07732387 -0.045992147 0.018064547 -0.06596776 -0.015873032
-0.06459577 -0.05591444 -0.04209309 -0.017164242 -0.0438581 0.032992315 -0.019742914 0.025490403
-0.060903642 -0.06803402 -0.03213453 -0.11860923 0.058427073 0.018058846 -0.048520938 -0.026694775
0.000566643 -0.057205494 0.09338403 0.1104652 0.088962615 -0.0077360896 -0.18432873 0.005685725
-0.00595438 -0.12812696 0.10183621 -0.07669239 -0.16581199 0.039495803 -0.08722589 -0.10099535
0.055926684 0.076197036 0.044331003 -0.0002096123 0.0064888946 -0.03603939 -0.1222284 -0.17159128
-0.20760702 -0.0043687276 -0.03541932 -0.048392363 0.014691031 -0.03321913 -0.07799329 -0.052830413
-0.011694722 -0.035124786 0.01564995 0.02294882 -0.056621216 0.065546714 -0.021735536 0.016785443
-0.11923213 -0.0964623 -0.13892001 -0.008743306 -0.014243304 -0.04374345 0.0922226 0.17027843
0.064183325 0.12723494 0.099618904 0.09642366 -0.10218548 0.05155146 -0.073541276 -0.041905977
-0.078043856 -0.03325006 0.010621835 -0.037911847 -0.037733003 0.027282417 -0.034572594 0.060833924
-0.087630235 -0.087808095 0.024312975 0.040256374 0.04096072 0.027427314 -0.017064057 0.043539397
-0.10607643 -0.058691014 -0.008991828 -0.050608642 0.018390302 0.011038196 0.14999473 -0.0148707405
0.015714176 0.07155937 -0.11788004 0.030641256 0.03898918 -0.025416616 0.042914703 0.0074210353
0.0346294 0.03750497 -0.04658368 -0.00039163828 -0.045823522 -0.03339397 0.06434205 -0.07148977
-0.09373088 -0.07553977 -0.10791806 0.042268302 -0.020982472 0.10015884 0.15069167 -0.04151557
0.10330495 -0.051047407 -0.022587584 -0.005881122 -0.0076295505 -0.02794444 0.062077828 0.029405747
0.03257759 -0.039823297 -0.10457205 0.030902296 0.04482653 -0.020195348 0.043468717 -0.010855194
-0.1228765 0.016187588 0.10972653 0.16431727 0.02022553 -0.03076117 0.09068121 0.05534154
0.04746164 -0.023736114 0.0046289978 -0.012110327 -0.07611009 -0.052534305 -0.043858755 -0.057361558
0.018254887 0.028114412 -0.012539298 -0.008136369 0.068207696 -0.061999135 -0.039683945 -0.007155722
-0.09822532 -0.06804659 -0.10013404 -0.08829518 0.047976412 -0.039291456 -0.055876948 0.05147169

res_conv2.2.bias f4 [32]
00000000: 6784 e53c f13a 993b 8331 dd3c 8083 d53c
00000010: 3b8d 9b3c 21c0 b43b 02b9 18bc e844 46bd
00000020: 2af0 623c b0ce 8f3c 10bb 223c 08ce 7dbb
00000030: 0177 8bbd a4a9 41bd d984 65bd d45c 4b3d
00000040: e268 b93c 14dc b93c be7c bdbb a036 6abd
00000050: 7559 563c d769 9dbb 29c6 823c 4d9d 2a3c
00000060: f651 8cbd 8cf1 723c 271b cebc c729 56bd
00000070: 1db7 f13b b8b1 0bbd b9b0 f9bb a6b5 99bd
0.028017236 0.004676216 0.027001148 0.02606368 0.018988242 0.0055160676 -0.009321453 -0.048405558
0.013851205 0.017554611 0.0099322945 -0.003872754 -0.068098076 -0.047280923 -0.056034897 0.049649075
0.02263302 0.02268795 -0.0057826927 -0.057181 0.013082852 -0.004803877 0.01596363 0.01041348
-0.0685157 0.014828097 -0.025159432 -0.052285936 0.007376565 -0.034105033 -0.007619944 -0.0750535

res_conv3.0.weight f4 [32, 32, 3, 3]
00000000: 2bd2 25bd 0006 90bd 9d02 d7bd f1e0 d83d
00000010: acf0 0d3d 2430 c4bd 5899 b03d 36ae 713d
00000020: 4831 973c b25d 2c3d c777 90bd c4e4 4ebe
00000030: 1054 6bbc 6b06 01be b2e9 f6bc 6d29 95bd
00000040: ecad dc39 31ba 1f3e 6c91 103e 0e5c 0fbd
00000050: 124c 86bd 4b20 24bd b403 acbd abfb 0e3b
00000060: c33b bdbb d5a2 ee3d 570c 593e a057 123c
00000070: b8a1 eb3d ae92 fb3b 5b6b 163e a0a3 b63d
00000080: 6941 c33d 8a08 383e 4b9b 24bc 41f1 4e3d
00000090: 93eb 0abc ad35 093e 3558 973d de12 2a3d
000000a0: 1c9c b73d 3513 dd3d f6e9 7f3d 8489 b13c
000000b0: 98a5 fd3d b11c d53c bee4 c4bd e488 84be
000000c0: 2dc0 573d 1d2d 18be 5228 a8bc be89 9b3d
000000d0: 7cd6 12bc 791e d8bb 1d73 a0bc 3ca2 3dbe
000000e0: f9b3 77bc 94c3 05be 6a42 dabd 0b7f 583d
000000f0: 0e69 d9bc 8b3f 273c e8af a13c 37f7 3fbe
00000100: 083b 38bd 7fd0 a3bd 6605 50bd dfe8 cf3b
00000110: 0d45 84bd 8b4e 87bd 8f4e ae3b 6907 e7bd
00000120: fd55 7bbd 9116 8fbd 6e0a 1b3d cab5 bebc
00000130: 49e7 77bd 669f 553d a4ba ee3c ec37 ac3d
00000140: 1abc 343d 933f 423e 2afc b33e 3c18 623e
00000150: 17a7 013d a307 ec3b 13db 07be 5956 9ebb
00000160: 9052 3abe f47f e13d 4b18 74be d75f dcbc
00000170: 6edc 0abd 1cd1 00be 2a03 183d af1f 87bc
00000180: 343b 4d3d 6da5 403d 3e97 f23c 9545 583d
00000190: b05d 6d3e 5185 863e edb5 323e 574f 9a3d
000001a0: fe3e 953b 8349 f63d d048 493d 9897 afbd
000001b0: 81d5 563d af82 1d3c 3e8b 40bc d2fc 4f3d
000001c0: 6b65 57bd 1da5 a63b 387f edbd f6e9 dfbc
000001d0: c871 323e bde2 01be 3b81 64be db06 e8bb
000001e0: 4054 c0bd 0a25 a33c 5910 4dbc 4723 f5bd
000001f0: a86b b8bb cbc1 433d 22aa e63d 076d dcbc
00000200: aa13 76bd 3853 603d b965 da3c 269c 97bd
00000210: 45e3 b53d 1fe1 5f3c ccf4 433d 97be 06bd
00000220: 28b5 32bd c453 38be b80f 133d b305 e5bd
00000230: 1ce8 c43c 057f 0abc c6b2 8cbd 88dd 4b3e
00000240: f79c 24be 45a4 4fbd 44f1 45be 2296 aabd
00000250: 2ffd 9bbb e88a 603b 91ef 1bbb 969b 9b3c
00000260: 9c0c f33d 3d21 86bd 4dd8 343d 50c7 0fbe
00000270: 7574 8c3c d8b9 ffbd 9fd6 10be 03c4 583d
00000280: 5dbd 77bc 492f 63bb 8c55 533d 2fbf 00bd
00000290: ee78 11be f634 52bb 9af9 9cbc d412 9ebd
000002a0: 0cf8 44bc ceb9 023d 6f3e 0d3d e9b9 3f3d
000002b0: dcdf be3d a109 82bd bc09 993a 8f8a 74bd
000002c0: b0fb 40be b8fd adbb 3477 01be 8666 9dbd
000002d0: 01a9 6f3e 4bd8 b03e 388f 2b3e ca32 573e
000002e0: 25f2 073e 6065 703d 9db9 b83d 0fe1 12bd
000002f0: 956d 023d 51ed 62be 9b52 eb3c 0297 24bd
00000300: 0158 2ebd 0d22 39bd b12d e4bd a958 733d
00000310: 7626 30be 9c09 89be ea23 b43c 87c7 99ba
00000320: 3723 a43c e8c0 973c 2022 7cbd 9b10 3d3d
00000330: 4fb5 a8bd 6bef ac3d 9b4d 1e3e e7d1 973c
00000340: e8ec 08be 6782 823c 8045 9fbc 9306 c2bb
00000350: 5f71 1c3e 4d7e 08bd 437b 3b3d 2ee0 8d3d
00000360: c984 763c 003f fb3d cd30 d53b 7a8a 453d
00000370: 1adc 053e 2b69 e3bd 9d53 5b3b da7c 68bc
00000380: a6e9 853c cb2d 1c3e ae1a 043e 19d6 4dbe
00000390: bfaf 7d3d 5d53 733c 5d73 09be 6cbd 093d
000003a0: 8909 cf3d 8793 1c3e 9a72 f73b c2b6 adbc
000003b0: d3da 5fbd 1a99 d63b 61c5 7f3d 8fe4 6cbc
000003c0: 918d f43c 4c80 f83d 4bef 6cbd dbe8 babd
000003d0: 1ad8 0e3e 5b85 953c 048f a43c 9364 7eba
000003e0: ec1e 913c 41df 993c e6c0 5d3d 98a4 2c3d
000003f0: 93b4 3dbc 7c2f c63d c05c 013e 00e1 21bd
-0.040483635 -0.070323944 -0.10498545 0.10589779 0.03465335 -0.095794946 0.08622998 0.05900403
0.018456116 0.042081542 -0.07054096 -0.20204455 -0.014363304 -0.12600105 -0.030140731 -0.07283292
0.00042091252 0.1559837 0.14117974 -0.0349999 -0.06557478 -0.04006986 -0.08399144 0.0021817486
-0.0057749464 0.116521515 0.21196114 0.008932024 0.11505455 0.0076773977 0.1468939 0.08917928
0.0953396 0.17972007 -0.01004679 0.050523046 -0.008479017 0.13399382 0.07389871 0.0415219
0.089653224 0.10794679 0.062478982 0.021672018 0.123851 0.026014658 -0.096139416 -0.2588569
0.052673507 -0.1486096 -0.020527039 0.075946316 -0.00896227 -0.0065954295 -0.01958614 -0.18518919
-0.015118592 -0.13062888 -0.10657199 0.052855533 -0.026539352 0.010208021 0.019737199 -0.18746649
-0.04497817 -0.07998752 -0.0507864 0.006344899 -0.06458483 -0.06606778 0.0053194235 -0.1128071
-0.0613613 -0.06986726 0.037851743 -0.023280043 -0.060523305 0.052153967 0.029141732 0.08409104
0.0441247 0.18969564 0.35153323 0.22079557 0.03165349 0.007203059 -0.13267164 -0.004832071
-0.18195558 0.11010733 -0.23837392 -0.026901169 -0.033901624 -0.12579769 0.037112392 -0.0164946
0.05010529 0.047032762 0.029613134 0.052800734 0.2318027 0.26273587 0.17452212 0.07534664
0.0045546284 0.1202574 0.049141705 -0.08573836 0.052449707 0.009613677 -0.011751948 0.050778218
-0.052586954 0.005085601 -0.11596531 -0.027333241 0.17426217 -0.1268415 -0.22314923 -0.0070808954
-0.093910694 0.019915123 -0.012516105 -0.11969619 -0.005628068 0.047792237 0.11262919 -0.026907457
-0.060077347 0.054766864 0.026659833 -0.0740283 0.08881239 0.013664513 0.04784088 -0.032896604
-0.043629795 -0.18000704 0.035903662 -0.11182728 0.02403646 -0.008453135 -0.06870036 0.19908726
-0.16075502 -0.05069377 -0.19330317 -0.08329417 -0.0047604064 0.0034262482 -0.0023793916 0.018995088
0.118676394 -0.065493084 0.044151593 -0.14040875 0.017145375 -0.12486619 -0.14144371 0.052921306
-0.015120831 -0.0034665635 0.051595256 -0.031432327 -0.14206287 -0.0032075024 -0.019161988 -0.07718435
-0.01202203 0.03191548 0.03448337 0.046808157 0.093200415 -0.06349493 0.0011675875 -0.059702452
-0.18846011 -0.0053097866 -0.12643129 -0.076855704 0.23404314 0.34540018 0.16753852 0.21015468
0.13275965 0.05869043 0.09019778 -0.035859164 0.031842787 -0.22160842 0.028725913 -0.040183075
-0.042564396 -0.04519849 -0.111415274 0.059410725 -0.17202172 -0.26765144 0.021989781 -0.0011732437
0.020036323 0.018524602 -0.06155598 0.046158414 -0.08237707 0.08444103 0.15459292 0.018532706
-0.13371623 0.015931321 -0.01944232 -0.005921194 0.15277623 -0.033323575 0.04577185 0.069275245
0.015046307 0.12267876 0.0065060616 0.048227765 0.13072243 -0.111040436 0.0033466585 -0.014189923
0.016346764 0.15251844 0.12900802 -0.20101203 0.061935183 0.014851418 -0.13422914 0.033627912
0.101092406 0.15290652 0.0075515034 -0.02120531 -0.054652046 0.006549013 0.062444095 -0.0144587895
0.02985266 0.12133846 -0.057845395 -0.09126445 0.13949624 0.018252065 0.020087726 -0.0009704318
0.01771494 0.018783214 0.05413904 0.042149156 -0.011578697 0.09677026 0.12633038 -0.039521217

res_conv3.0.bias f4 [32]
00000000: 1c51 533c 1c0f 5b3c aa7a 543b 69f4 c73c
00000010: d226 94bd ef39 aa3c 8a63 debb 27d7 e83c
00000020: 70a3 783c e97c 543b be25 a5bc 4b13 b63c
00000030: 5ab0 dc3b 6102 a3ba 863d aabc 9ce3 37ba
00000040: d394 27bd 0e87 74bd 0c98 a43b 01aa 1cbd
00000050: d9c0 573d ec9b 513c 94dd c13c 6e9e 6dbc
00000060: 509c 2abd 293b fd3c 52b4 72ba 4335 9d3c
00000070: 18a3 abbb e6c3 393c 734a b4ba 1c22 07bd
0.012897756 0.013370302 0.0032421746 0.024408536 -0.07233967 0.020779578 -0.0067867683 0.028422905
0.015175685 0.0032423085 -0.020159598 0.022225996 0.00673489 -0.0012436622 -0.02078129 -0.00070148124
-0.040913414 -0.05969911 0.005023008 -0.038248066 0.05267415 0.012793522 0.023665227 -0.014503105
-0.041652977 0.030911999 -0.0009258437 0.019190436 -0.005237948 0.01133821 -0.0013755098 -0.032991514

res_conv3.2.weight f4 [32, 32, 3, 3]
00000000: baf5 c23c 109f 37bd 018d 8c3c d234 45bc
00000010: fab4 3c3d 4e73 bcbd 9002 2f3d b0d3 d83b
00000020: 1c0d 8bbd 36f9 da3c c186 c53c 6dad 003d
00000030: 31f5 c2bb 75fc 4fbd 48a2 63bb d31a 1dbd
00000040: eca6 a0bd c684 73bc 441a 81bd 1d7b d73c
00000050: b7ff 9dbd 191a dcbd 645c 763d cb84 f6bd
00000060: 43cc 1cbe 316d 083b 34f4 a7bd 6b9e fe3c
00000070: eec8 adbc f43a 93bd 0caa 743d 9fde 99bc
00000080: 2ad2 bcbd 647e 053d 0641 763d 14f5 0bbe
00000090: d6d9 36bd e16e 1e3c 1b58 5dbc 5c54 6dbd
000000a0: a707 aebb f89a dc3c 4179 27bd a818 3ebd
000000b0: 4fa8 24bd d77c 3f3c b58d 26bd 9802 8abd
000000c0: 0337 47bd 4a20 903c 56c5 36bc bdf8 28bc
000000d0: be75 983c f4e7 6dbc 6887 ee3b c1a7 20bd
000000e0: 19e8 10bd f27e d83c 4968 62bd e692 18bc
000000f0: 16aa 82bd dd92 b13c 28c1 02bd 32c2 f33c
00000100: 2f39 f1bd 3aa9 55bd f0da 2abd fd7a c6bd
00000110: 3e6d 91bd aef1 5cbd a8e1 55bd 9640 47bd
00000120: 44dd 013d 9656 5cbd 21d8 a2bc 7858 fa3c
00000130: 8553 afbd fa17 75bd 82b5 9d3d e863 00bd
00000140: 70fe 6ebd 57cb 07bd 77e0 3e3d 4611 d1bc
00000150: b585 80bd 1333 85ba ddb1 97bc c5a3 16bd
00000160: a093 a53d 515a 24bd ca31 613c 9adf 233d
00000170: d166 75bd 2e60 40bd 6044 8dbc ab0a 9cbd
00000180: c625 c6bd 8f09 f33c 773b 1dbd 756d 103c
00000190: 6069 583d 1084 8c3d 3ec4 71bd 4875 03bc
000001a0: d212 8abd 923d 4a3d 9a56 913d a23e b2bd
000001b0: 5495 15bc bb61 03bd 68bd 0ebc a7bd 85bd
000001c0: 31d8 70bd 4b0b 0abd edb6 953c 0bd9 69bd
000001d0: 278f 44bb 6d0c 05be db06 3abd e370 76bd
000001e0: a6f3 2abe 859b 603d feda 313c 48ee 03be
000001f0: 6031 803d 1436 57bd 6f78 43bd d7d4 403d
00000200: 4ea3 3bbd a5f4 123d b82f 41bc ab29 70bd
00000210: c18d 6e3d cc63 12bd 0b73 fc3a d7ed 28bd
00000220: 32c0 833c 4b81 7a3d 99f6 dfbc f45a 5bbc
00000230: b89c 9a3d 7fa0 a3bd e3b5 babc a067 1a3c
00000240: 2af8 b73c 418c 2a3c bbd9 033d eaef ecbc
00000250: e320 3abc 7012 7dbb e1e1 3e3d 6577 debc
00000260: bca5 3cbd 1ed6 8b3c 2e45 b13c 8432 b4bc
00000270: 7208 15bd 32b3 c83c 4e33 e93c 68c6 8e3b
00000280: 2e9b c03c e517 4f3d e5de b2bd f04d 62bd
00000290: af9e 753c 95f3 bdbd 67b6 d33c 9213 f6bd
000002a0: e49e fa3b c6a2 8c3d 52c4 7abb 8815 1fbd
000002b0: 63f9 323d eaf7 46bd c44f 22bd 4434 6fbd
000002c0: 3094 e7bb b0d3 03bd 583b 30bd 5872 873b
000002d0: 01fc b1bc fb19 59bd 4d36 2cbd f2c8 13bd
000002e0: 02ad 8c3b 7d12 45bc 3c87 773c 31d0 9fbd
000002f0: 6dee c2bd 77f5 b6bb fbae fc3c b156 b93c
00000300: e7bb 603d fbcd 54bd b51d ffbc a84b 9a3c
00000310: 1ad9 83bd 80ac 4eba 8e37 98bd 2bfa 56bd
00000320: 24a3 6dbd 020e 36bd b49a 26bd 2d86 84bc
00000330: 878a 00bc b140 9bbd 7c90 a2bd e20d e23b
00000340: 16af 44bd 782e 4bbd 7645 5ebd b5da 90bc
00000350: d936 ebbc 5649 cb3c a5dc 93bc 6f84 423d
00000360: 0e0a 03bd d298 d53c 209d ccbb ec64 5e3c
00000370: 4ebe b73c 3137 31bd 9905 413d c8e0 8d3b
00000380: d4d9 563c 5038 2dbb 8f6b 173d 2d4a 873a
00000390: 8241 04bc f02d 8ebd c139 2abd 46a0 9fbd
000003a0: 7105 d83c ebee 81bd f119 3a3d 8017 96bd
000003b0: 4ae3 fbbc ec47 15bc 8f29 e3bc cfef 89bd
000003c0: 41cb bcbc b244 bbbd ffa5 86bd b6a0 21be
000003d0: f2b8 86bc d7d3 8bbd b0f0 17be 36f2 a23c
000003e0: 29f9 d1bc 35f1 60bd 3dd0 81bd 805e 8cbd
000003f0: 1dfd 22ba 3a4f e03b f225 5dbd ec81 f8ba
0.023798812 -0.04482943 0.01715708 -0.012036519 0.04607103 -0.0920168 0.042727053 0.006617032
-0.0678961 0.026730161 0.024112107 0.03141539 -0.0059496392 -0.05077787 -0.0034734178 -0.03835566
-0.07844338 -0.014863199 -0.06303838 0.026303822 -0.07714789 -0.10747165 0.060146704 -0.12037047
-0.15312295 0.0020817036 -0.08200875 0.031081399 -0.021213975 -0.07188979 0.05973248 -0.018782912
-0.09219773 0.03259124 0.060120605 -0.13667709 -0.04464134 0.00966999 -0.0135097755 -0.05794178
-0.005310971 0.026929364 -0.04088712 -0.046410233 -0.040199574 0.011687479 -0.040662486 -0.06738776
-0.048636448 0.017593522 -0.011155447 -0.01031321 0.018610831 -0.014520634 0.0072793253 -0.039222483
-0.035377596 0.02642772 -0.055275235 -0.009312367 -0.063800976 0.021676475 -0.03192249 0.029755685
-0.11778485 -0.05216334 -0.0417127 -0.09691427 -0.071009144 -0.05394142 -0.052217156 -0.04864558
0.031705156 -0.053793512 -0.019878449 0.030559763 -0.08560852 -0.05983732 0.077006355 -0.031345278
-0.05834812 -0.033152904 0.046600785 -0.025520932 -0.062755026 -0.0010162316 -0.018517429 -0.036777277
0.08084798 -0.040125195 0.013744781 0.040008165 -0.059912506 -0.046966724 -0.017244518 -0.07619222
-0.096751735 0.029667644 -0.03838679 0.008815159 0.05283487 0.068611264 -0.05902504 -0.0080235675
-0.06741871 0.049375124 0.07096596 -0.087033525 -0.009129841 -0.032075625 -0.00871215 -0.06530314
-0.058799926 -0.033702176 0.018275702 -0.057091754 -0.0029992552 -0.12993021 -0.045416694 -0.06016625
-0.16694507 0.054835815 0.010855434 -0.12883866 0.062594175 -0.052541807 -0.047722276 0.04707798
-0.045810036 0.035877842 -0.011791162 -0.058633488 0.058240656 -0.035739705 0.001926036 -0.041242447
0.016082857 0.06115846 -0.027339267 -0.013388384 0.07549423 -0.079895966 -0.022791808 0.00942412
0.022457201 0.010409416 0.032190066 -0.028922994 -0.01136038 -0.0038615726 0.046602134 -0.027156541
-0.046056494 0.017069872 0.021639433 -0.021996744 -0.036385007 0.02449951 0.028466847 0.004357148
0.023511495 0.050559897 -0.0873392 -0.05525011 0.014991446 -0.09274975 0.025843812 -0.120154515
0.007648336 0.06866984 -0.0038263989 -0.038838893 0.043694865 -0.048576273 -0.03962685 -0.058399454
-0.007067226 -0.032184303 -0.043025345 0.004133504 -0.02172661 -0.053003293 -0.042043973 -0.03608031
0.004293085 -0.012028334 0.015107926 -0.07803381 -0.09518132 -0.005583461 0.030845156 0.022624345
0.054866698 -0.05195425 -0.031142095 0.018834904 -0.06437893 -0.0007883981 -0.07432471 -0.052484673
-0.05801691 -0.044446953 -0.04067488 -0.016177261 -0.0078455275 -0.07580698 -0.079377145 0.0068986276
-0.048018537 -0.049604863 -0.05426546 -0.017682413 -0.028712677 0.024815243 -0.018049547 0.04748958
-0.03199201 0.026073847 -0.0062443167 0.013573866 0.022429612 -0.043265525 0.04712448 0.0043297745
0.013113458 -0.002643127 0.03696781 0.0010321789 -0.008072259 -0.06942356 -0.041558985 -0.077942416
0.026369782 -0.06344398 0.045434896 -0.07328701 -0.030748028 -0.009111386 -0.027729778 -0.06735193
-0.023046138 -0.09143962 -0.0657463 -0.15783963 -0.01644561 -0.068275146 -0.14837909 0.019890886
-0.025631504 -0.054917533 -0.063385464 -0.06853962 -0.00062175264 0.006845382 -0.053991266 -0.0018959618

res_conv3.2.bias f4 [32]
00000000: afc9 7abd 5e66 12bd c306 68bb f7df 94bd
00000010: f010 ce3b f577 45bc 5938 9e3c f0ee 063d
00000020: d570 463c 4dc2 20bd 7ff6 9c3c 7cb7 943c
00000030: aaee 92bd 3b0d 6c3d d54d c6bb 6de5 9a3b
00000040: ecda 6fbd 6ef7 3dbd da69 083a 389f 1a3c
00000050: 89b4 c23c 0455 0f3c 644f f63b e11d 063d
00000060: c5cc 4e3b 8904 463c fa02 cbbd a146 52ba
00000070: 270f c0bc c2a4 4abc 8c40 d03c 4ed6 093c
-0.061227497 -0.035742156 -0.003540442 -0.072692804 0.00628864 -0.012052526 0.019313978 0.032942712
0.012111862 -0.0392478 0.019160507 0.018153898 -0.07174428 0.057629805 -0.006051759 0.0047270567
-0.05855839 -0.046378545 0.00052037614 0.009437375 0.023767726 0.008748297 0.0075167883 0.03274334
0.0031555158 0.012086042 -0.09912677 -0.0008021389 -0.023444725 -0.012368383 0.025421403 0.008412911
