logs/Rain100L/PReNet_GAM_SE/net_latest.pth (torch, 803682 bytes, 58 tensors)

conv0.0.weight f4 [32, 6, 3, 3]
0.032965843 0.070125274 0.07507473 0.16910397 -0.013511738 -0.11260706 -0.08129144 -0.103289805
0.08046398 0.035926457 -0.04148124 0.092549145 0.10558853 0.03617137 0.16999996 -0.11263471
-0.06808779 0.14233726 0.14759038 0.070483625 0.051303845 -0.014078346 0.10687224 -0.09647312
0.13909817 -0.09381091 -0.022017682 0.04062758 -0.07031895 0.09315283 -0.00050784 -0.033288494
-0.013993968 0.096376844 -0.00822148 0.05020053 -0.08591713 -0.07609993 0.13741788 -0.15145434
-0.038619198 0.14972912 -0.091038816 -0.022630332 0.06326631 -0.021038419 -0.1432536 -0.020352185
0.07762764 0.06406544 -0.16389577 0.060494788 0.032251447 -0.20746684 -0.016728418 0.16489242
-0.05388449 0.005647735 -0.07140278 0.037528235 -0.13172027 -0.12204604 0.020081686 -0.12267841
0.04516844 -0.05818219 0.019383118 0.049577568 -0.15122135 -0.16944559 -0.019648578 0.09766899
-0.09075462 0.12982571 0.018652407 -0.15226479 -0.09387355 -0.10253247 -0.031125348 -0.1204919
-0.010166276 -0.14132579 0.19024143 -0.012830817 -0.1632726 -0.028269688 -0.13349684 -0.19677502
0.04244597 0.16248713 0.01781029 0.23056082 -0.06553573 -0.082062505 0.008161896 0.047144037
-0.10134933 -0.0567377 0.16160545 -0.07178865 0.1977592 0.0042559844 -0.13355352 0.13711059
-0.0878424 0.060261432 0.09293598 0.089824565 -0.055830874 -0.060129102 -0.0046947757 -0.15378244
0.08481535 0.08231061 0.0002450259 0.044785384 0.1483425 0.0468106 -0.09530875 -0.0943001
0.043249257 -0.07660629 0.016033407 0.14141266 0.056035146 0.079726554 -0.061129555 0.09256936
0.025788937 -0.113478765 -0.01944879 -0.0362271 0.073615834 0.10378373 0.01730432 0.05456962
-0.08943939 -0.13876097 -0.06307051 0.035124753 -0.18285969 0.13705993 0.07515839 0.09265501
0.08940479 -0.122384526 -0.32674178 0.19353442 -0.11407211 -0.2743327 0.22784433 0.19853106
0.018471602 -0.03335529 0.009857188 -0.25994647 0.1673022 -0.14834882 -0.23984689 0.22149365
0.033316467 0.17186865 0.0485719 -0.01726543 0.06648046 -0.065276735 0.030106116 0.19749036
-0.070489265 0.031339165 0.104958944 -0.09477576 0.15412283 -0.047932677 0.11729342 0.09546825
0.02878327 -0.1107052 -0.026637692 0.021508263 -0.014783599 0.057772756 0.15877555 -0.06388056
-0.04706398 0.20261475 4.2368715e-06 -0.020974059 0.13532677 -0.06121638 -0.098051995 0.020287346
-0.15377896 -0.035006817 0.13112435 -0.16163276 -0.0758986 0.10835319 -0.02908763 0.07466061
0.022986908 -0.16540562 -0.08009431 0.15839137 -0.06025478 -0.0009916289 -0.10158229 -0.14523673
-0.080764525 -0.1017586 -0.04503274 -0.111052886 0.18971716 -0.1509148 -0.05126544 0.08951059
-0.06717953 0.0346007 -0.09439864 -0.045639854 0.11218068 -0.16385442 0.18229276 0.018974766
-0.07461051 -0.045074407 -0.014110705 -0.050327644 -0.080086075 -0.085479625 -0.13052222 0.027284728
0.0323085 0.019596 0.097745866 -0.012729077 0.09541275 -0.16523723 -0.06897446 -0.12418872
0.06890239 0.071197905 -0.008712736 -0.02634335 -0.1810299 -0.028044568 0.17052245 0.06864716
-0.24647266 0.2775859 0.05707247 0.0044045895 -0.10145438 -0.15024862 -0.02374495 0.06422106
00000000: 3107 073d d79d 8f3d c8c0 993d 9729 2d3e
00000010: 5660 5dbc 889e e6bd 207c a6bd 9b89 d3bd
00000020: 4dca a43d 9f27 133d 3ce8 29bd 688a bd3d
00000030: cd3e d83d 6e28 143d 7814 2e3e 07ad e6bd
00000040: 9c71 8bbd dcc0 113e ef21 173e b859 903d
00000050: fb23 523d dda8 66bc d5df da3d b393 c5bd
00000060: c06f 0e3e ef1f c0bd 6d5e b4bc 1b69 263d
00000070: 6203 90bd e9c6 be3d 9120 05ba 8459 08bd
00000080: f546 65bc 3961 c53d 63b3 06bc 129f 4d3d
00000090: 52f5 afbd 48da 9bbd 46b7 0c3e d916 1bbe
000000a0: 2a2f 1ebd 9752 193e 8f72 babd 3f63 b9bc
000000b0: c491 813d c358 acbc 12b1 12be a0b9 a6bc
000000c0: 3dfb 9e3d be34 833d 4bd4 27be 62c9 773d
000000d0: 181a 043d 3072 54be 090a 89bc 8fd9 283e
000000e0: fcb5 5cbd a310 b93b 9f3b 92bd 35b7 193d
000000f0: aee1 06be 46f3 f9bd 5982 a43c d13e fbbd
00000100: 8b02 393d 7350 6ebd 58c9 9e3c d911 4b3d
00000110: c5d9 1abe 2583 2dbe 0ef6 a0bc ae06 c83d
00000120: 8fdd b9bd 08f1 043e efcc 983c 4deb 1bbe
00000130: c740 c0bd 8bfc d1bd 96fa febc 75c4 f6bd
00000140: 7490 26bc b5b7 10be a6ce 423e 5938 52bc
00000150: ef30 27be d595 e7bc 65b3 08be 647f 49be
00000160: d3db 2d3d 0763 263e e3e6 913c 2318 6c3e
00000170: 9937 86bd 6310 a8bd 79b9 053c 1b1a 413d
00000180: 3d90 cfbd ca65 68bd e67b 253e ed05 93bd
00000190: 6381 4a3e c975 8b3b 41c2 08be b866 0c3e
000001a0: b7e6 b3bd b1d4 763d 3855 be3d f1f5 b73d
000001b0: eaae 64bd ef49 76bd a2d6 99bb 2579 1dbe
000001c0: acb3 ad3d 7792 a83d d276 8039 e170 373d
000001d0: 19e7 173e 79bc 3f3d 3c31 c3bd 6920 c1bd
000001e0: 2226 313d c2e3 9cbd 7e58 833c 7bce 103e
000001f0: 1c85 653d ad47 a33d fc62 7abd 0195 bd3d
00000200: 5243 d33c 8e67 e8bd 1253 9fbc de62 14bd
00000210: e6c3 963d 908c d43d cac1 8d3c 6584 5f3d
00000220: 002c b7bd 5b17 0ebe 1d2b 81bd f9de 0f3d
00000230: 923f 3bbe 7059 0c3e a4ec 993d e9c1 bd3d
00000240: dc19 b73d bda4 fabd b34a a7be e32d 463e
00000250: a39e e9bd 5675 8cbe 0650 693e ba4b 4b3e
00000260: c251 973c 8e9f 08bd 0b80 213c b417 85be
00000270: 4551 2b3e c1e8 17be 6c9a 75be 3bcf 623e
00000280: d976 083d 56fe 2f3e 54f3 463d 3b70 8dbc
00000290: e826 883d cfaf 85bd 1aa1 f63c ea3a 4a3e
000002a0: ad5c 90bd 7f5d 003d b7f4 d63d cb19 c2bd
000002b0: 60d2 1d3e 0e55 44bd 8837 f03d dc84 c33d
000002c0: e4ca eb3c 68b9 e2bd 4a37 dabc 1932 b03c
000002d0: e936 72bc 20a3 6c3d 0f96 223e d0d3 82bd
000002e0: 29c6 40bd 3e7a 4f3e 732a 8e36 cad1 abbc
000002f0: 1a93 0a3e 07be 7abd 7ccf c8bd a631 a63c
00000300: 3b78 1dbe 4f63 0fbd 7645 063e 0f83 25be
00000310: ba70 9bbd 47e8 dd3d 2e49 eebc a9e7 983d
00000320: 0a4f bc3c 1760 29be 7c08 a4bd 5931 223e
00000330: b7cd 76bd 8bf9 81ba 600a d0bd f0b8 14be
00000340: df67 a5bd d066 d0bd 4074 38bd b26f e3bd
00000350: 3745 423e 6989 1abe b6fb 51bd 5451 b73d
00000360: 6c95 89bd 77b9 0d3d 1354 c1bd dbf0 3abd
00000370: fcbe e53d 74c9 27be f4aa 3a3e f870 9b3c
00000380: 65cd 98bd f19f 38bd 9630 67bc 5c24 4ebd
00000390: 2b04 a4bd f10f afbd 9ea7 05be 3984 df3c
000003a0: eb55 043d ca87 a03c fc2e c83d 9e8d 50bc
000003b0: c367 c33d f333 29be 7b42 8dbd a856 febd
000003c0: b21c 8d3d 35d0 913d ddbf 0ebc 02ce d7bc
000003d0: e75f 39be b9bd e5bc 709d 2e3e e296 8c3d
000003e0: 5463 7cbe bd1f 8e3e d3c4 693d 6054 903b
000003f0: 50c7 cfbd c6da 19be c584 c2bc 5586 833d

conv0.0.bias f4 [32]
-0.16051613 0.006346755 0.03164039 -0.0033341954 -0.0020952949 0.021499986 0.04948533 0.073483124
0.09561769 0.0009791965 0.02415055 0.04951739 -0.09364193 0.1286521 0.14468598 0.14633055
-0.0073208045 0.029828036 0.041046035 0.078867465 -0.31490266 -0.0027201606 0.073707536 0.038983773
0.02513458 0.0062908637 0.043332502 -0.12345438 0.023205454 0.09255625 0.043877535 0.010398005
00000000: 575e 24be 71f8 cf3b 5b99 013d 8482 5abb
00000010: 3751 09bb bd20 b03c 21b1 4a3d 527e 963d
00000020: 35d3 c33d 6258 803a 60d7 c53c bfd2 4a3d
00000030: 57c7 bfbd 60bd 033e 9028 143e add7 153e
00000040: 5ce3 efbb ed59 f43c e31f 283d 4485 a13d
00000050: ec3a a1be b944 32bb faf3 963d 73ad 1f3d
00000060: 09e7 cd3c 9723 ce3b 6c7d 313d a6d5 fcbd
00000070: 5d19 be3c 228e bd3d eeb8 333d 655c 2a3c

res_conv1.0.weight f4 [32, 32, 3, 3]
0.06662476 0.063538685 0.080956995 0.063144766 0.04556358 0.05847003 -0.03326651 0.009151517
0.058689453 0.1388454 -0.21040872 0.0668901 -0.012002416 -0.334093 0.07659727 -0.09124243
-0.40150332 0.079808414 -0.08317244 -0.090951405 0.15599768 -0.12664367 0.003882771 0.21295923
-0.10287228 -0.09231774 -0.041460697 0.13264076 -0.06595964 -0.07727186 0.012000152 -0.017478878
-0.0129342 -0.06412844 0.081893116 -0.15231392 0.02548614 0.05382148 0.15154639 -0.04480695
0.149156 0.192493 0.07143718 0.12217157 0.16864993 -0.08609443 -0.105689965 -0.13967206
0.11071617 -0.09748399 -0.160195 0.010997626 -0.32126263 -0.19064343 0.012265573 0.06619544
0.08554647 0.031030912 0.07394671 0.017270716 0.031514157 -0.026158998 0.0078097736 0.13404761
0.11993817 0.07814942 0.18433245 0.0027124807 -0.12238597 0.17298584 -0.14200594 -0.04063284
-0.07991385 -0.006704378 0.08589267 -0.023667317 -0.122254886 -0.12450859 0.023287708 -0.07686913
-0.11628876 0.06029913 -0.10465383 -0.2966783 0.057872172 -0.1020769 -0.20930153 0.060640156
-0.027037848 -0.16415992 0.053208724 -0.100317225 -0.031697024 0.017807908 -0.013877048 -0.14769596
-0.06660064 -0.09354069 -0.21130215 -0.08823855 0.050645996 -0.030481847 -0.08492658 -0.029463679
-0.03586532 -0.043783076 0.01726066 0.068667464 0.018895466 -0.0633992 -0.078765124 0.13382381
0.02555699 -0.116922945 0.11034853 0.07306466 -0.0309746 0.09021619 0.0042395433 -0.11093523
0.07483519 -0.090394326 -0.058820095 0.022079887 -0.03553203 0.0741759 -0.022245478 0.13155419
-0.005253869 -0.07229168 -0.06730446 -0.11614994 -0.098088995 -0.07728259 -0.14786011 -0.04133918
0.04623622 0.0320298 -0.09651326 -0.033409197 0.0418177 0.08709679 -0.013778273 0.093944766
-0.07657717 0.058812752 0.011680712 -0.057888854 -0.01907932 -0.020574398 -0.007998584 0.052008536
-0.09253944 0.10359654 0.010752679 -0.13161032 0.11921371 0.1079466 -0.1426304 0.2057792
0.1312905 -0.07270257 -0.013758707 -0.05442869 0.25584793 0.01667897 -0.094176814 0.23254588
0.00047293367 -0.040603448 0.13917652 0.08316562 -0.022173155 -0.03483048 0.16426796 -0.15970144
0.049444612 0.062304474 -0.12468552 0.024415432 0.033237323 -0.04237926 -0.09134005 0.07557927
-0.13162543 -0.12904294 -0.16316561 -0.17952715 -0.04054763 -0.15047213 -0.2149604 -0.0942441
0.055408742 -0.12355724 -0.113888115 0.2260539 -0.010184726 0.041646134 0.18024229 0.14877468
0.013938738 0.037563473 0.28382817 0.106756516 0.088805966 0.3446525 0.16131972 -0.027729299
-0.031324256 0.07772023 -0.13209431 -0.13021149 0.07299529 -0.040765665 -0.048977576 0.105375096
-0.17123024 -0.04579419 0.08608858 -0.18309672 0.041379336 0.03030307 -0.01571373 0.047961444
0.025627235 -0.16852571 0.013342177 -0.060628194 -0.22961332 -0.13132238 -0.032260932 -0.24984293
-0.10268807 -0.047570743 -0.18130688 0.09610127 0.12165165 -0.2618037 0.07106051 0.1578994
-0.12165101 0.07917137 0.01384344 0.23424986 0.12825444 0.122532934 -0.105036914 0.112836026
0.06551683 -0.011425248 0.103694916 0.002750475 0.017539145 0.06413101 0.039670214 0.033679333
00000000: 9072 883d 9220 823d c8cc a53d 0b52 813d
00000010: e0a0 3a3d 457e 6f3d 7742 08bd 3ff0 153c
00000020: 5a64 703d 7d2d 0e3e 6275 57be adfd 883d
00000030: c8a5 44bc 3d0e abbe 08df 9c3d 50dd babd
00000040: d891 cdbe 9872 a33d 5056 aabd bb44 babd
00000050: dbbd 1f3e e1ae 01be 1676 7e3b fc11 5a3e
00000060: b4ae d2bd 1511 bdbd b1d2 29bd fbd2 073e
00000070: d915 87bd b540 9ebd 499c 443c dd2f 8fbc
00000080: f7e9 53bc c655 83bd 94b7 a73d 2ef8 1bbe
00000090: 4fc8 d03c ea73 5c3d fa2e 1b3e 7e87 37bd
000000a0: 5abc 183e e31c 453e a84d 923d 1735 fa3d
000000b0: 91b2 2c3e 4752 b0bd fb73 d8bd 3106 0fbe
000000c0: 29bf e23d b0a5 c7bd 280a 24be 632f 343c
000000d0: 897c a4be 0838 43be 8bf5 483c 7a91 873d
000000e0: fd32 af3d 8a34 fe3c 5f71 973d 517b 8d3c
000000f0: fd14 013d 654b d6bc 21e9 ff3b c743 093e
00000100: 25a2 f53d ce0c a03d a5c1 3c3e e0c3 313b
00000110: 7fa5 fabd 3323 313e 016a 11be 9f6e 26bd
00000120: dfa9 a3bd 66b0 dbbb 7fe8 af3d f6e1 c1bc
00000130: c560 fabd 5cfe febd ddc5 be3c 906d 9dbd
00000140: cd28 eebd 38fc 763d bf54 d6bd 38e6 97be
00000150: 5f0b 6d3d b20d d1bd 2453 56be d061 783d
00000160: 7a7e ddbc 8a19 28be 64f1 593d 1e73 cdbd
00000170: bdd4 01bd e4e1 913c 8f5c 63bc 9c3d 17be
00000180: eb65 88bd 4392 bfbd 975f 58be 6ab6 b4bd
00000190: 2d72 4f3d 11b5 f9bc fded adbd d05d f1bc
000001a0: 84e7 12bd e255 33bd 3a66 8d3c 87a1 8c3d
000001b0: aaca 9a3c 71d7 81bd 9c4f a1bd 1c09 093e
000001c0: e55c d13c 4c75 efbd 69fe e13d eda2 953d
000001d0: 72be fdbc 44c3 b83d deeb 8a3b 0332 e3bd
000001e0: 3143 993d a920 b9bd 57ed 70bd e1e0 b43c
000001f0: 098a 11bd 89e9 973d 263c b6bc 24b6 063e
00000200: a628 acbb a90d 94bd ecd6 89bd 05e0 edbd
00000210: e2e2 c8bd 5646 9ebd a468 17be 4653 29bd
00000220: 3162 3d3d ae31 033d bea8 c5bd 15d8 08bd
00000230: 0949 2b3d cd5f b23d 44be 61bc 1d66 c03d
00000240: 7ed4 9cbd a4e5 703d 7560 3f3c dd1c 6dbd
00000250: 3c4c 9cbc a48b a8bc 7e0c 03bc e706 553d
00000260: 5185 bdbd 6c2a d43d 012c 303c dbc4 06be
00000270: 5126 f43d 1b13 dd3d b40d 12be c8b7 523e
00000280: 0471 063e 16e5 94bd 336c 61bc 9ef0 5ebd
00000290: 80fe 823e 56a2 883c c6df c0bd 8220 6e3e
000002a0: 15f4 f739 cd4f 26bd 4a84 0e3e bd52 aa3d
000002b0: 7aa4 b5bc 68aa 0ebd dc35 283e c688 23be
000002c0: 6f86 4a3d fa32 7f3d 1f5b ffbd df02 c83c
000002d0: dc23 083d e095 2dbd 7e10 bbbd 4ec9 9a3d
000002e0: d1c8 06be d523 04be e314 27be f7d5 37be
000002f0: 4615 26bd 5e15 1abe 941e 5cbe 0d03 c1bd
00000300: 47f4 623d 940b fdbd 2c3e e9bd ac7a 673e
00000310: d6dd 26bc 2395 2a3d 6f91 383e 6458 183e
00000320: 4e5f 643c 28dc 193d ed51 913e 29a3 da3d
00000330: e7df b53d 4b76 b03e ff30 253e 8e28 e3bc
00000340: dd4d 00bd c92b 9f3d bb43 07be 2956 05be
00000350: 8e7e 953d e6f9 26bd b69c 48bd e6ce d73d
00000360: fb56 2fbe b092 3bbd 364f b03d b57d 3bbe
00000370: 617d 293d 253e f83c 15ba 80bc 3873 443d
00000380: 35f0 d13c 0192 2cbe 2599 5a3c 4555 78bd
00000390: c11f 6bbe 6079 06be 0a24 04bd d3d6 7fbe
000003a0: 1f4e d2bd 8ad9 42bd 83a8 39be bed0 c43d
000003b0: 8024 f93d 220b 86be 2c88 913d 61b0 213e
000003c0: 2a24 f9bd 9924 a23d 99cf 623c 32df 6f3e
000003d0: 2255 033e 8cf2 fa3d 981d d7bd 9316 e73d
000003e0: b02d 863d f730 3bbc 005e d43d 5041 343b
000003f0: 41ae 8f3c 1e57 833d 3c7d 223d 57f3 093d

res_conv1.0.bias f4 [32]
-0.021008322 -0.029326014 -0.0011517638 0.0035243626 -0.0026440823 -0.030671505 0.013721453 -0.042921342
0.024640774 0.016262013 -0.014924041 0.001260857 -0.00224682 0.007895735 0.008774173 -0.015799262
0.0010746467 -0.041206278 0.007479635 0.013735279 0.01695647 -0.006988581 -0.11715794 -0.06567603
-0.013543884 0.0016209525 -0.01979405 -0.012589095 0.001551128 -0.013553908 -0.0068829 -0.0053860876
00000000: a519 acbc 1c3d f0bc c8f6 96ba fef8 663b
00000010: 5748 2dbb cf42 fbbc f2cf 603c 4ace 2fbd
00000020: 73db c93c ea37 853c f783 74bc 5743 a53a
00000030: 623f 13bb 1d5d 013c 8dc1 0f3c 746d 81bc
00000040: 29db 8c3a eac7 28bd ba17 f53b f009 613c
00000050: 4ce8 8a3c 7700 e5bb 81f0 efbd 2881 86bd
00000060: 2be7 5dbc 2476 d43a 2227 a2bc 7e42 4ebc
00000070: 384f cb3a 3611 5ebc f389 e1bb c77d b0bb

res_conv1.2.weight f4 [32, 32, 3, 3]
0.0563141 0.0450434 0.002046321 0.21242815 0.07548863 0.1059017 0.08595157 0.047499277
0.046569373 0.13690025 0.10746303 -0.04017981 0.12207998 -0.010288322 -0.064737834 0.09991995
0.16703409 -0.06525779 0.03821508 0.0145126665 0.06489456 0.1180067 -0.022498079 0.09504607
0.11474471 0.116352506 0.014374041 0.008412271 0.047045305 -0.008854921 0.005845766 0.04980625
-0.1016928 0.0096563315 0.070662886 0.0578089 0.052429106 0.06772444 0.02654562 -0.085803494
-0.013656827 0.09522068 -0.07100144 -0.068582825 0.009653241 -0.13822164 -0.033618294 -0.016075794
-0.031062491 -0.078965925 0.03266835 -0.069512025 0.09063685 -0.05829994 -0.10091097 0.034378137
0.1085554 0.010301741 0.040505007 -0.0009971826 0.10412405 0.022668233 0.1431225 -0.029374557
-0.14042394 0.044236902 -0.030420458 -0.13706546 0.10032839 -0.0034221453 -0.09289418 0.16315793
-0.0044942736 0.1081881 0.016754746 0.089232385 0.07392846 0.030256454 -0.06791049 -0.11722982
0.029149082 -0.005449678 -0.049671676 0.028222444 0.00780002 -0.05436289 0.024531305 0.00225046
0.042431377 0.046323184 -0.027968056 0.012299842 -0.050078165 -0.014168055 0.01930985 -0.061859675
-0.017576544 -0.023908837 -0.05177486 -0.019272419 -0.021039061 -0.031572975 0.0059949546 -0.06584456
0.038473863 0.074532904 0.035028163 0.037375636 0.031017255 0.03305264 -0.076653026 0.08000928
0.01635481 -0.02601503 0.037424795 -0.0273093 0.035186756 -0.00088080886 -0.048293933 0.021263737
-0.05633657 -0.011606925 -0.015381708 0.008356599 0.047836732 -0.18952833 0.07743315 -0.017976083
0.05751202 -0.016840473 0.051306274 0.034230098 0.04410402 0.074881785 0.09719918 0.14219253
0.15221022 -0.05753536 0.057059173 0.0045815515 -0.04154916 -0.00092343014 -0.27290347 -0.047110967
0.0002823079 -0.06281576 0.06176512 0.012513884 0.03816628 -0.00321 0.079828575 0.10751188
0.09965423 0.012418595 0.017962959 -0.037650455 0.035780836 -0.07415818 -0.0065034013 0.006472364
-0.07065842 -0.03338116 0.09541936 -0.111773774 -0.018368453 -0.04812245 0.015234842 0.045733795
0.077724434 0.1578271 -0.01233973 -0.1153182 -0.017754007 -0.048249967 0.017861616 0.048440274
-0.04826452 0.023239069 0.076483235 -0.09900362 -0.14403675 0.044841696 -0.123035006 -0.011058277
0.03607037 -0.027464096 -0.07111888 0.02383236 -0.0045322087 -0.10386488 -0.035739794 -0.05369847
-0.054717626 -0.071888946 0.013592505 0.0055825976 -0.17351776 -0.012486495 -0.0046292595 -0.09782977
-0.0652333 0.013865748 0.09238705 -0.08276777 0.016672377 0.15837245 -0.13946667 -0.091781944
-0.20228505 -0.10692828 0.035515558 -0.06322073 -0.19630508 0.05647244 -0.004361146 -0.28451082
-0.032511532 -0.0021476331 0.093887895 -0.2204266 0.12876627 0.039143957 -0.09153113 0.17965665
0.15677729 0.012464185 -0.0043512066 -0.07025487 -0.02122828 0.0073176473 -0.07959974 0.06694997
-0.025443695 0.043807328 0.09014868 -0.049494237 -0.08638672 0.16107717 0.021607814 -0.07404084
0.17691097 0.04579469 0.019507434 0.06374173 0.011021021 0.08220521 0.017654875 -0.0054667117
0.08835051 0.12589064 -0.08922779 0.020905538 0.0024352858 0.0012678062 0.038352758 -0.046343125
00000000: 9da9 663d 6e7f 383d 921b 063b c486 593e
00000010: c899 9a3d fee2 d83d 6007 b03d 9a8e 423d
00000020: 87bf 3e3d 942f 0c3e 9415 dc3d 9693 24bd
00000030: 1205 fa3d 5a90 28bc 4595 84bd d5a2 cc3d
00000040: fc0a 2b3e e0a5 85bd 6a87 1c3d 89c6 6d3c
00000050: 70e7 843d 7fad f13d e44d b8bc 84a7 c23d
00000060: 46ff ea3d 394a ee3d 1981 6b3c 9fd3 093c
00000070: 94b2 403d 3b14 11bc d78d bf3b a301 4c3d
00000080: 5144 d0bd 9735 1e3c b4b7 903d 06c9 6c3d
00000090: e7bf 563d 1cb3 8a3d 3376 d93c beb9 afbd
000000a0: e2c0 5fbc 0f03 c33d 3469 91bd 2775 8cbd
000000b0: a128 1e3c f989 0dbe 56b3 09bd 62b1 83bc
000000c0: c476 febc e3b8 a1bd 3fcf 053d 525c 8ebd
000000d0: d09f b93d ebcb 6ebd 69aa cebd 17d0 0c3d
000000e0: 4b52 de3d a2c8 283c 94e8 253d e5b3 82ba
000000f0: fd3e d53d bbb2 b93c b48e 123e e9a2 f0bc
00000100: 4bcb 0fbe c131 353d 5334 f9bc e35a 0cbe
00000110: f978 cd3d 1246 60bb 4e3f bebd df12 273e
00000120: b344 93bb b991 dd3d 4041 893c 78bf b63d
00000130: ce67 973d 62dc f73c a814 8bbd 3016 f0bd
00000140: 0eca ee3c 3693 b2bb 8774 4bbd c132 e73c
00000150: 4f97 ff3b 9fab 5ebd e0f5 c83c 747c 133b
00000160: 86cc 2d3d 61bd 3d3d 441d e5bc 4785 493c
00000170: c31e 4dbd 2121 68bc b12f 9e3c 9260 7dbd
00000180: affc 8fbc 77dc c3bc e011 54bd 31e1 9dbc
00000190: 1c5a acbc aa52 01bd 5371 c43b 83d9 86bd
000001a0: c596 1d3d b5a4 983d b179 0f3d 3217 193d
000001b0: e617 fe3c 3462 073d 43fc 9cbd e8db a33d
000001c0: 86fa 853c 791d d5bc be4a 193d c1b7 dfbc
000001d0: fd1f 103d 15e6 66ba dccf 45bd 4a31 ae3c
000001e0: 2dc1 66bd f92a 3ebc 8f03 7cbc 1eea 083c
000001f0: 73f0 433d b713 42be 4595 9e3d 9442 93bc
00000200: b991 6b3d 08f5 89bc 8726 523d dc34 0c3d
00000210: 6ba6 343d 9f5b 993d 5d10 c73d eb9a 113e
00000220: ffdc 1b3e 33aa 6bbd e1b6 693d d720 963b
00000230: 742f 2abd 5912 72ba 01ba 8bbe 6ef7 40bd
00000240: ba02 9439 8da5 80bd 6cfd 7c3d 0907 4d3c
00000250: 3f54 1c3d dd5e 52bb 2a7d a33d 302f dc3d
00000260: 8417 cc3d 5d77 4b3c 0e27 933c 5d37 1abd
00000270: ed8e 123d 3ee0 97bd 7c1a d5bb 2016 d43b
00000280: 5db5 90bd afba 08bd 3a6b c33d a6e9 e4bd
00000290: 7079 96bc 0c1c 45bd 8f9b 793c 5c53 3b3d
000002a0: fd2d 9f3d 6d9d 213e 942c 4abc f32b ecbd
000002b0: da70 91bc c2a1 45bd 8652 923c 4f69 463d
000002c0: 04b1 45bd dc5f be3c 3ea3 9c3d 69c2 cabd
000002d0: 5f7e 13be edab 373d c7f9 fbbd c72d 35bc
000002e0: 86be 133d 62fc e0bc c6a6 91bd 153c c33c
000002f0: ec82 94bb 1cb7 d4bd e463 12bd edf2 5bbd
00000300: 971f 60bd 833a 93bd 19b3 5e3c 39ee b63b
00000310: a4ae 31be 2894 4cbc 0bb1 97bb f95a c8bd
00000320: 0999 85bd 2a2d 633c 6c35 bd3d 2682 a9bd
00000330: 8294 883c 632c 223e 5ad0 0ebe 2cf8 bbbd
00000340: d023 4fbe 37fd dabd c378 113d df79 81bd
00000350: 3304 49be a54f 673d f2e7 8ebb 67ab 91be
00000360: d02a 05bd 4ebf 0cbb 4c48 c03d 83b7 61be
00000370: 4edb 033e 6a55 203d ac74 bbbd eaf7 373e
00000380: 3a8a 203e 9536 4c3c 9194 8ebb c9e1 8fbd
00000390: eee6 adbc e0c8 ef3b 3005 a3bd 111d 893d
000003a0: 4c6f d0bc 506f 333d df9f b83d 78ba 4abd
000003b0: 85eb b0bd 6af1 243e df02 b13c b9a2 97bd
000003c0: 2628 353e 3693 3b3d 0ece 9f3c 068b 823d
000003d0: 8391 343c 355b a83d f5a0 903c 1a22 b3bb
000003e0: 1df1 b43d 7ae9 003e 0fbd b6bd 1742 ab3c
000003f0: 5199 1f3b 842c a63a c817 1d3d 4ad2 3dbd

res_conv1.2.bias f4 [32]
0.029149782 0.034685425 -0.030524882 0.025141133 0.014384064 -0.019833278 -0.004066449 -0.078548126
-0.06646546 -0.04836258 -0.088979326 -0.055464767 0.02101971 0.00903494 -0.08138347 -0.05166681
-0.07463206 0.021954896 0.04737253 -0.073358096 0.0002572259 -0.06451471 0.047157094 -0.0051617716
0.026571596 -0.05196537 -0.075782515 -0.0566036 0.022786736 0.014578313 -0.06310938 0.0052854987
00000000: 86cb ee3c 4e12 0e3d 510f fabc c7f4 cd3c
00000010: 23ab 6b3c 6679 a2bc d93f 85bb d7dd a0bd
00000020: 0b1f 88bd d717 46bd cb3a b6bd 062f 63bd
00000030: 8731 ac3c 4907 143c 60ac a6bd 94a0 53bd
00000040: b2d8 98bd c1da b33c b309 423d c53c 96bd
00000050: 47dc 8639 4a20 84bd cc27 413d 1424 a9bb
00000060: adac d93c a4d9 54bd dd33 9bbd 2dd9 67bd
00000070: 40ab ba3c e0d9 6e3c 7e3f 81bd fa31 ad3b

se1.fc.0.weight f4 [2, 32]
-0.42080647 0.05971787 0.35268292 -0.51660764 -0.3232259 1.0356816 -0.21401079 -0.45960733
0.09205539 0.7046304 -0.04796342 0.46723688 -0.44968307 -0.38180822 -0.32343477 -0.30420977
-0.3806376 0.08013362 -0.37010756 -0.2699642 -0.4291317 -0.005259667 -0.15694386 -0.054891303
-0.23021717 0.30254668 -0.46572745 -0.7777761 -0.80135745 -0.4812179 -1.1994736 -0.32905754
0.57603437 -0.33117837 -0.72461516 -0.6394241 -0.26113826 -0.97685504 0.12800266 -0.05148172
-0.2668952 -1.0180316 -0.5187535 -0.80038047 0.18355891 0.2102493 -0.32039732 -0.3171253
-0.3342587 -0.8436801 -0.21479617 -0.1928045 0.90243614 -0.49687228 -0.35403866 -0.4052077
-0.0690127 0.23194526 0.3116814 0.6684307 0.097742766 -0.06876269 1.1305274 0.031127803
00000000: f273 d7be ba9a 743d db92 b43e 6640 04bf
00000010: dd7d a5be 3791 843f a525 5bbe a751 ebbe
00000020: 8987 bc3d a862 343f 4b75 44bd ac39 ef3e
00000030: dc3c e6be 5e7c c3be 3e99 a5be 62c1 9bbe
00000040: eee2 c2be 181d a43d bd7e bdbe bf38 8abe
00000050: 26b7 dbbe 4959 acbb e4b5 20be b4d5 60bd
00000060: 0dbe 6bbe 66e7 9a3e d473 eebe 561c 47bf
00000070: c325 4dbf 3162 f6be 5a88 99bf 3b7a a8be
00000080: fd76 133f 3690 a9be 6180 39bf 4cb1 23bf
00000090: eab3 85be 2c13 7abf 2113 033e 7fde 52bd
000000a0: 7da6 88be dc4e 82bf 08cd 04bf bce5 4cbf
000000b0: def6 3b3e 984b 573e 1e0b a4be 3f5e a2be
000000c0: f523 abbe 6bfb 57bf 87f3 5bbe 8b6e 45be
000000d0: 0e06 673f 0b66 febe 8e44 b5be 6277 cfbe
000000e0: 8856 8dbd 0f83 6d3e b494 9f3e 461e 2b3f
000000f0: 5c2d c83d 74d3 8cbd 1fb5 903f bcff fe3c

se1.fc.2.weight f4 [32, 2]
0.9912009 -0.70975244 0.87675416 -0.50979406 -0.08606639 -0.76057494 -0.1805345 -0.35567468
0.2704916 0.5489862 1.1287452 -1.2321543 -0.25266412 -0.5167414 0.393162 0.6702789
0.35189483 -0.5442091 0.50124604 0.1115152 1.0824649 -0.22308071 0.27433038 -0.18083869
-0.41908905 0.13143118 0.88553435 -0.9739336 0.7752197 -0.5963561 0.9828861 -0.8691288
1.0271372 -1.0250484 0.77719206 -0.028579956 -0.71957725 0.38100713 1.2012233 -1.282308
-0.48802793 0.6971037 0.025412634 0.4538807 0.12861055 -0.6433296 -0.9112504 0.6798475
1.8885784 -0.49264756 1.017179 -0.20287032 0.38856992 -0.7478506 1.1281588 0.48977453
0.12279109 0.3068779 0.2784013 0.12384924 0.5424922 0.7768393 0.8114186 -0.30299005
00000000: 58bf 7d3f 56b2 35bf f672 603f dd81 02bf
00000010: 9343 b0bd 0ab5 42bf 09de 38be fe1a b6be
00000020: e07d 8a3e 5c8a 0c3f b97a 903f 3bb7 9dbf
00000030: 315d 81be 2a49 04bf 884c c93e 6697 2b3f
00000040: 8f2b b43e 4a51 0bbf a951 003f 1562 e43d
00000050: 368e 8a3f 456f 64be 0875 8c3e c72d 39be
00000060: d792 d6be e595 063e 61b2 623f b653 79bf
00000070: cc74 463f cbaa 18bf 6c9e 7b3f 3a7f 5ebf
00000080: 3b79 833f c934 83bf 0ff6 463f 8320 eabc
00000090: 3736 38bf 5e13 c33e afc1 993f ab22 a4bf
000000a0: ccde f9be 6375 323f 282e d03c 0d63 e83e
000000b0: 7cb2 033e 40b1 24bf b547 69bf 7c0a 2e3f
000000c0: f0bc f13f 4d3c fcbe ec32 823f 3dbd 4fbe
000000d0: a3f2 c63e 2373 3fbf 8267 903f bac3 fa3e
000000e0: e579 fb3d 1a1f 9d3e 9d8a 8e3e aca4 fd3d
000000f0: c5e0 0a3f f1de 463f 21b9 4f3f 8321 9bbe

res_conv2.0.weight f4 [32, 32, 3, 3]
-0.02080062 0.004994064 0.1016046 0.05293757 -0.15010081 0.0406813 0.009116599 -0.0010088214
0.0867196 0.08095183 0.009080663 -0.0787241 -0.03348717 0.074464604 -0.015015132 -0.047026664
-0.02151784 -0.034038138 -0.10080342 0.003168541 -0.14414363 0.084532 0.04656036 -0.1538696
0.009988327 0.10080892 -0.007452493 -0.05157136 -0.07212451 -0.12740222 0.06889036 0.060705405
-0.060673945 -0.083053045 -0.15481691 -0.1692495 0.074425794 0.09865252 0.04899097 0.014449377
-0.034261324 -0.031787273 -0.0569701 -0.074537136 -0.14600919 0.096799366 0.013790317 -0.13787384
-0.2604074 0.09928271 -0.05006148 -0.025651028 0.10126632 0.040645253 -0.11325571 0.12989627
0.04463826 -0.08101045 0.099683225 0.1360724 -0.19122149 0.119954504 0.08130772 -0.039530538
-0.23189521 -0.04506356 -0.04401946 -0.08426754 -0.012490601 -0.072417445 -0.1907508 0.033744775
-0.044543393 -0.095828064 0.0001478066 -0.12528217 -0.12364791 -0.011424668 -0.03577625 -0.051544853
0.029375415 -0.18950623 0.09880789 0.10292309 -0.16004445 0.12099391 0.11440292 -0.09797211
0.053485714 0.11000898 -0.12908162 -0.20788671 -0.1970206 0.03924101 -0.14866391 -0.0011790127
0.08874063 -0.26211938 -0.008949583 0.028789314 0.04816218 0.13707131 0.050423946 0.09907415
0.21206826 -0.07679005 0.07449787 0.17417389 -0.028151162 0.030064432 -0.08323979 -0.04263808
0.044273943 -0.089143656 -0.18573083 -0.042400572 -0.12112483 0.057823695 0.21960658 0.1250885
0.06253699 0.26805174 0.16679777 0.07306649 0.36768934 0.22383825 -0.078678735 -0.050663076
-0.081433415 -0.04359759 -0.01879565 0.03263859 -0.1258351 -0.010487624 -0.1502838 -0.07565667
-0.050426234 -0.25105923 0.10846137 -0.27124536 -0.114074945 -0.09848878 -0.5115738 -0.1775456
-0.24327901 -0.23894298 -0.021934303 -0.091283016 -0.14562786 0.16787362 0.017352697 -0.092615575
0.09520616 -0.18456016 -0.12432204 -0.07763192 0.0013966433 -0.07798393 -0.022484269 -0.0077252937
0.0070134136 -0.028191717 0.074315004 0.088787906 0.37641254 0.04401863 0.104024746 0.19898999
-0.102787584 -0.045658424 0.16226207 0.11274536 0.19351287 0.093375854 -0.08633059 0.20736055
0.13744031 0.050036248 0.2464401 0.08031183 -0.30522862 -0.12552634 0.07625268 -0.23547721
0.0349524 0.038845595 -0.09093849 0.02972696 0.066955574 0.0066507384 -0.18939248 0.061665665
0.033842184 -0.23574394 0.029865837 -0.26034802 -0.23896335 -0.1554708 0.062584996 -0.1685762
0.23194602 0.064618304 -0.050137796 -0.2344498 -0.021579416 -0.24606496 -0.41743058 0.12271849
0.24231036 0.39417756 0.070001654 0.30873322 0.30209774 0.12520206 0.31303445 0.34653533
-0.055010457 -0.0047873487 -0.015578349 0.09274354 -0.057190426 0.10548325 0.03412841 -0.10098232
0.11359138 0.007645718 -0.06220093 -0.14049803 0.045652524 0.04778767 -0.22156104 0.01839479
-0.043412667 -0.23964648 0.021881321 0.11422198 0.0005202596 0.0054579154 0.09199954 0.01581357
-0.08896936 0.051816665 0.034059327 -0.21976207 -0.0069099674 -0.017719056 -0.09135062 -0.28737742
0.07525314 0.014714407 -0.35602152 0.0092518255 -0.03789612 0.062896684 0.20762216 0.023433415
00000000: 1066 aabc 3fa5 a33b 1316 d03d 11d5 583d
00000010: 07b4 19be 6fa1 263d ca5d 153c 6e3a 84ba
00000020: 0c9a b13d 13ca a53d 10c7 143c 1a3a a1bd
00000030: d829 09bd e680 983d 0702 76bc 089f 40bd
00000040: 2e46 b0bc 936b 0bbd 0672 cebd 4ca7 4f3b
00000050: 639a 13be 1d1f ad3d 13b6 3e3d fe8f 1dbe
00000060: 14a6 233c e874 ce3d 0b34 f4bb 7e3c 53bd
00000070: 04b6 93bd ba75 02be 6416 8d3d 3ba6 783d
00000080: 3e85 78bd b717 aabd 5388 1ebe be4f 2dbe
00000090: 8d6c 983d 550a ca3d c1aa 483d 14bd 6c3c
000000a0: 9a55 0cbd 5f33 02bd 7b59 69bd eda6 98bd
000000b0: 6f83 15be bf3e c63d c8f0 613c cd2e 0dbe
000000c0: 1e54 85be bc54 cb3d 440d 4dbd 1b22 d2bc
000000d0: b764 cf3d a37b 263d 9cf2 e7bd 8703 053e
000000e0: 9cd6 363d cfe8 a5bd b826 cc3d 9056 0b3e
000000f0: 91cf 43be b5aa f53d a984 a63d c6ea 21bd
00000100: f075 6dbe 9194 38bd c04d 34bd 7694 acbd
00000110: 61a5 4cbc 994f 94bd 2d54 43be f637 0a3d
00000120: 2273 36bd 8141 c4bd 88fc 1a39 f849 00be
00000130: 1e3b fdbd 882e 3bbc 1e8a 12bd b220 53bd
00000140: b6a4 f03c ec0d 42be cb5b ca3d 57c9 d23d
00000150: b1e2 23be a8cb f73d 144c ea3d 9aa5 c8bd
00000160: d613 5b3d 634c e13d f92d 04be 41e0 54be
00000170: c5bf 49be 2ebb 203d 5a3b 18be 1a89 9aba
00000180: a6bd b53d 8334 86be 46a1 12bc 91d7 eb3c
00000190: b545 453d 6c5c 0c3e 5789 4e3d 63e7 ca3d
000001a0: 6c28 593e 1a44 9dbd 5792 983d a45a 323e
000001b0: 449d e6bc af49 f63c 9f79 aabd 44a5 2ebd
000001c0: 9858 353d f390 b6bd 3930 3ebe 39ac 2dbd
000001d0: 4b10 f8bd 8ad8 6c3d 8ce0 603e 3317 003e
000001e0: 6513 803d 143e 893e 09cd 2a3e e2a3 953d
000001f0: c741 bc3e db35 653e 5122 a1bd 1684 4fbd
00000200: 90c6 a6bd 6393 32bd 56f9 99bc 0bb0 053d
00000210: ebda 00be 49d4 2bbc ffe3 19be e2f1 9abd
00000220: bd8b 4ebd d68a 80be ff20 de3d ace0 8abe
00000230: 20a0 e9bd 7cb4 c9bd 80f6 02bf 84ce 35be
00000240: 221e 79be 78ad 74be 91af b3bc 97f2 babd
00000250: 781f 15be 10e7 2b3e 3e27 8e3c 3cad bdbd
00000260: 72fb c23d 57fd 3cbe 8e9c febd 7cfd 9ebd
00000270: 930f b73a 0ab6 9fbd ee30 b8bc 7624 fdbb
00000280: c7d0 e53b 51f2 e6bc 7732 983d 6fd6 b53d
00000290: 25b9 c03e e14c 343d ed0a d53d 08c4 4b3e
000002a0: 4c82 d2bd 5404 3bbd 0728 263e 0ae7 e63d
000002b0: 3d28 463e d73b bf3d 18ce b0bd 5356 543e
000002c0: 27bd 0c3e cff2 4c3d cb5a 7c3e 877a a43d
000002d0: ed46 9cbe fa89 00be 5d2a 9c3d f020 71be
000002e0: 3f2a 0f3d 8f1c 1f3d f63d babd f485 f33c
000002f0: 0120 893d 70ee d93b 1af0 41be 2395 7c3d
00000300: 1a9e 0a3d dc66 71be 33a9 f43c 564c 85be
00000310: cfb2 74be bd33 1fbe 902c 803d 3d9f 2cbe
00000320: 4283 6d3e 9a56 843d 4a5d 4dbd 9c13 70be
00000330: 51c7 b0bc 74f8 7bbe 76b9 d5be d553 fb3d
00000340: 3520 783e a4d1 c93e 075d 8f3d 4812 9e3e
00000350: 8eac 9a3e f834 003e 0d46 a03e 146d b13e
00000360: a552 61bd 31df 9cbb 553c 7fbc 53f0 bd3d
00000370: 8240 6abd 9a07 d83d 3bca 0b3d d2cf cebd
00000380: 99a2 e83d ee88 fa3b 67c6 7ebd b7de 0fbe
00000390: 24fe 3a3d 01bd 433d e6e0 62be acb0 963c
000003a0: 7bd1 31bd e365 75be 7540 b33c 37ed e93d
000003b0: 0862 083a 50d8 b23b 416a bc3d 768b 813c
000003c0: 9135 b6bd b63d 543d cb81 0b3d 4f09 61be
000003d0: 026d e2bb 8e27 91bc 0916 bbbd 2223 93be
000003e0: 511e 9a3d b214 713c 7448 b6be f894 173c
000003f0: f638 1bbd facf 803d e79a 543e 6ff7 bf3c

res_conv2.0.bias f4 [32]
-0.003882957 0.020786865 0.005657747 -0.004338541 -0.074375026 0.009221282 0.015144124 -0.034856867
-0.0034523504 -0.047582157 -0.023192618 0.028229635 0.014575734 0.019548107 -0.02831108 -0.0045601693
0.002527737 -0.010256269 -0.011287639 -0.15230271 0.0051071094 -0.0724268 0.017064495 -0.008104209
0.030976051 -0.056414906 -0.0020126307 0.0026305679 0.017806858 0.0317524 0.01669825 0.014206685
00000000: 3579 7ebb 3749 aa3c 9f64 b93b 522a 8ebb
00000010: ef51 98bd dc14 173c 0f1f 783c 13c6 0ebd
00000020: d440 62bb 82e5 42bd 72fe bdbc d641 e73c
00000030: 0fcf 6e3c 5a23 a03c a3ec e7bc 796d 95bb
00000040: 64a8 253b e909 28bc caef 38bc 3ef5 1bbe
00000050: 8a59 a73b 8154 94bd d7ca 8b3c 84c7 04bc
00000060: 7dc1 fd3c 5113 67bd 57e6 03bb 9b65 2c3b
00000070: b0df 913c ce0e 023d c5ca 883c 28c3 683c

res_conv2.2.weight f4 [32, 32, 3, 3]
0.08277241 0.15466455 0.14522442 0.009475495 0.029612632 -0.0033126604 0.11212261 0.11609376
0.09020772 0.0022948487 -0.024368213 0.08811248 -0.05998984 0.00060013426 0.101613894 -0.036887567
0.023462592 0.0596766 -0.02167721 -0.07390389 -0.12924312 0.001957399 -0.008340886 -0.11843428
-0.02664606 -0.0030600273 -0.06878876 0.076486446 0.06654032 0.010199987 -0.020834716 -0.09904527
0.042237557 -0.11049165 0.043911554 0.22269978 0.015787417 0.02153473 -0.029037261 0.002494007
0.064747185 -0.029508108 -0.06280558 -0.036655318 0.0045766486 0.06853839 -0.041388806 -0.02919609
0.009347186 -0.004569086 0.14586677 -0.044085577 -0.025975626 -0.045325372 0.14059983 0.19598077
-0.055500187 -0.014492149 0.10767736 -0.13018464 -0.022702156 0.0059656873 -0.09363764 0.021283293
-0.13711882 -0.006534152 -0.11130083 -0.2664349 0.13369428 -0.08144553 -0.08204437 0.20374708
-0.07987543 -0.13136129 -0.08462964 -0.06951914 -0.02896891 -0.13812183 -0.058690958 -0.023152782
-0.1774765 -0.02740645 0.04334627 -0.026077736 0.05367741 0.046536874 -0.020835867 0.006890435
-0.052253027 -0.02125445 0.1013086 0.12970026 0.003889168 0.12422019 0.23919672 -0.06420766
0.004305034 -0.17900713 -0.17928694 0.047927342 -0.01278952 0.12333919 0.009109937 0.0002866207
0.08962782 -0.1601971 0.059471957 0.031722456 -0.007901592 0.03375974 -0.18035513 -0.0074162288
0.033734858 -0.12408542 -0.13836083 -0.025239997 -0.11215949 -0.21314225 -0.045960587 -0.05823691
-0.07053447 -0.04918752 -0.13113402 -0.050458904 -0.05406444 -0.17450622 0.16572976 0.14737253
-0.055606924 0.23450811 0.15398203 0.065984674 0.16560212 0.13670437 0.018882943 0.028889164
-0.16214058 0.019706562 0.02995764 -0.044722788 -0.017735517 -0.065381005 -0.022297679 0.03122829
-0.008800483 0.016201954 0.066660576 -0.099974535 0.13368446 0.11377476 -0.084677406 0.15893093
0.04532475 -0.02102665 0.03563589 -0.12070356 -0.01386371 0.0027027314 0.009844729 0.09259145
0.03132467 -0.019181456 0.058174256 0.009595869 -0.043265846 -0.14055716 0.10870399 -0.031141805
-0.16065034 -0.0070665036 -0.034799572 -0.20545952 0.002210037 -0.10761611 -0.047392134 0.007907884
-0.17548636 0.029334633 0.052712396 0.016658558 -0.09615658 0.008559299 0.06828239 -0.018609125
0.009295014 0.09440272 -0.013308107 0.13280517 0.072006926 0.043129344 -0.026623908 0.015790688
-0.055077963 -0.0017543335 0.0050972337 0.026221413 -0.040069833 0.04898529 0.15256399 -0.06471843
-0.001161442 0.025972823 -0.016132936 -0.017627165 0.18922772 0.20631188 0.021572143 -0.046839543
0.049635764 0.06041174 0.11690199 -0.08264045 0.018009527 0.10118122 -0.11721176 0.005339843
-0.02013912 0.017551625 0.013290949 -0.030373361 0.017785788 0.044128515 -0.035519276 0.03651137
-0.08813726 -0.0086756535 0.04672024 -0.0015977692 0.004560149 -0.043709844 -0.017987823 0.03805272
0.0072785867 0.03313042 -0.10974183 -0.051708907 -0.067626834 -0.01312155 -0.0653628 0.13272218
0.031867843 -0.014687649 0.1278452 -0.083305664 0.072342776 0.083858654 0.07381807 0.14892948
-0.074666224 0.16254462 0.0071049714 -0.0058576083 -0.03347781 -0.04827121 0.017447662 -0.017133249
00000000: 9584 a93d 6260 1e3e b6b5 143e 1b3f 1b3c
00000010: 3196 f23c 3819 59bb 8aa0 e53d 91c2 ed3d
00000020: d3be b83d 2c65 163b d99f c7bc 5174 b43d
00000030: e8b7 75bd 5452 1d3a f21a d03d 6b17 17bd
00000040: 9f34 c03c 736f 743d 6894 b1bc ec5a 97bd
00000050: 4f58 04be b547 003b 36a8 08bc ac8d f2bd
00000060: d748 dabc bd8a 48bb 1fe1 8cbd eda4 9c3d
00000070: 4b46 883d d91d 273c 91ad aabc 3fd8 cabd
00000080: 4a01 2d3d 7249 e2bd 9adc 333d 690b 643e
00000090: 9d54 813c 9a69 b03c 8ddf edbc 7f72 233b
000000a0: 2c9a 843d fdba f1bc 36a0 80bd e323 16bd
000000b0: b6f7 953b db5d 8c3d 4f87 29bd a32c efbc
000000c0: f124 193c 45b8 95bb 195e 153e 1493 34bd
000000d0: d6ca d4bc 19a7 39bd 67f9 0f3e 2faf 483e
000000e0: 2a54 63bd 7b70 6dbc f385 dc3d 1f4f 05be
000000f0: dff9 b9bc d07b c33b 17c5 bfbd 4d5a ae3c
00000100: e068 0cbe 711c d6bb b1f1 e3bd 286a 88be
00000110: 27e7 083e eacc a6bd e106 a8bd 13a3 503e
00000120: bb95 a3bd 9383 06be 4e52 adbd 0d60 8ebd
00000130: 3550 edbc cf6f 0dbe ee65 70bd e7aa bdbc
00000140: 66bc 35be 7e83 e0bc dc8b 313d faa0 d5bc
00000150: d8dc 5b3d 739d 3e3d fbaf aabc 28c9 e13b
00000160: 4507 56bd d01d aebc e27a cf3d 25d0 043e
00000170: 69e1 7e3b 2867 fe3d fcef 743e 4e7f 83bd
00000180: 3e11 8d3b a54d 37be ff96 37be 764f 443d
00000190: 238b 51bc 4299 fc3d d841 153c 9445 9639
000001a0: ca8e b73d b50a 24be de98 733d 68ef 013d
000001b0: ae75 01bc a747 0a3d 04af 38be d603 f3bb
000001c0: 902d 0a3d 7f20 febd 76ae 0dbe 1cc4 cebc
000001d0: e0b3 e5bd f641 5abe 2b41 3cbd d389 6ebd
000001e0: 6074 90bd da78 49bd ff47 06be ffad 4ebd
000001f0: ad72 5dbd c2b1 32be 10b5 293e d3e8 163e
00000200: 16c4 63bd e522 703e 77ad 1d3e f922 873d
00000210: 9a93 293e 3bfc 0b3e 67b0 9a3c f8a8 ec3c
00000220: 2e08 26be a86f a13c ba69 f53c 3e2f 37bd
00000230: 134a 91bc 7ae6 85bd 9fa9 b6bc 79d2 ff3c
00000240: e72f 10bc f6b9 843c 5785 883d 73bf ccbd
00000250: 94e4 083e be02 e93d 596b adbd cabe 223e
00000260: 72a6 393d 1540 acbc f0f6 113d 6e33 f7bd
00000270: 9d24 63bc 4f20 313b c94b 213c 96a0 bd3d
00000280: 4c4e 003d 6e22 9dbc 2148 6e3d fe37 1d3c
00000290: 8737 31bd 37ee 0fbe 33a0 de3d 191d ffbc
000002a0: 8681 24be 218e e7bb ff89 0ebd fb63 52be
000002b0: 45d6 103b d665 dcbd 411e 42bd 1290 013c
000002c0: b2b2 33be 2f4f f03c f4e8 573d 8777 883c
000002d0: beed c4bd 4d3c 0c3c a3d7 8b3d 2a72 98bc
000002e0: 1d4a 183c 3756 c13d 3f0a 5abc 14fe 073e
000002f0: 5e78 933d 65a8 303d 621a dabc 795b 813c
00000300: 6e99 61bd aaf1 e5ba b206 a73b 4ace d63c
00000310: 4420 24bd cda4 483d bc39 1c3e 198b 84bd
00000320: 873b 98ba f5c4 d43c 3829 84bc d866 90bc
00000330: e9c4 413e 6c43 533e 10b8 b03c d2da 3fbd
00000340: df4e 4b3d 4d72 773d 4f6a ef3d 653f a9bd
00000350: b788 933c 1938 cf3d b80c f0bd daf9 ae3b
00000360: ccfa a4bc 6dc8 8f3c 48c2 593c 8ed1 f8bc
00000370: 80b3 913c 1ac0 343d a97c 11bd f28c 153d
00000380: 4f81 b4bd 5424 0ebc b95d 3f3d 3d6c d1ba
00000390: 4d6d 953b 1809 33bd 335b 93bc 2bdd 1b3d
000003a0: 3681 ee3b c3b3 073d 53c0 e0bd b8cc 53bd
000003b0: f07f 8abd c5fb 56bc efdc 85bd 53e8 073e
000003c0: db87 023d 77a4 70bc dae9 023e 299c aabd
000003d0: 7328 943d 16be ab3d ee2d 973d f880 183e
000003e0: 9bea 98bd 1972 263e d2d0 e83b 2ef1 bfbb
000003f0: 0720 09bd 08b8 45bd 66ee 8e3c 075b 8cbc

res_conv2.2.bias f4 [32]
0.014780283 -0.02514337 0.03334625 0.017613763 0.013754531 -0.0014510637 -0.08535421 0.001731591
-0.0174798 -0.059285056 0.02830508 0.031377707 0.034714706 -0.03937215 0.005759092 0.022112492
0.028564217 -0.093076736 0.014849921 -0.05240962 -0.09475403 0.0232975 0.026636885 -0.028748883
-0.019678824 -0.07012323 -0.084352426 -0.039902676 0.013258974 0.024976816 -0.037011933 -0.056260727
00000000: 0029 723c 78f9 cdbc 1496 083d bd4a 903c
00000010: af5a 613c 9e31 beba 30ce aebd 8df6 e23a
00000020: cc31 8fbc e3d4 72bd 0ee0 e73c e985 003d
00000030: 0231 0e3d b144 21bd c4b6 bc3b 4225 b53c
00000040: 81ff e93c 049f bebd 154d 733c 78ab 56bd
00000050: 670e c2bd 66da be3c 9935 da3c c782 ebbc
00000060: 7c35 a1bc c59c 8fbd f7c0 acbd fd70 23bd
00000070: 2b3c 593c 2e9c cc3c d399 17bd a671 66bd

se2.fc.0.weight f4 [2, 32]
0.2321343 0.072488524 -0.40816438 -0.16576724 0.3300668 -0.03666726 0.7609851 0.2744258
0.11271152 0.22258899 -0.027415374 0.3121621 0.014471452 0.4421154 -0.38065618 -0.4312195
0.052810665 0.43697086 0.15345721 0.6863245 0.3143919 -0.04577874 -0.508135 0.7501311
0.21641728 0.37774265 0.17726843 0.4836261 0.65718263 0.4606599 0.652154 -0.44339105
0.58529687 0.20661479 -0.33651283 -0.06851857 0.2115895 -0.18668051 0.6414421 0.753364
0.4116113 0.32418004 0.0058140187 0.47252014 0.45907673 0.6523023 -0.076042555 -0.0101489425
0.116600744 -0.013233183 0.46155334 0.7057531 0.40034717 0.28948388 0.21239589 0.18375641
0.51005703 0.64061207 -0.056120593 0.13685781 0.7535328 0.14892894 0.31631503 -0.010178414
00000000: 9db4 6d3e dd74 943d ecfa d0be e3be 29be
00000010: 84fe a83e 6930 16bd ebcf 423f 8a81 8c3e
00000020: 4cd5 e63d 5eee 633e 3596 e0bc b6d3 9f3e
00000030: ab19 6d3c f35c e23e 5ee5 c2be cdc8 dcbe
00000040: ff4f 583d a5ba df3e e323 1d3e f6b2 2f3f
00000050: faf7 a03e 7d82 3bbd 2315 02bf 9708 403f
00000060: 7e9c 5d3e 7c67 c13e db85 353e d79d f73e
00000070: 1f3d 283f 9ddb eb3e 91f3 263f 2704 e3be
00000080: 04d6 153f d492 533e 694b acbe 7753 8cbd
00000090: ebaa 583e 2d29 3fbe 8d35 243f 77dc 403f
000000a0: b7be d23e edfa a53e 8683 be3b 29ee f13e
000000b0: 1b0c eb3e 49fd 263f 33bc 9bbd c047 26bc
000000c0: 5fcc ee3d fecf 58bc b850 ec3e 3cac 343f
000000d0: 4efa cc3e 3b37 943e 4f7e 593e a42a 3c3e
000000e0: 1993 023f 27ff 233f b5de 65bd 7424 0c3e
000000f0: 87e7 403f d480 183e 0bf4 a13e 5dc3 26bc

se2.fc.2.weight f4 [32, 2]
0.23187383 0.4439685 -0.002097462 -0.051137134 -0.3237986 0.3735012 -0.69693315 -0.74390775
0.85750777 0.8210901 0.7008825 0.06891488 1.0846145 0.043517645 0.9485341 0.3397718
0.5720349 0.05565528 0.078660905 0.6600607 -0.20638375 -0.53809 -0.12423124 0.14416178
-0.55929106 0.74835086 0.95103043 0.18740173 -0.4478937 -0.6360907 0.49411553 0.44403484
1.124871 1.2515626 -0.2648972 -0.5979214 -0.3891486 0.03649155 0.4365019 1.0028874
0.6106692 0.16702642 0.7256719 0.045276593 0.39033708 0.36302492 -0.41149017 0.18216732
0.18307082 0.5906411 0.1255918 0.04591643 -0.21437268 -0.18568291 0.49561924 0.67939776
0.112987876 0.36937973 1.3002484 0.5424568 0.35693067 0.07538911 -0.5680923 -0.76608646
00000000: 5570 6d3e d74f e33e 9375 09bb 2c75 51bd
00000010: eec8 a5be 8d3b bf3e 366a 32bf bd70 3ebf
00000020: a185 5b3f f632 523f 096d 333f 3f23 8d3d
00000030: a6d4 8a3f 8f3f 323d 21d3 723f 92f6 ad3e
00000040: e170 123f caf6 633d f818 a13d bdf9 283f
00000050: 4356 53be 44c0 09bf f36c febd 259f 133e
00000060: b32d 0fbf ec93 3f3f bb76 733f 3de6 3f3e
00000070: 5352 e5be d7d6 22bf b6fc fc3e 8958 e33e
00000080: c6fb 8f3f 3433 a03f 9ba0 87be 6011 19bf
00000090: 7c3e c7be 2a78 153d 2d7d df3e 9d5e 803f
000000a0: d154 1c3f f908 2b3e a2c5 393f f373 393d
000000b0: 43da c73e 67de b93e d7ae d2be 128a 3a3e
000000c0: eb76 3b3e 4134 173f 239b 003e de12 3c3d
000000d0: 8384 5bbe a923 3ebe cec1 fd3e 03ed 2d3f
000000e0: 3066 e73d 571f bd3e 8a6e a63f 73de 0a3f
000000f0: 9ebf b63e 9b65 9a3d 7f6e 11bf 3e1e 44bf

res_conv3.0.weight f4 [32, 32, 3, 3]
-0.040394753 0.01573183 -0.065473266 -0.05113091 0.036491804 0.038644597 -0.01560571 -0.057334308
0.017310346 -0.06059739 0.015264209 -0.062058505 -0.053945787 -0.029993473 -0.06473687 -0.06276791
-0.018515578 -0.04471926 0.047224842 0.019369366 0.01681795 -0.004422371 -0.035677727 -0.006096588
0.020715505 -0.01778416 0.04037276 0.002852617 0.0293249 0.008031797 -0.008855908 -0.06514917
0.04269921 -0.067258924 0.011554025 0.028421713 -0.063660316 0.039844573 -0.038496796 -0.05502306
0.006894943 -0.011543421 0.013137785 -0.047029745 0.0447676 0.044520255 -0.044809792 -0.0037960699
0.030978499 -0.00090813416 -0.06315575 0.0040319148 -0.00730535 -0.0074308836 0.031018466 0.04112097
0.03402528 -0.029868638 -0.035444975 -0.03289881 -0.003204149 -0.044782724 -0.05394025 -0.06395278
-0.037495833 0.043622512 -0.061412618 -0.042592514 0.021506613 0.007909161 0.025955122 -0.04846243
-0.047610115 -0.027960131 0.040549394 0.01732928 -0.014486995 -0.047726385 -0.01436069 -0.02425517
-0.030794257 -0.0027743813 -0.0010601878 0.027751703 -0.06109996 -0.0064438046 0.029108658 -0.029698797
-0.05257852 -0.018156273 -0.020426702 -0.06129537 -0.051653557 -0.060275555 0.038205042 -0.04213754
-0.061984997 0.0036810304 0.050866835 -0.03443525 -0.016469778 -0.033989865 0.03932539 -0.004905235
0.038123265 -0.015643656 0.040212277 -0.036008023 -0.043382622 0.028371897 -0.05769146 -0.043018695
-0.060597003 -0.012499815 -0.0387154 0.018508477 -0.047375355 -0.03657946 -0.00603702 -0.06758594
-0.071845755 0.004131435 0.022561742 -0.019828878 -0.06481704 -0.032275327 -0.03494951 -0.048763555
-0.02755406 -0.0068123364 0.005197366 -0.061325815 0.0036585664 -0.051699203 -0.06580003 -0.0335317
-0.046294 -0.023840085 -0.06425336 0.004201406 -0.009730221 0.046963844 0.0071520745 0.04076879
-0.0024846538 -0.05163883 0.039372645 0.022927258 -0.044158965 -0.04627324 -0.029369457 0.024555163
-0.0056601427 -0.0050586173 -0.06734217 -0.0075872154 0.043275043 0.051063094 0.008152977 0.031282227
-0.02552168 0.035594977 -0.070427865 -0.006313227 -0.06639341 -0.048867766 -0.018439252 0.04804678
-0.010156543 -0.056029707 0.032579347 -0.06252914 0.020151224 0.047511864 -0.06376223 -0.044954404
-0.0081641 -0.026737457 0.0037456772 -0.0027951226 -0.021986717 -0.05097575 -0.002165583 -0.011052366
-0.0431677 -0.052013796 -0.020029323 0.023941968 -0.02181003 -0.017213212 0.029538367 0.016807798
-0.007068456 -0.053293582 0.038961325 -0.0013090384 -0.060213923 -0.0491086 -0.05342706 0.022107128
-0.045233868 0.0049777725 -0.047061674 -0.05265262 0.02946914 0.011794102 0.02050524 0.04011863
0.011213013 0.017321631 0.048681896 -0.026089843 -0.019050065 0.0059608333 0.02616742 0.043458246
-0.018680621 -0.056755032 -0.060432527 -0.0009041972 -0.040759966 0.028233264 0.013778831 0.011397869
-0.024951644 -0.042380117 0.019908095 0.034464914 -0.06609857 -0.00655915 0.039550748 -0.06958385
0.040483695 0.026359832 -0.032303583 -0.075281836 -0.056703873 0.017436022 -0.02052085 -0.06535399
-0.049053412 0.028630367 -0.02907564 -0.025213566 0.011734516 -0.011044604 -0.0047202525 0.030686444
-0.0050853095 -0.05021962 -0.0011840784 -0.0142632555 0.017030543 0.035010487 -0.013641343 0.026190089
00000000: f874 25bd 0ae0 803c d916 86bd a56e 51bd
00000010: 6e78 153d cc49 1e3d 18af 7fbc 61d7 6abd
00000020: 6dce 8d3c f834 78bd bc16 7a3c 0f31 7ebd
00000030: 42f6 5cbd dfb4 f5bc c494 84bd 768c 80bd
00000040: fbad 97bc 8b2b 37bd d66e 413d 81ac 9e3c
00000050: ccc5 893c 89e9 90bb cf22 12bd e3c5 c7bb
00000060: 90b3 a93c 16b0 91bc e85d 253d f9f2 3a3b
00000070: c63a f03c cc97 033c 5f18 11bc ee6c 85bd
00000080: 5ee5 2e3d 0cbf 89bd 184d 3d3c a7d4 e83c
00000090: 5760 82bd 1034 233d d1ae 1dbd dc5f 61bd
000000a0: f9ee e13b 9e20 3dbc dd3f 573c 43a2 40bd
000000b0: 3b5e 373d df5a 363d 798a 37bd 7cc7 78bb
000000c0: 9fc6 fd3c da0f 6eba cd57 81bd 271e 843b
000000d0: b861 efbb c57e f3bb 701a fe3c 766e 283d
000000e0: 185e 0b3d 13af f4bc c02e 11bd e7c0 06bd
000000f0: b3fc 51bb 176e 37bd 74f0 5cbd adf9 82bd
00000100: 3b95 19bd 85ad 323d cc8b 7bbd 7d75 2ebd
00000110: a32e b03c 6d95 013c d69f d43c 8a80 46bd
00000120: d302 43bd a50c e5bc 1f17 263d 22f6 8d3c
00000130: dc5a 6dbc be7c 43bd 1949 6bbc c7b2 c6bc
00000140: 3d44 fcbc 65d2 35bb 00f6 8aba 8a57 e33c
00000150: f443 7abd 8d26 d3bb 4875 ee3c e44a f3bc
00000160: 935c 57bd 77bc 94bc e655 a7bc db10 7bbd
00000170: ae92 53bd 80e3 76bd e47c 1c3d 6a98 2cbd
00000180: fbe3 7dbd 713d 713b be59 503d fa0b 0dbd
00000190: a1eb 86bc f538 0bbd a913 213d 18bc a0bb
000001a0: 2427 1c3d 2027 80bc a1b5 243d 267d 13bd
000001b0: fab1 31bd 2e6c e83c e14d 6cbd 5f34 30bd
000001c0: 9034 78bd 06cc 4cbc 0a94 1ebd 179f 973c
000001d0: a90c 42bd 58d4 15bd 32d2 c5bb 7f6a 8abd
000001e0: de23 93bd fd60 873b 67d3 b83c 2c70 a2bc
000001f0: ccbe 84bd 2233 04bd 3827 0fbd 4bbc 47bd
00000200: 0db9 e1bc 053a dfbb aa4e aa3b c730 7bbd
00000210: 8fc4 6f3b 8bc2 53bd 2bc2 86bd 8958 09bd
00000220: c79e 3dbd 484c c3bc 4497 83bd f3ab 893b
00000230: 816b 1fbc 295d 403d f35b ea3b 2dfd 263d
00000240: 93d5 22bb 3d83 53bd 3645 213d f2d1 bb3c
00000250: 08e0 34bd 0289 3dbd 3798 f0bc e927 c93c
00000260: b878 b9bb c2c2 a5bb b1ea 89bd 2d9e f8bb
00000270: 2c41 313d 8927 513d 1094 053c cb21 003d
00000280: d812 d1bc 0acc 113d 7c3c 90bd 30df cebb
00000290: 45f9 87bd 9129 48bd ea0d 97bc b3cc 443d
000002a0: a167 26bc 687f 65bd ec71 053d 470f 80bd
000002b0: 2e14 a53c cd9b 423d c695 82bd 1c22 38bd
000002c0: b8c2 05bc 8308 dbbc 097a 753b 602e 37bb
000002d0: 7d1d b4bc f3cb 50bd 74ec 0dbb fc14 35bc
000002e0: 9dd0 30bd 6b0c 55bd 8914 a4bc f221 c43c
000002f0: f3aa b2bc b902 8dbc 72fa f13c 82b0 893c
00000300: 829e e7bb 5f4a 5abd e995 1f3d 0a94 abba
00000310: e0a2 76bd 1926 49bd 55d6 5abd 021a b53c
00000320: 2647 39bd 951c a33b bec3 40bd 46aa 57bd
00000330: 4469 f13c 0d3c 413c 9bfa a73c 6f53 243d
00000340: c9b6 373c 18e6 8d3c ab66 473d 5eba d5bc
00000350: e20e 9cbc 1853 c33b 0f5d d63c 4601 323d
00000360: 1a08 99bc f777 68bd 1988 77bd a607 6dba
00000370: ecf3 26bd 7249 e73c 9bc0 613c 21be 3a3c
00000380: 6467 ccbc c696 2dbd 4d16 a33c 152b 0d3d
00000390: b05e 87bd 23ee d6bb f7ff 213d fa81 8ebd
000003a0: 3bd2 253d 93f0 d73c c350 04bd 5d2d 9abd
000003b0: 5242 68bd fdd5 8e3c 571b a8bc 50d8 85bd
000003c0: 3bec 48bd 3b8a ea3c 0930 eebc ae8c cebc
000003d0: 2142 403c 6df4 34bc 59ac 9abb 2362 fb3c
000003e0: aba2 a6bb 17b3 4dbd 1433 9bba 6eb0 69bc
000003f0: a383 8b3c 2867 0f3d f17f 5fbc 998c d63c

res_conv3.0.bias f4 [32]
-0.056878354 -0.049651034 -0.0030403195 0.033904865 -0.012360643 -0.04922929 0.0009991468 -0.00049797556
0.04823081 0.023880318 -0.0003937074 -0.04370358 0.021832187 -0.06987549 0.0043794634 -0.036737856
-0.020511739 -0.018584058 0.024815464 -0.00857754 -0.009901604 -0.06632712 0.0153880585 0.0025058365
-0.038735855 0.015611871 0.026664171 3.7396305e-05 -0.008355139 -0.035565827 -0.0310449 0.016239258
00000000: 47f9 68bd e25e 4bbd 1940 47bb d4df 0a3d
00000010: 4b84 4abc a7a4 49bd cef5 823a 938a 02ba
00000020: ab8d 453d a8a0 c33c 836a ceb9 8602 33bd
00000030: 6ad9 b23c e21a 8fbd 9a81 8f3b 6f7a 16bd
00000040: 3c08 a8bc 983d 98bc cd49 cb3c cf88 0cbc
00000050: 563a 22bc 83d6 87bd 321e 7c3c f638 243b
00000060: 7da9 1ebd efc8 7f3c d26e da3c fad9 1c38
00000070: fee3 08bc 79ad 11bd e051 febc 3108 853c
