logs/Rain100L/PReNet_SE_behindRES/net_latest.pth (torch, 694178 bytes, 42 tensors)

conv0.0.weight f4 [32, 6, 3, 3]
000000 16 0d f1 bd ef b0 09 be 24 fb 17 be cf a9 92 3d
       -0.11770074 -0.13446401 -0.14841896 0.07161295
000010 98 95 1c bd 55 c1 90 3d ca b5 94 3d 88 71 50 3e
       -0.0382286 0.07068125 0.07261236 0.20355809
000020 27 46 04 3e 8e 05 8e bc c8 28 49 bd 5f 53 21 be
       0.12917386 -0.017336633 -0.049111158 -0.1575446
000030 fd cc 6f 3d e5 bf b8 3d 98 eb b5 3b c4 1f f5 3c
       0.0585451 0.09020976 0.0055517666 0.029922374
000040 07 ff 29 3e 8c f2 e1 bd b6 91 88 bd 9d 90 0b be
       0.16601191 -0.1103259 -0.06668417 -0.13629384
000050 f6 8e 3b bd 4a c0 78 bd 57 97 e3 bd 37 4d 9e 3d
       -0.045790635 -0.060730256 -0.1111285 0.07729571
000060 1d e3 0d 3e 05 af d4 bc 5e 46 ef bd 57 bd 15 bc
       0.13856168 -0.025962362 -0.11683343 -0.00913938
000070 a7 e5 43 be 03 6a 3a be 17 90 f4 3c cd 8e e7 bd
       -0.19130574 -0.18204503 0.029853864 -0.11306534
000080 a6 1b 19 3e c7 0b 7f bc 49 ed 70 3d ec 11 00 3e
       0.14951953 -0.015566773 0.058820043 0.12506837
000090 7d 30 c4 bd e8 89 78 be 75 7e cd bd bf 18 a5 bd
       -0.09579561 -0.24271357 -0.100338854 -0.080613606
0000a0 c4 aa bf bd 54 b1 4c 3e 1e 34 ca 3c 80 15 45 3e
       -0.09358743 0.1998952 0.024683055 0.19246483
0000b0 6d f1 5a 3e 9b 79 13 be cc 4f 84 bd 5e 87 10 be
       0.21381159 -0.14401858 -0.064605325 -0.14114138
0000c0 86 42 8a 3d e1 36 31 3d aa 1a 0e 3e 16 f0 8c 3d
       0.067509696 0.043265227 0.13877359 0.0688173
0000d0 97 a3 3a 3e 9e 3a 2b 3e 3a aa 33 be 68 41 a1 bc
       0.18226467 0.1672158 -0.17545405 -0.019684508
0000e0 cd fd 8c 3c 3e ac 07 bd 29 79 98 bd 85 ca 1f 3e
       0.017210865 -0.033123247 -0.074449845 0.15604599
0000f0 cb f2 d4 3d a3 78 6a 3d ae c5 b2 bb 75 f2 c1 3d
       0.103978716 0.057243954 -0.005455694 0.09470073
000100 58 ff 01 bc 1e 38 b2 bd 13 8a c0 3d 0a d7 91 3d
       -0.007934414 -0.0870211 0.094013356 0.071210936
000110 47 ab 06 bd c7 fd 31 3e 22 2c 79 3d e8 86 30 3d
       -0.032878187 0.17381965 0.060833104 0.043097407
000120 2d 48 53 3b 24 a3 12 be fd f3 ed bd a4 40 4c bd
       0.0032239065 -0.14320046 -0.11618803 -0.049866334
000130 e4 13 98 3d ce 98 ff bd c5 13 07 be 28 2a d3 3d
       0.07425669 -0.12480317 -0.13191135 0.10310775
000140 a8 f5 e8 3d 57 32 33 be 1b 05 e5 bd ad 8f d5 bc
       0.1137498 -0.17499672 -0.111826144 -0.026069487
000150 67 d0 d1 3c d9 75 18 be 39 3e 0b 3e 76 9d 43 3d
       0.02561207 -0.14888705 0.13597955 0.04775759
000160 c2 7d 8f 3c 59 1e 50 3e 97 f0 11 bd 93 42 18 3d
       0.01751602 0.20324077 -0.035629835 0.037172865
000170 78 29 73 be c5 ea a4 3d dc a0 35 bd 21 6d 72 be
       -0.23746288 0.08052591 -0.04434286 -0.23674442
000180 fd 01 65 3e 07 f5 aa bd 53 d5 01 3d 16 c8 76 be
       0.2236404 -0.083475165 0.031697582 -0.24099764
000190 86 c3 c5 3d fa 31 81 bd d4 57 d1 bd 6e 67 4a 3e
       0.09656434 -0.063083604 -0.1022183 0.19766018
0001a0 70 57 cd bd f6 fb 61 3d d8 94 60 3e 26 91 0d 3e
       -0.10026443 0.05517193 0.2193178 0.13824901
0001b0 88 d7 0a 3d 3f b7 fe 3c 96 d8 a7 bd 68 e5 39 bd
       0.033896953 0.031093238 -0.08195607 -0.045384794
0001c0 24 95 f5 bc 65 e8 da 3d 52 dd 3d 3d c1 1c 10 bc
       -0.029978342 0.10688857 0.046353646 -0.008795918
0001d0 a8 74 74 bd c4 c6 c6 3d 16 99 2b bb 37 07 39 bd
       -0.059681565 0.0970588 -0.0026183776 -0.045172896
0001e0 35 49 8e 39 7b 09 f7 bd 23 1e 10 be 2c b8 ca 3d
       0.00027138894 -0.12062355 -0.14073996 0.09898409
0001f0 b2 de 03 bc e8 00 b0 bd 6d c3 8a 3d 0b 3a ad bd
       -0.0080487 -0.08593923 0.06775556 -0.084583364
000200 aa bf 4c be 5a 0e b9 bd 90 69 19 be 1d 17 ea bd
       -0.19994989 -0.090359405 -0.14981675 -0.1143019
000210 ca 27 e8 3d 05 eb 1c bd 33 c9 fc bc d2 c7 73 3b
       0.11335714 -0.03831007 -0.030857658 0.003719796
000220 65 5d a8 bd dc 63 7a bc c0 a4 81 bc bb 26 d9 3d
       -0.082209386 -0.015282597 -0.01582563 0.106030904
000230 06 ba bd 3c 2f 10 05 be 02 63 01 3e 23 e3 22 3d
       0.023159992 -0.12994455 0.12635425 0.039767396
000240 de 57 4b 3e 14 84 8f bc 0d a2 0c 3b fd 34 00 3d
       0.19857737 -0.017519034 0.0021458894 0.031300534
000250 c2 8d 15 3d bd 12 33 3d 82 c6 cf 3d 95 be ed bd
       0.036512144 0.043719042 0.10145284 -0.11608616
000260 82 be e5 bd f7 16 79 3e a7 4a 01 3e fe 56 df bc
       -0.11217977 0.24325167 0.12626134 -0.02726316
000270 9e 6b a2 3d ea 0b e2 3d 0a 98 33 be 06 11 44 3e
       0.079306826 0.11037429 -0.17538467 0.19147119
000280 98 e5 ba 3c 59 40 53 bd 1a da 6a 3d d9 e3 b1 bd
       0.022814557 -0.05157504 0.057336904 -0.086860366
000290 03 05 a2 bd cf b9 ce 3d 31 e5 0d be 92 f5 17 3d
       -0.07911112 0.10094034 -0.13856961 0.03709943
0002a0 fb 62 5d 3c 30 5c 58 3d 04 dd 88 bc 75 07 a3 3c
       0.013512368 0.05282229 -0.016706951 0.019901017
0002b0 3e 15 43 bd 69 f2 ba 3d 4f a0 57 3d 0f 1f 96 bd
       -0.04762768 0.09128267 0.052643117 -0.07330143
0002c0 13 04 22 3d 56 16 9d bd e2 97 87 3d 89 62 ed bd
       0.039554667 -0.07670276 0.06620766 -0.1159106
0002d0 f8 0b dd 3d c5 65 b0 3c 69 cb a0 3d 4e 1a b3 bd
       0.107932985 0.021532902 0.078512974 -0.087452516
0002e0 c1 86 3d 3e 19 9f fe 3c 71 10 99 bc 4b 96 8b bd
       0.18508436 0.031081723 -0.018684598 -0.068157755
0002f0 da 95 82 bc 3f 36 32 3e f7 71 79 3d 30 c5 16 be
       -0.015940595 0.17403506 0.0608997 -0.14723659
000300 64 64 3b 3e 6a 46 ec 3d a4 95 10 be d1 b5 47 bd
       0.18300015 0.11536868 -0.14119583 -0.048757378
000310 4f 3d a8 3d a7 85 3d be dd cc 5a 3e 2b ea 8c bd
       0.08214819 -0.18508016 0.21367212 -0.068806015
000320 a1 37 b3 3c 80 30 57 3e 98 d7 df 3d 10 08 45 be
       0.021877112 0.21014595 0.10929793 -0.19241357
000330 21 43 44 3d 84 c3 c8 bc f9 67 77 be be 35 c8 bd
       0.04791558 -0.024507292 -0.24160756 -0.097758755
000340 88 09 70 3d ee d0 e2 bc 7b 13 d5 3d 46 95 09 3e
       0.05860284 -0.027687516 0.10404106 0.1343585
000350 ca ca 56 be 17 e2 ba ba 08 6c d0 bd cc e9 ae bd
       -0.20975795 -0.0014258054 -0.10176855 -0.08540687
000360 5e 59 ea bd 8b ba 1e 3d 74 ff 98 3d 44 69 c9 bd
       -0.11442827 0.03875212 0.07470599 -0.09834531
000370 1d 93 a4 bd b2 96 23 3b a8 94 13 be 78 18 68 bd
       -0.08035872 0.0024961648 -0.14412177 -0.05666396
000380 82 b8 14 3e b1 e5 59 bd a3 3a b0 bd 5f 6b d9 3c
       0.14523509 -0.053197566 -0.08604934 0.026540456
000390 cc 17 84 3b 5c a8 3e be 9e cf 06 3e 02 f2 1b be
       0.004031157 -0.18618912 0.13165137 -0.15229037
0003a0 12 66 39 3d ef 18 56 3c 0d fe fb bd 1a 1a 45 be
       0.045263357 0.013067468 -0.12304316 -0.19248238
0003b0 0d bf d2 bc b5 aa 72 bd 53 38 5e be 95 f5 e5 3a
       -0.025725866 -0.05924483 -0.21701173 0.0017544503
0003c0 1a f1 87 3d 42 12 b6 bd 84 12 1b 3e 12 82 2e be
       0.06637783 -0.08890201 0.15143782 -0.17041805
0003d0 d6 f4 2a 3e f2 b5 07 bd fc ba 71 3d 6a 0b 57 3c
       0.1669496 -0.0331325 0.059016213 0.01312528
0003e0 d3 09 8f bc 99 ad dc 3d 97 9e 47 bd 55 e0 0b 3e
       -0.01746074 0.107752986 -0.048735227 0.13659795
0003f0 1a ce ca bd ae f0 d1 3d e7 25 36 bc f4 42 de bc
       -0.09902592 0.10250984 -0.011117435 -0.027131535

conv0.0.bias f4 [32]
000000 28 7e e3 39 31 6d 1c 3c 2d 42 74 3d ea fb a7 3b
       0.00043390808 0.009547518 0.059633423 0.005126466
000010 6f 2b 76 3c 50 9d 9d 3c 87 d7 08 3e 98 64 0a 3d
       0.015025004 0.019240052 0.13363467 0.03378734
000020 ab be f3 38 d9 28 41 be 3c 96 03 3d e8 dd 7a be
       0.000116226576 -0.18863238 0.032125697 -0.24498713
000030 72 a0 10 3c 50 96 97 bb 6f dc 89 bc 09 b7 05 be
       0.008827316 -0.004626073 -0.016828744 -0.13058104
000040 42 e1 86 3d 02 94 16 3c d4 5d 9e 3b 7e 12 6d 3c
       0.06585933 0.009190561 0.0048329625 0.014469741
000050 d1 fe e3 3d 26 ce 04 3d dc 2f 05 3d 24 bf 45 3e
       0.11132587 0.03242316 0.032516345 0.19311196
000060 8c 70 1b 3d 57 dd 9c 3d 79 95 0d 3d e5 13 1a 3c
       0.03794913 0.07659405 0.034566376 0.009404157
000070 8f 77 09 bd 01 d9 c6 3c 5a c0 00 3d 4b 20 b2 3b
       -0.033561286 0.024273397 0.03143344 0.0054359785

res_conv1.0.weight f4 [32, 32, 3, 3]
000000 e5 07 a7 3d d1 bd 14 3e 4f 70 ac bd 16 d6 d9 3c
       0.08155803 0.14525534 -0.08419859 0.026591342
000010 9d ae e7 3d 39 3c 48 bc 62 e9 fc 3c 8c f6 ac 3c
       0.11312602 -0.012221389 0.030873004 0.021113656
000020 9d 8e fb bd d4 ed 4e bc 15 0b 9b bd 7f 42 ca bd
       -0.12283061 -0.012629945 -0.07570473 -0.098759644
000030 94 aa a9 3d 6c 20 2c bd 69 8b 33 bd ba e4 cb bc
       0.08284488 -0.042023107 -0.043834124 -0.024889339
000040 73 13 aa 3c e6 84 00 3e 33 ba c2 bd 73 29 23 bd
       0.020761227 0.12550697 -0.09508171 -0.03983445
000050 47 23 2d 3b fa 7b f3 bd 62 b4 5a 3d 88 8b b7 bc
       0.0026418732 -0.11888881 0.053394683 -0.0224054
000060 41 7a 8d bd f6 50 4b 3c a4 41 a9 3c 06 dd 0f 3c
       -0.06908084 0.012409439 0.020661183 0.008780723
000070 94 65 e8 bd eb a2 b0 3d 48 4e 86 bd a6 d1 85 bd
       -0.113474995 0.08624824 -0.065579 -0.06534128
000080 22 65 9f 3b f0 c2 2c be 50 f7 4f bd f2 6b b6 3e
       0.004864351 -0.16871238 -0.050772965 0.3562923
000090 ae 66 be bd 59 99 52 bd b9 bd 2c 3d df 7a f2 3d
       -0.09296928 -0.051415775 0.04217312 0.11839842
0000a0 e3 59 d2 3d 0b 1f f1 bd a3 6f 08 3e 41 b3 fa bb
       0.10271051 -0.11773499 0.13323836 -0.0076507633
0000b0 69 3e 82 be 3d 63 80 be 13 a2 54 3a ef 89 d4 3d
       -0.2543824 -0.25075713 0.0008111309 0.10377871
0000c0 06 3b 19 be 54 a8 3c 3e 67 6b af bc 6c 96 37 3e
       -0.14963922 0.18423587 -0.021413518 0.17928475
0000d0 4e 3e 13 3f d6 6c 1d be f9 e8 9d bd f8 e8 80 bd
       0.57516944 -0.15373549 -0.07710452 -0.06294435
0000e0 70 a2 bb 3c e2 3c 5d be ca 34 01 3e e9 41 38 3e
       0.022904605 -0.21605256 0.12617794 0.17993893
0000f0 d8 d5 14 be 7e 8a ad 3d ba 40 67 3e 6d ae 73 be
       -0.145347 0.08473681 0.22583285 -0.23797007
000100 2a b7 bf 3d 17 ea 92 3d 89 0d 37 be 2c a2 56 3e
       0.09361108 0.07173555 -0.17876257 0.20960301
000110 8f 1c 94 3d b2 99 e6 bc 43 6b 35 3d 44 fa 9b 3c
       0.072320096 -0.02814946 0.044291746 0.019040234
000120 76 d8 6e bd 89 a8 94 3c b6 ef d0 3d b0 fe 30 3d
       -0.058311902 0.01814677 0.10201971 0.04321164
000130 30 6c b8 bc 57 2c 83 3d 4b 5a 9c bb 73 6b 54 bd
       -0.022512525 0.064049415 -0.004771506 -0.051860284
000140 8e 3f 8a 3c 57 da 55 3d bd ff b7 bc 98 90 0f 3d
       0.016876008 0.05221018 -0.022460813 0.035050005
000150 3d 29 e8 bd 90 df 24 3e fe c3 23 3c d1 6b 9d 3d
       -0.113359906 0.16100907 0.009995459 0.0768658
000160 08 13 96 3d 5a cd 8f 3b 49 ef d8 bd d2 c9 ea bd
       0.07327849 0.0043884935 -0.10592515 -0.114642754
000170 db 94 cf bd 3d 39 a2 bd ff 63 37 3d 84 3e 1b 3d
       -0.10135814 -0.079210736 0.044773098 0.037901416
000180 01 40 e3 3b 91 20 ff 3d 2f 29 24 3e ed ed fa 3d
       0.00693512 0.124573834 0.16031335 0.12252412
000190 47 8e 99 bc 4c 26 ab 3d f6 61 40 3d db 9d 19 bd
       -0.018744601 0.08356914 0.046968423 -0.03750406
0001a0 14 9f 99 bd ae d3 8e 3e ae b0 30 3e f6 48 0c be
       -0.07501045 0.27895874 0.17254898 -0.13699707
0001b0 47 60 6d bd 25 ed 0c 3d e0 84 b9 3c 2b 3f 85 bd
       -0.057953145 0.034405846 0.022646368 -0.06506189
0001c0 a0 c5 9d 3d 7f 30 a6 3d 1a 4e a9 3d 96 cd 88 bd
       0.077037096 0.08114719 0.0826685 -0.066798374
0001d0 de fb 79 bd 8d de 48 be d1 5f 19 3c 11 cb fa 3d
       -0.061031215 -0.19616146 0.009361223 0.12245763
0001e0 b0 e4 c2 bd 8a ea 41 3e d7 4a ed bb 31 6c 80 bb
       -0.09516275 0.18937126 -0.0072415876 -0.0039191474
0001f0 08 6b 69 3e c2 13 12 be c4 3f b1 bd 53 f7 bc bd
       0.22794735 -0.1426535 -0.086547405 -0.09226861
000200 47 e4 db bd a5 e8 dd bc 5d 83 8f bd 3b 31 61 3d
       -0.107369 -0.027088473 -0.070074774 0.05497859
000210 84 cb ce bd 2f 8e 3f bd a3 8e 41 3e 3d d6 0f be
       -0.10097411 -0.046766456 0.18902068 -0.14046569
000220 b5 f7 b8 3c a0 f4 f8 3c 00 db 80 be a9 a0 1c 3c
       0.022579053 0.030390084 -0.25167084 0.009559789
000230 59 13 9f 3c e4 51 0c bd 7d 98 22 3e 2a cf 6f 3d
       0.019418405 -0.034257784 0.15878482 0.058547176
000240 22 27 4e 3c df 9e 64 be 6e 72 22 be 78 27 51 be
       0.012582572 -0.2232623 -0.15863964 -0.20425212
000250 45 09 56 be 8d e0 e6 3c 01 ec d5 be 94 49 01 be
       -0.20901974 0.028183246 -0.4178162 -0.12625724
000260 e1 31 77 3e e1 b9 2e 3c c8 21 87 3d 84 ed 43 3d
       0.24140121 0.010664434 0.0659824 0.047833934
000270 02 2e f9 bd 72 2d a8 3d b3 ea 93 bd cd f1 a2 bd
       -0.121669784 0.08211793 -0.072225 -0.07956276
000280 cf 7c 28 3d 45 40 3f 3d 94 4d bc 3d c0 db d0 bd
       0.04113465 0.04669215 0.09194484 -0.10198164
000290 bf 8c 9a 3c 6f 7d 38 3e 66 83 13 3e 9e 6c 8c bd
       0.018865941 0.18016599 0.14405593 -0.068566546
0002a0 92 4f 4d 3e 8e 69 14 bb c2 91 13 3c 96 f3 9e 3d
       0.20049885 -0.0022645923 0.009006919 0.07761304
0002b0 b7 53 0a 3d 21 8b 88 3c 41 fc 9b 3c fd 2c f6 3a
       0.033771243 0.016667904 0.019041182 0.0018781718
0002c0 ff 2f 3a 3c bb 0b 99 bd a9 d8 93 bc 20 e1 b0 3d
       0.011363982 -0.074729405 -0.018047648 0.08636689
0002d0 44 4d e6 3d ae bd a7 bd 55 0d c4 3d ab 67 c1 bb
       0.11245206 -0.081904754 0.095728554 -0.0059022508
0002e0 40 6e 23 be d9 11 dd 3a ab 0e 91 bd 19 6c d7 bd
       -0.15960026 0.0016866281 -0.07082876 -0.10518665
0002f0 bd 81 d6 3d 29 8f 9b bd f8 ba 15 be 70 0e c4 3b
       0.10473964 -0.07595665 -0.14622104 0.0059831664
000300 2e 4c 3f be d0 f8 29 3d 90 72 9e 3d a8 33 65 be
       -0.18681404 0.04149705 0.07736695 -0.22382987
000310 9a 4b 8a 3e 18 59 92 3d 6c 79 86 3d 93 97 98 bb
       0.27010804 0.071458995 0.06566128 -0.004656741
000320 24 81 8a bd 28 13 e0 3c 99 50 1e 3d 17 43 13 bc
       -0.06762913 0.027352884 0.038651083 -0.008988163
000330 cd 14 9b 3c c0 d1 fa 3b d2 35 76 3c 16 5b d1 bd
       0.018930817 0.0076543987 0.01502748 -0.102224514
000340 dc 08 30 be f7 22 74 bd f8 f0 90 bd b2 8a e5 bd
       -0.1719088 -0.059603658 -0.07077211 -0.11208095
000350 a7 fb e8 bb ee b8 3f be 9f 6f ce bd e8 8c 85 3d
       -0.0071100774 -0.18722889 -0.10079884 0.06521016
000360 8a ca 2d bc 13 e3 84 3d 1b 9c 84 3c 80 3a 08 be
       -0.010607371 0.064886235 0.016187718 -0.13303566
000370 a0 2d 92 3d 23 d2 3b 3d 73 24 65 bd 31 cb 42 3e
       0.071376085 0.0458547 -0.055942964 0.19022824
000380 d1 4d b6 3d 9c da 97 bc 4b 81 86 3d 6b 94 e3 3c
       0.08901561 -0.018536858 0.065676294 0.027780732
000390 f8 10 2f be 33 38 a1 3d be 93 2b 3d 19 e5 45 bd
       -0.17096317 0.07872047 0.041888945 -0.048314188
0003a0 d9 ea e7 3d 8e 21 27 bd c7 8b 9f 3d 85 2d 98 bc
       0.113240905 -0.040803485 0.07790332 -0.018576393
0003b0 b8 4d d9 bc 23 41 e4 3d 5d eb 52 bd 14 42 dd bc
       -0.026526317 0.11145236 -0.05149399 -0.027009048
0003c0 3a 40 11 3e 47 1a 47 3d 43 de 3a bd 51 29 79 3b
       0.14184657 0.048609044 -0.04562212 0.0038019011
0003d0 a2 29 9a bd a5 24 27 3d ef 55 89 3d 4a 35 37 bd
       -0.07527472 0.04080643 0.06705844 -0.044728555
0003e0 f6 14 44 bd 9d de a7 3a 28 6e 96 bc e8 ff 8e be
       -0.047871552 0.0012807433 -0.018363073 -0.27929616
0003f0 72 7e 15 3d 9d 92 34 be 00 fc f6 3c 2c cd d0 3d
       0.03649754 -0.17634054 0.03014946 0.101953834

res_conv1.0.bias f4 [32]
000000 b7 36 eb bb 35 b6 97 3c 25 ca d0 bc cb db 0d bd
       -0.0071781534 0.0185195 -0.025487015 -0.03463344
000010 6b 34 38 bc 2a 4e ab ba b5 ef ff 3b 2e 92 3c 3c
       -0.011242966 -0.0013069559 0.0078105577 0.011509461
000020 27 1b a0 3c ad 60 1f 3b 7b 96 f8 3b 68 72 9c bd
       0.019544197 0.0024319098 0.007586298 -0.07639009
000030 7e f6 02 3c f8 cb 13 ba 7d 75 7d 3c 69 72 a5 bb
       0.007993339 -0.00056379987 0.015469906 -0.005049039
000040 8e 6d 22 bd 2a 82 61 3b 06 58 c7 3c 01 10 ea bc
       -0.03965526 0.003440986 0.024333965 -0.028572084
000050 b2 da 1d bd 12 97 ed bc ce ae b3 bb bd bd df 3b
       -0.038538642 -0.0290027 -0.005483485 0.0068280385
000060 03 de 14 3c a7 a2 fc bc e9 20 95 3c c8 fe 8d 3c
       0.009086135 -0.030839277 0.01820417 0.017333403
000070 69 ed 16 bc 41 b0 5a bd 9d 65 06 bc a0 2d 5d bd
       -0.009211876 -0.053390745 -0.008202937 -0.05399859

res_conv1.2.weight f4 [32, 32, 3, 3]
000000 d7 cf 5f be 2d 85 f9 bd 5b 72 03 bd 87 42 a1 3c
       -0.21856628 -0.121836044 -0.03209148 0.019685043
000010 6e 3e 38 bb e1 f2 55 3c 34 c2 24 3e d3 b9 23 3d
       -0.0028113383 0.013058395 0.16089708 0.039972138
000020 a5 e2 a4 bb 6b 7f 80 3d 72 06 90 3d 78 eb ba 3d
       -0.005031901 0.06274303 0.07032479 0.09126943
000030 3d d3 60 3d dc fa 8c 3a 0d 77 23 3d 88 74 48 bc
       0.054888953 0.0010755914 0.039908458 -0.012234814
000040 3d 3d ae bc 86 44 38 3c 4b 1e 1b be b3 8d d2 bd
       -0.021269435 0.011246806 -0.15148275 -0.10280933
000050 e0 f9 03 be 7e bc 1c bd c6 9a cd bc e5 ec 48 3d
       -0.12888288 -0.038265698 -0.025098216 0.049054045
000060 5b c8 ef 3d 43 1a b1 bd f0 c9 c7 3d 5e b2 2d be
       0.11708137 -0.08647587 0.097553134 -0.16962573
000070 3d b2 85 bd 80 2a d3 3d fd 37 da 3d 95 88 23 3c
       -0.06528137 0.103108406 0.1065521 0.009981294
000080 16 55 83 bc 9d f8 3e 3e 65 0f 2b 3d f7 8e 10 bd
       -0.016031783 0.18649526 0.04176273 -0.035292592
000090 d9 c8 c4 3d 3d 03 00 3d cd 32 2e 3d ab d3 b8 3d
       0.09608621 0.03125309 0.042528916 0.090247475
0000a0 7a ae 1d bd 1a dd 03 3d 9b ea 47 3d 72 56 88 3d
       -0.038496472 0.03219328 0.04880772 0.06657113
0000b0 01 b7 12 3d ca 37 34 be 6d 9d 11 be 4b ef 37 3e
       0.035819057 -0.17599407 -0.1422021 0.17962377
0000c0 f5 ca 42 3d 17 ee 60 bd eb 0b 5b 3e c6 b2 0e be
       0.047556836 -0.05491456 0.21391265 -0.13935384
0000d0 96 3d 6b 3e 70 51 18 3e b4 96 f8 be b0 2b 52 be
       0.22972712 0.14874816 -0.48552477 -0.20524478
0000e0 8e 69 9e bb d9 b1 94 be 9f 6a f5 bd 3c cb 80 3d
       -0.0048343604 -0.29041937 -0.11983227 0.06288764
0000f0 c6 e4 80 be 4f 8f 3b be 39 5d 49 3d d0 82 f2 3d
       -0.2517454 -0.18316387 0.04916117 0.11841357
000100 90 73 0c bc bc 87 b8 3d e7 51 b0 3d 2e 71 66 bd
       -0.008572474 0.09010264 0.08609372 -0.05626028
000110 1b 12 4e be d2 57 2b bc 87 65 32 3e 08 a3 03 be
       -0.20124094 -0.01045795 0.17421542 -0.1285516
000120 67 d3 3d be b4 de c9 bd 22 50 88 3d 22 e3 27 bd
       -0.18537675 -0.098569304 0.06655909 -0.040988095
000130 aa 0e 15 3d 70 bc e7 3d b5 31 c6 3d 9f 3a 67 be
       0.036390938 0.113152385 0.096774496 -0.22580956
000140 cf e4 b0 3c 3e 5a 8a 3b 6f 4b 00 3e a4 3d 06 3d
       0.02159348 0.0042221835 0.12528776 0.03277363
000150 b3 f5 05 be b1 05 ca bc 12 7a b8 bd 87 29 96 bb
       -0.13082008 -0.024660917 -0.09007658 -0.004582587
000160 79 cd de bc 55 56 71 3d 6f 47 96 3d 73 7c 58 3e
       -0.027197586 0.058920223 0.073378436 0.21141224
000170 40 7c 1e be 38 99 51 be 74 31 d0 3d 97 cc 90 bd
       -0.15477085 -0.20468605 0.101656824 -0.070702724
000180 b8 ad 1e be 49 28 98 be 1a 90 26 3e 11 27 04 3e
       -0.15495956 -0.29718235 0.16265908 0.12905528
000190 1e ef b4 3d b0 4c a0 bd ec 04 bf 3d 0e 6c d7 bc
       0.088346705 -0.07827127 0.09327111 -0.026296642
0001a0 77 4c 24 be 5c 38 0e 3e b5 95 9b bd 78 f9 ff 3c
       -0.16044794 0.13888687 -0.07596914 0.031246886
0001b0 ee 2d 8d 3c e6 9e 6a 3d 39 14 9d bc 3c d0 e9 bd
       0.017233815 0.057280444 -0.019174682 -0.11416671
0001c0 73 56 e9 bd 93 45 83 be d0 43 11 bd fe a6 59 be
       -0.11393442 -0.25639018 -0.03546506 -0.21255109
0001d0 bd 02 33 be 3c cd 35 3d e8 10 0b 3e e1 f3 87 3c
       -0.17481513 0.04438518 0.13580668 0.016595783
0001e0 ad 14 f6 bd f6 2b 7d 3c e3 44 94 bd cd 82 8e 3d
       -0.12015662 0.015452376 -0.072397016 0.06958542
0001f0 47 75 c8 bb 0f a3 fd bc e4 46 92 3d 86 9f 53 bd
       -0.006117496 -0.030961541 0.071424276 -0.051665805
000200 0c b3 19 bc 4a 35 19 be 22 99 44 bd 36 c0 3b 3d
       -0.009381067 -0.14961734 -0.0479976 0.045837604
000210 67 c9 88 bc 8b 24 84 bd f4 43 17 3d f4 ce 3d 3d
       -0.016697599 -0.064522825 0.03693004 0.046339944
000220 75 ab 35 3e 5d c1 ae 3c 13 bd d3 3c 0c 7e 2c 3c
       0.17741187 0.021332437 0.025846994 0.010528099
000230 12 f0 e1 bd 14 fd 0c 3d 55 40 fe bc c1 85 f7 bd
       -0.11032118 0.03442104 -0.031036535 -0.120860584
000240 c1 a4 26 bd a4 ce 89 be 76 bb d5 3d 0f 75 38 bd
       -0.040684465 -0.26915467 0.10436146 -0.04503351
000250 f2 76 2e be 2f 5c c2 bc 4c 08 95 3c 08 28 80 bd
       -0.17037562 -0.023725597 0.018192433 -0.06257635
000260 65 8a 67 3b 3d f7 15 bd 14 fc 52 3d 6d 8e bd bd
       0.0035330292 -0.036612738 0.05150993 -0.09255681
000270 6a 91 00 bd 5c cc bf 3d b1 27 1d be 3d 02 3c 3c
       -0.031388678 0.0936515 -0.15347172 0.011475143
000280 f8 72 cc 3d d9 45 82 bd 52 12 55 3c 5a dd 2f 3d
       0.09982866 -0.06360979 0.013004856 0.042935707
000290 46 87 97 3d 46 68 d2 3d 88 1b d3 3d 83 43 88 3b
       0.07398848 0.10273795 0.103079855 0.0041584386
0002a0 23 6b 28 3b b2 1a 63 3d e7 0d 44 bd 70 4c 92 be
       0.0025698624 0.05544538 -0.04786482 -0.28573942
0002b0 dc 7b 57 be e0 1e 4c bd c4 3e 13 be f0 28 37 be
       -0.21043342 -0.049834132 -0.14379412 -0.1788671
0002c0 a1 2e 43 bd 2f 7c 7f be a0 e2 b7 be 56 6c 2b be
       -0.04765189 -0.24949716 -0.3591509 -0.16740546
0002d0 79 2f 64 bd a4 62 95 3c cf eb 4a bd 15 25 96 3d
       -0.055709336 0.018235512 -0.04954129 0.073312916
0002e0 cc 99 da bd 22 c9 98 bc 3c 59 42 be 53 09 0f be
       -0.10673866 -0.018650595 -0.18979353 -0.139684
0002f0 a5 d1 96 bd 10 04 04 be 1c 8d 58 bc 9d d9 8a 3d
       -0.07364205 -0.12892175 -0.013217237 0.06779788
000300 5e b5 1a be a3 a4 02 bc fa 52 3f 3c c0 01 20 3e
       -0.15108249 -0.007973823 0.011677498 0.15625668
000310 75 0c 56 bd e9 63 2f be 61 c4 f0 3d 6d 09 b0 bd
       -0.052257974 -0.17127956 0.11756206 -0.08595548
000320 4b 3a 1f bd d2 4e e2 bd 5f 6a 1e be 7b 24 f6 bd
       -0.038873952 -0.1105019 -0.15470265 -0.12018677
000330 d5 e6 6a be 1c eb bf bd da d0 ab bd b3 56 e8 3d
       -0.22939618 -0.093710154 -0.08389445 0.113446616
000340 8c a2 e6 3d ac 05 ed 3d 64 b6 07 be 53 76 87 3c
       0.11261472 0.115733474 -0.1325317 0.016535914
000350 97 bc b3 3d a4 8c 80 3c 84 9f 64 3c 45 d9 88 bc
       0.08776205 0.015692063 0.013954047 -0.016705165
000360 75 c7 03 3d cc aa 9d bc 5e b5 05 be 21 c9 a6 bd
       0.03217264 -0.019246481 -0.13057467 -0.08143831
000370 47 5f b3 bb 0d 34 35 be 4c ea 1d 3c da 57 1e 3e
       -0.0054740044 -0.17695637 0.00963838 0.154632
000380 f3 32 ed bd 89 d2 48 be 94 a6 0a be 3f 33 7d 3d
       -0.115819834 -0.19611563 -0.13540107 0.06181645
000390 18 bb f6 bd e4 87 40 be 9c 32 88 bd d4 77 89 bc
       -0.12047404 -0.18801838 -0.06650278 -0.016780771
0003a0 5a 09 be bc 18 40 71 3d a4 38 1d be 5e 4e 5f 3a
       -0.023197819 0.058899015 -0.15353638 0.00085184525
0003b0 04 41 88 be 0d 65 49 bd f9 f9 11 3e 14 26 6f be
       -0.26612103 -0.049168635 0.14255513 -0.2335437
0003c0 96 33 bb bd a1 03 b8 bd d7 41 d2 bd 59 20 98 3c
       -0.091406986 -0.08985067 -0.10266464 0.018570112
0003d0 96 ad 48 3d 57 18 dc 3d 39 59 36 bd 16 d6 cd bc
       0.04899367 0.1074683 -0.044518683 -0.025126498
0003e0 cc 63 a0 3d 12 bc 95 3d b0 a5 1b be 00 f4 4a 3d
       0.07831535 0.07311262 -0.15199924 0.049549103
0003f0 46 25 21 3e 1d b0 4a be 8b 60 e6 3d f9 30 ec 3d
       0.15736875 -0.19793744 0.11248883 0.11532778

res_conv1.2.bias f4 [32]
000000 ec 04 1e bc ec e9 6d bc 20 08 df 3c 94 e4 82 3c
       -0.009644728 -0.014521103 0.027225554 0.015978135
000010 19 2b c4 bd 6c bf f9 3c 3d ad 44 3d 3f 2e ec bb
       -0.09578533 0.030486785 0.048016775 -0.0072076614
000020 27 da 6b bc 55 d9 11 3d 08 1b 24 3d ed 25 45 bb
       -0.014395273 0.035607655 0.04006484 -0.003008242
000030 08 1a f7 3b 9a 7e bb bc 29 1c a9 3c 65 56 97 bd
       0.007540945 -0.022887517 0.02064331 -0.07389525
000040 0a b1 95 bd 63 c8 75 bd 5c 7c 82 3d e2 6a e6 bc
       -0.07309158 -0.060005557 0.06371376 -0.028127138
000050 69 dd 84 3c 1e c8 bf bc 8b 8d 0b 3b 5c d0 1f 3c
       0.016218858 -0.023410853 0.0021294083 0.009754267
000060 61 69 d8 bb 32 c3 4c 3b 9a bf 59 bd 75 bc a6 bd
       -0.006604359 0.0031244275 -0.05316124 -0.08141414
000070 5e 1a e5 3c c1 a9 34 3b 8a ee fb 3c 2c 4b f3 bc
       0.027966674 0.0027567002 0.030753393 -0.02969893

se1.fc.0.weight f4 [2, 32]
000000 bc 2a 0a 3f fd 69 08 bf 96 a1 c7 bd 7c 58 30 3e
       0.5397146 -0.53286725 -0.09747617 0.17221254
000010 9e 2e 26 3d 85 90 b7 be 37 58 d8 be cf 94 53 bf
       0.0405718 -0.35852447 -0.42254803 -0.8264894
000020 1c 21 15 be 6b 53 9c bc cd 07 68 be 43 bb 70 bd
       -0.14563411 -0.019082746 -0.22659226 -0.058772337
000030 6c 1f 32 bf 0d 07 8e be 93 6b 92 bd 66 0c a1 bf
       -0.69579196 -0.27739754 -0.071494244 -1.2581909
000040 f8 8f b3 be 3a b0 09 bf fa c2 01 bc 97 fe 9f bd
       -0.35070777 -0.53784525 -0.007920021 -0.07812231
000050 b4 e1 a2 be be b8 49 3d f2 13 50 be 58 2a 51 be
       -0.31812823 0.04924845 -0.20320109 -0.20426309
000060 d9 1f e1 3e 2f c3 14 be 1c 28 e4 3d e6 db 33 bf
       0.4396961 -0.14527582 0.11140463 -0.70257413
000070 1e de 6d 3e de 89 06 3e f5 bc 3c 3f 7b 98 0e 3f
       0.23229262 0.1313853 0.73725826 0.55701417
000080 04 cc ea be cc 6a 30 3f 8f 7f 33 3d 3f 31 2e bf
       -0.45858777 0.6891296 0.04382282 -0.68043894
000090 bf d5 3f be 2b 27 4d 3e 26 c0 12 3e cb e5 53 3d
       -0.18733881 0.20034473 0.14331111 0.05173282
0000a0 29 01 bd 3d f7 42 c9 be 6e c6 c1 3e 64 bb 86 bd
       0.09228737 -0.39308903 0.37846702 -0.06578711
0000b0 43 2c eb 3e 38 70 7c 3d 3f e3 3d be fc 3f 86 3f
       0.45932207 0.061630458 -0.18543719 1.0488276
0000c0 4d f4 6f 3e 20 ac bb 3e ff 6c 5f bd 59 a4 8b 3d
       0.23433037 0.36654758 -0.054547306 0.06818456
0000d0 21 01 80 3e d2 e5 35 be fd 5b c4 3e 14 eb 2d 3f
       0.2500086 -0.1776345 0.3835143 0.67936826
0000e0 f1 2a b7 bd 6e fc 61 3e ab ef 8a be ee 26 14 3e
       -0.08943737 0.2206895 -0.27135977 0.14467975
0000f0 3b 58 e4 3d a3 b0 34 be ed 50 78 be 45 ef f8 bd
       0.11149641 -0.17645507 -0.2424962 -0.12155012

se1.fc.2.weight f4 [32, 2]
000000 0b 42 95 3f d2 1b 1f be 90 d2 58 be 7b 10 f6 3e
       1.166078 -0.15537956 -0.21174073 0.4805945
000010 65 70 da 3e 95 4b 01 bf 10 e4 1a bf d0 c7 0c 3f
       0.42663875 -0.50505954 -0.60504246 0.5499239
000020 92 ff 8a bf cc 16 24 bf bd c0 9b 3f 1a 99 75 be
       -1.0859244 -0.64097285 1.2168194 -0.23984185
000030 d1 f8 47 bd ce 93 13 bf 2c 2f 2e bf 0c 99 2b 3f
       -0.048821274 -0.5764741 -0.6804073 0.67030406
000040 0d 62 5c 3f bf 6d 8b bf 69 af 19 bf 83 3c c3 3e
       0.86087114 -1.0892867 -0.6003328 0.38132104
000050 20 25 52 be 8a 32 7e 3f 36 8e 6e 3e ab 11 07 3f
       -0.20521975 0.99295866 0.23296437 0.52761334
000060 6c be 3b be 9c 79 99 3f a2 8e 06 3e c9 d1 76 3f
       -0.18334359 1.1990237 0.13140348 0.96413857
000070 bc b7 b4 bf 46 81 2b 3f b8 ea 99 3e a3 13 08 bf
       -1.4118571 0.6699413 0.3006189 -0.53154963
000080 e1 fb 17 3f 94 7a 47 3f 81 80 79 be fe d0 c4 3f
       0.5936871 0.77921414 -0.24365427 1.5376279
000090 aa 63 33 bf ea 03 31 3e 55 d7 c5 be 0f 0f d7 3d
       -0.7007395 0.1728665 -0.38640848 0.10500919
0000a0 28 63 08 40 d5 30 a2 bf b4 3b c4 be 30 2c 15 bf
       2.131052 -1.2671152 -0.383268 -0.5827055
0000b0 7a bc 06 bf 5e 89 21 bd 38 e0 89 bd 8b 09 78 3f
       -0.5263134 -0.039437644 -0.067322195 0.9688956
0000c0 27 3a 8d bf a0 56 6d 3e a2 1e 05 be 76 d8 9d 3f
       -1.1033372 0.23177576 -0.12999967 1.2331684
0000d0 7c 69 ee 3e 69 ff e5 be 5a ec d9 3e 0d 0e 56 3f
       0.46564853 -0.44921425 0.42563134 0.8361519
0000e0 9e 1b b0 bf f6 37 b4 3f c2 89 f7 3d 27 f6 46 be
       -1.3758428 1.4079578 0.12086822 -0.19429837
0000f0 1a 16 63 3f dc 84 09 3f f1 98 af be 11 b2 49 3f
       0.887056 0.5371835 -0.34296373 0.7878733

res_conv2.0.weight f4 [32, 32, 3, 3]
000000 50 24 38 3d 0c 19 4f bd 80 f0 00 bd 7e fe df be
       0.044956505 -0.050560996 -0.03147936 -0.4374885
000010 08 4f 5f bd 7d fc 79 3d 13 ff ff be 1c 8c 88 bd
       -0.05451873 0.061031807 -0.49999294 -0.06667349
000020 4f 97 06 3e 1c a7 dc bd d5 8c 8a 3c bd 96 ab 3d
       0.13143657 -0.10774061 0.016912857 0.083783604
000030 65 3b 0b be 62 5a 8e bc 72 09 b8 3c 69 a8 11 bd
       -0.13596876 -0.017377082 0.022465441 -0.035561
000040 01 76 8f 3d e1 21 95 3d b5 5e 13 3e d5 f2 16 3e
       0.07004929 0.072818525 0.14391597 0.1474107
000050 4d 43 14 3e 69 ee d9 3d 83 2d 95 bd 93 43 9e bd
       0.14478798 0.10641176 -0.07284071 -0.077277325
000060 21 9d 4c 3c a1 19 d7 bb fb 22 15 bc cb c9 1b bc
       0.012488634 -0.0065643345 -0.009102578 -0.00950856
000070 c6 b7 26 3b 48 3f 38 be 7f fd c6 bd 2e e9 78 3e
       0.0025439127 -0.1799289 -0.09716319 0.24307701
000080 36 b1 01 be 3d 0e a2 3d 6e 60 b2 3d 9c 22 17 be
       -0.12665257 0.07912872 0.08709799 -0.14759296
000090 ef 24 12 3e 59 49 02 3e 63 86 64 3e 99 f5 83 3e
       0.14271902 0.12723292 0.2231689 0.25773314
0000a0 09 f2 62 3e 4b ec 63 3e b6 9b 75 3e 6b 86 76 3e
       0.22162642 0.22258107 0.2398518 0.24074714
0000b0 67 6c 83 3e 8c 93 8e 3d 6c 5b 6d 3e 0b 0c fe 3d
       0.25668642 0.06961736 0.23179406 0.12404641
0000c0 6c b7 5c 3d 53 56 28 bb cd 10 c3 bd e0 04 93 3d
       0.053885862 -0.002568622 -0.09524689 0.07178664
0000d0 c2 7b d0 3d 9d 10 13 3e b6 5d 56 be 4f 7d 0f 3e
       0.10179855 0.14361806 -0.20934185 0.14012645
0000e0 67 40 8d 3e b8 a1 b0 bd b4 0e c3 3d 8a 9e 23 bc
       0.27588198 -0.086245954 0.09524289 -0.009986529
0000f0 ff 63 33 3d c5 40 bf bd b1 b1 e7 3d f9 5f 9d bd
       0.043796536 -0.09338526 0.11313189 -0.07684321
000100 2f 3e 55 be 1b 19 63 3c b2 5d 11 be bc 62 9b bc
       -0.20824502 0.013860966 -0.14195898 -0.018967979
000110 db 0c f4 bd 3a e0 16 be 42 63 1a b9 38 e3 85 bd
       -0.119165145 -0.14733973 -0.00014723561 -0.06537479
000120 fc 94 25 be 7f 9b 51 3e ad f9 c1 bc d5 39 52 3c
       -0.16170114 0.20469473 -0.023678625 0.012831171
000130 58 d4 ab 3e fb d5 bf bd 01 49 ee bd 9f e5 95 3e
       0.33560443 -0.093669854 -0.11635018 0.2927675
000140 d9 44 9a bc 15 2c 38 3e ab 25 a4 bd 1c c1 85 bd
       -0.018831657 0.17985566 -0.08014997 -0.06530973
000150 6e f8 1d 3c b2 c9 ce 3c 50 68 fe 3c 5b 78 a1 3d
       0.00964175 0.02524266 0.0310556 0.07884284
000160 0d eb 28 bd 18 4d d1 bb f0 2f 0e 3e 92 80 3a 3e
       -0.041239787 -0.006387364 0.13885474 0.18213108
000170 14 df a2 3d bc c1 8c bd a5 a4 d2 3d 18 72 77 bd
       0.07952705 -0.068728894 0.1028531 -0.060411543
000180 03 5a 2e bd 70 7c 81 3d 6c 72 8e bc 6c 4a e5 bd
       -0.04256631 0.06322563 -0.017388545 -0.111958355
000190 45 10 ae 3c 55 23 c6 bd 73 a2 18 be 6c c9 20 be
       0.021247992 -0.09674708 -0.1490572 -0.15701836
0001a0 72 c1 78 bd b7 69 5c be 44 3a ca bc 77 b5 c1 bc
       -0.06073136 -0.21524702 -0.024685986 -0.0236461
0001b0 1e 2f 6a bd 8f 06 0d be 34 3b da 3c 5e 3c 05 be
       -0.05717384 -0.13772033 0.026639558 -0.1301131
0001c0 d9 89 33 be b1 a8 a5 3b 95 92 96 bd 18 f8 e5 bd
       -0.17533053 0.00505551 -0.07352177 -0.11228961
0001d0 91 c4 a1 3c 07 92 94 3d 9f ae 21 3e 36 a2 be 3d
       0.01974705 0.07254415 0.15789269 0.09308283
0001e0 0d 12 c2 3d 14 c2 da bd f8 d5 0d 3e 5f 5f a3 3e
       0.09476099 -0.10681549 0.13851154 0.319087
0001f0 f5 4e 67 3c 14 3c 63 3d 8c 40 7d 3d 5c bb 30 bc
       0.014117946 0.055477217 0.061829135 -0.010786857
000200 f0 f3 6a 3e 2a b7 48 3b 73 3b 23 be 89 79 9e 3e
       0.22944617 0.0030626752 -0.15940647 0.309521
000210 75 e2 42 3d a7 12 93 bd b9 fb 4e 3e 29 8a a3 bd
       0.047579248 -0.07181292 0.20213212 -0.07985336
000220 1d 2e 74 3c b5 84 30 3d 16 dd b4 bc e9 ef 62 bd
       0.014903572 0.04309531 -0.022078078 -0.055404577
000230 02 37 2b bb 64 3c 15 bd 56 ed 47 3d 89 e5 15 3e
       -0.0026125317 -0.036434546 0.048810326 0.14638342
000240 f2 93 aa bd be 64 64 3e ce 5b 7a 3e c9 16 bb bd
       -0.083289996 0.22304055 0.24449083 -0.09135205
000250 01 9e ff 3d 57 59 af bd aa 86 3f 3e 03 1e ba bc
       0.12481309 -0.08561962 0.18703714 -0.022719389
000260 c6 d1 34 be f4 60 39 bd 5c b3 86 bd 94 19 0f be
       -0.17658147 -0.045258477 -0.06577179 -0.13974601
000270 a0 c2 f4 bd ef 5b c2 3d de ba 8f bc 28 96 27 be
       -0.11951184 0.09490191 -0.01754516 -0.16365874
000280 62 2a 6c 3c e5 ca 1d bc ee d6 0b 3d 65 81 fa bd
       0.014414402 -0.009630893 0.03414052 -0.12231711
000290 b1 c7 21 bd 5d 7e 4d bd 08 e3 64 bd 38 11 d4 3d
       -0.03949708 -0.050169338 -0.055880576 0.10354847
0002a0 40 c9 c3 3b 7f 4e 06 be 82 2e 1f 3d 33 94 e8 bb
       0.0059749186 -0.13115881 0.038862713 -0.007097745
0002b0 84 e1 d1 bd ec f7 13 be 9d d9 ba bd 8f 37 bb bd
       -0.10248092 -0.14450043 -0.09123538 -0.09141456
0002c0 74 48 67 bd 51 fc 3a be e4 58 2b be 97 b2 67 bd
       -0.05646558 -0.18260314 -0.16733128 -0.0565668
0002d0 8e 1f 2b 3e 30 fc 78 3d e2 5f df bd ab 92 37 3e
       0.16711256 0.06078738 -0.1090696 0.17927043
0002e0 ab cc b1 3d c3 99 18 bc 12 23 d1 3d 87 89 e6 3a
       0.086816154 -0.009314003 0.10211767 0.0017588594
0002f0 47 c6 fd ba 1c 8b 50 bd 25 84 bc 3d be bf 35 bd
       -0.0019361459 -0.050913915 0.09204892 -0.044372313
000300 98 91 27 be ec 64 28 3d f6 a2 47 be 6f aa 02 bd
       -0.16364133 0.04111187 -0.19495758 -0.03190082
000310 42 a2 1e bc 02 28 60 be 72 95 18 bc b1 ce 01 be
       -0.00968224 -0.21890262 -0.009312974 -0.12676503
000320 27 7e a3 bb 4b 1d 31 be 6b b4 2d be 02 df b3 bd
       -0.0049894038 -0.1729633 -0.16963355 -0.0878277
000330 a4 4d 0c bd 59 d0 39 bd 7e b4 e9 3c dd 58 a3 bd
       -0.03425373 -0.04536471 0.028528448 -0.07975934
000340 b6 54 a7 3b 20 51 08 3d 50 43 77 bd 4a d5 35 3d
       0.005106534 0.03328049 -0.06036693 0.04439286
000350 98 66 80 3d 13 90 2b bd 84 d8 bb 3c 7d c4 15 3d
       0.06269568 -0.041885447 0.022930391 0.03656434
000360 ae 3c 26 3e 8d 72 35 3d 99 aa fa 3d 3b c4 5f bd
       0.16234085 0.044298697 0.1223957 -0.0546305
000370 f8 f6 94 3e 9d fa 37 3e b5 1f f5 be 3d 36 4d 3e
       0.29094672 0.17966695 -0.47875753 0.20040222
000380 9e 41 b4 3d c4 02 38 3e b9 86 56 bd c6 8a 8b 3a
       0.08801578 0.17969805 -0.052374575 0.0010646216
000390 4e df d0 ba e8 a9 f3 3c 07 bd 19 3e 48 d1 0f bb
       -0.0015935691 0.029744104 0.15013514 -0.002194481
0003a0 33 69 ea 3d fc cf 8e 3e 85 ee 12 3d 1d b8 03 be
       0.114458464 0.27893054 0.035872 -0.12863202
0003b0 f1 a2 57 bd 02 d4 c7 bd e1 c6 02 be ba 8f 3d be
       -0.052645627 -0.09757234 -0.12771179 -0.18511859
0003c0 3d 81 92 be e7 e4 bb bd 02 af b2 bd c7 07 ca bc
       -0.28614226 -0.09174519 -0.08724786 -0.024661912
0003d0 4b 9b f1 3d 0d 6f 6b 3e 44 d8 46 be f5 37 65 3c
       0.11797198 0.22991581 -0.19418436 0.013990392
0003e0 3b 7b 05 3e 56 1e 36 be 24 03 46 be 6e e0 05 3c
       0.1303529 -0.1778501 -0.19337136 0.008171184
0003f0 bc 23 4f bd 41 03 f5 3b fe 13 c7 3d f0 15 ff bd
       -0.05057119 0.0074771945 0.0972061 -0.12455356

res_conv2.0.bias f4 [32]
000000 b3 03 9f 3c 6b 08 75 3c a6 2e 36 ba ae 39 f5 bc
       0.019410944 0.01495562 -0.00069497 -0.02993473
000010 54 56 a9 bc e9 93 a8 bd b2 ea ff 3a e8 61 e3 3c
       -0.020671047 -0.082313366 0.0019524901 0.027756646
000020 c8 3a 47 3d a9 5c f7 bb cc 3b ea bc 7a 79 e6 3c
       0.048640043 -0.0075488877 -0.028592966 0.028134096
000030 aa 80 97 ba f1 e6 02 3b d2 11 92 3c e7 bc 5f 3c
       -0.0011558731 0.0019974078 0.017830763 0.013655878
000040 59 55 1c 3b 72 17 3f bc ba 5f 4d 3b ff f9 9b 3c
       0.0023854582 -0.011663305 0.0031337575 0.019040106
000050 bc d9 0b 3d f8 74 4e bc f8 6f 86 bd f8 3d b4 bb
       0.034143195 -0.01260113 -0.06564325 -0.0055005513
000060 eb ba 23 bb 7d a9 34 bd e8 0d 95 bd 31 a2 d7 bc
       -0.0024983238 -0.04410695 -0.07278043 -0.026322456
000070 f9 6e ce 3b 4a 2e 17 bd 9a 21 97 bd 38 bf 5b 3c
       0.00629985 -0.03690938 -0.07379456 0.013412289

res_conv2.2.weight f4 [32, 32, 3, 3]
000000 0a 35 36 bd 77 fd 6f 3b d5 f9 43 3e b7 09 08 be
       -0.044484176 0.0036619583 0.19138272 -0.13284956
000010 9e eb c5 bd 61 66 c6 3c 85 12 33 be d7 97 f8 bd
       -0.09664081 0.02421874 -0.17487533 -0.12138336
000020 19 ca 28 bd d7 39 85 3d 71 9c cc bd 71 fb 0c be
       -0.04120836 0.06505173 -0.09990776 -0.13767792
000030 ed e7 6c 3d bf bd 13 bd 9b 1f 81 bc 94 83 48 3d
       0.05783837 -0.036069628 -0.015762141 0.048953608
000040 0c c4 8a bc e1 c4 d3 3c 8c 17 69 bc 12 a7 80 bc
       -0.016939186 0.025850715 -0.014226805 -0.015704665
000050 5d 2c 72 bd bc 61 65 3d ea fa 66 3d 40 23 1e 3d
       -0.05912434 0.05600141 0.056391634 0.038607836
000060 0d e1 8c 3d da fd 91 3d fa e2 93 bc 63 bb 2d be
       0.068788625 0.071284965 -0.018052567 -0.16966014
000070 18 d1 01 bc 99 eb 81 bd 4f d5 ba bd b7 23 9d 3c
       -0.007923387 -0.06343765 -0.09122717 0.01918207
000080 8b 26 d1 bd 29 c0 42 3d 79 8c 45 3c 65 68 af bc
       -0.102124296 0.04754654 0.012057417 -0.021412084
000090 61 50 4f bd 56 36 29 bd 90 c6 20 bd 69 27 59 3c
       -0.050613765 -0.041311584 -0.039251864 0.013254025
0000a0 fe 10 7f 3d 34 3c 12 3e 92 75 77 3c 8a 99 63 3d
       0.062272064 0.14280778 0.015103715 0.055566348
0000b0 aa be ff 3d 70 89 a4 bb 84 fb 88 3d 86 7c 8a bc
       0.12487538 -0.0050212666 0.06688598 -0.01690508
0000c0 44 59 7b bc 4a 73 b3 bc 9a d6 6c bd 0d 64 4d 3d
       -0.015341107 -0.02190556 -0.057821847 0.050144244
0000d0 84 e6 c4 bb a6 3b 60 bd f3 ac e6 3d ba 55 23 3e
       -0.006008925 -0.054744385 0.11263456 0.15950671
0000e0 3f 50 1d 3e 2b 2c aa 3d 85 bb 7e 3d 53 bd b9 3d
       0.15362643 0.083092056 0.06219055 0.09069314
0000f0 a2 6d 80 3d e7 ac eb 3d b5 80 63 bd c9 fd 21 be
       0.06270911 0.11507588 -0.055542666 -0.15819468
000100 aa 9f a3 3c 49 15 67 bc c5 8c 9c 3d ff a3 25 be
       0.019973595 -0.014104196 0.07644037 -0.16175841
000110 ea 59 c4 3b 0f 88 6d 3e ad 26 52 bd c1 47 b0 3d
       0.005992164 0.23196433 -0.051306415 0.08607436
000120 88 a8 0d be 47 83 a1 be 9e c5 05 be 59 92 d5 bd
       -0.13833821 -0.3154547 -0.13063666 -0.10428304
000130 5f eb 04 be 0f 8b c2 ba 2e 83 81 bd d1 e0 d2 bd
       -0.12980412 -0.0014842468 -0.06323849 -0.102967866
000140 10 07 c5 3c df fe db bd 9a c5 a0 bd 41 4b d8 3b
       0.02405122 -0.10741972 -0.078501895 0.006600768
000150 1d de d9 3c 7d 51 cf bd 59 f6 6d 3b 9e ea 60 bb
       0.02659517 -0.101229645 0.0036310165 -0.003431953
000160 d3 57 2c bc 47 1b bb bc 95 c1 82 bc bd 28 72 3d
       -0.010518986 -0.022840155 -0.015961448 0.059120882
000170 ba 39 e6 bb a6 01 78 3d 37 00 80 bc 23 41 13 bd
       -0.0070259245 0.060548447 -0.015625102 -0.03595079
000180 77 d4 2f 3d ce 49 b3 bb ee f9 82 bd de ba 3d 3e
       0.04292723 -0.0054714447 -0.063953266 0.18528315
000190 9a 98 34 3e 7c a9 d3 3d aa 08 a7 3d ab 0a 54 3c
       0.17636338 0.10335061 0.081559494 0.012941997
0001a0 5d f0 44 bd 25 77 7f bd 6d a4 90 bc f7 1a 7a bd
       -0.04808079 -0.062369484 -0.01765653 -0.061060872
0001b0 aa 83 ab 3d 0c 32 c6 3c 4e 81 e4 bd fe 58 09 3e
       0.08374722 0.024193786 -0.111574754 0.13412854
0001c0 b8 49 0b bd df 7e ce bd ba cf b6 3d 4f c8 05 be
       -0.03400585 -0.100827925 0.089263394 -0.13064693
0001d0 76 23 82 3c b7 34 e5 bd e5 1b 98 bd 0a 3e c7 3c
       0.01588605 -0.11191695 -0.074271955 0.024321575
0001e0 1a 4a 16 3d 8f ad 87 bd c1 37 84 3d 51 d1 35 bd
       0.036691763 -0.066249005 0.06455947 -0.044389073
0001f0 71 e9 48 bd 6b 44 61 3d 9a d8 1d be 7f b1 d2 bd
       -0.049050752 0.05499689 -0.15414658 -0.10287761
000200 38 b5 01 3e 6e 08 11 be f4 bb 11 bd 23 2b 9d 3d
       0.12666786 -0.14163372 -0.035579637 0.07674243
000210 0c c9 10 be 5c cc 6a 3d 10 15 4e 3e b5 7e 96 3d
       -0.14139193 0.0573238 0.20125222 0.07348386
000220 0d e2 2b bd 74 4e 0c 3d f8 40 df bc ab 85 46 be
       -0.041963626 0.034254506 -0.02725266 -0.19386928
000230 95 ea 27 bd fd 14 05 3d 3a aa 4f bd a1 55 ae 3d
       -0.0409952 0.03249072 -0.05069945 0.08512426
000240 8f 63 29 3d 19 60 05 be e9 82 26 be 59 ae d9 3d
       0.041354712 -0.1302494 -0.16260876 0.10628957
000250 85 a7 23 3d f9 9b cf bd 10 21 73 3e 69 18 b6 3d
       0.03995468 -0.10137171 0.23743081 0.088913746
000260 97 f4 3d bb d2 0b 0d bd 13 b9 6e 3d a0 ed 7f 3d
       -0.0028984898 -0.0344351 0.05828197 0.062482476
000270 45 6b 39 3d b4 6a df 3d ca 2d ab bd 9c 8d 7f 3c
       0.045268316 0.10909024 -0.08358343 0.015597727
000280 8a 47 0f 3d 40 66 0c bc 09 38 18 bd 66 2b 70 be
       0.034980334 -0.0085693 -0.037162814 -0.23454055
000290 b7 2f b7 bd 19 ca cb 3c 51 76 8d bd fc 77 13 3d
       -0.08944648 0.024876641 -0.06907333 0.036003098
0002a0 0a 58 22 bd 6f 6a c7 3d 92 ed d6 3d d5 d5 be 3d
       -0.03963474 0.097370975 0.10494532 0.09318129
0002b0 d1 06 57 bd 5e ac 0f be b7 c0 6a 3d 18 a7 21 3d
       -0.052496735 -0.14030597 0.057312693 0.039465994
0002c0 65 3d 93 bd f2 58 91 3d ad 46 69 3d 6a 02 8a 3d
       -0.071894445 0.07097043 0.056952167 0.06738742
0002d0 50 c8 ca bd a2 cd 80 be d7 22 2f be 21 51 0d be
       -0.09901488 -0.25156885 -0.17103134 -0.1380048
0002e0 bd 9e 04 be d5 e4 f2 bd 27 e5 2b bd 75 71 2e be
       -0.12951179 -0.118600525 -0.041966584 -0.17035468
0002f0 f1 2e 49 bd b0 e9 91 bc fd 91 33 bd 14 c3 73 3d
       -0.049117032 -0.017811626 -0.043840397 0.059512213
000300 3a 40 13 bc 12 02 82 3c 75 98 aa 3d 97 51 70 bd
       -0.008987481 0.015870128 0.0832986 -0.05867156
000310 34 36 8f 3c f3 20 0e 3c 11 50 4c 3d 2b ba 74 3d
       0.0174819 0.008674848 0.049881045 0.059747856
000320 a2 7d a0 bd 5a 79 d3 3d 51 bb 06 3e 7f 48 b1 3d
       -0.078364626 0.1032588 0.13157393 0.08656406
000330 90 8f 8d 3d 2b b7 e7 3d 4e fa 88 3d ef 18 41 be
       0.06912148 0.113142334 0.06688367 -0.18857168
000340 35 f1 db bd 49 9d 4e 3c 25 56 d6 bd e8 6d 8d bd
       -0.10739366 0.012610742 -0.104656495 -0.069057286
000350 83 2b ca 3d d1 cb a7 bd 1a 3d ed 39 7e 7d b7 3d
       0.098715805 -0.08193172 0.00045249687 0.089594826
000360 d7 6d 89 bd f7 e9 98 3d 75 7a c2 bb 79 17 84 bd
       -0.067104034 0.074665 -0.005935008 -0.064497896
000370 54 2e 45 ba 1b 1b 05 bd 72 97 56 3d b1 02 7d bd
       -0.0007521857 -0.032496553 0.052390523 -0.061770145
000380 96 f5 a5 3d 09 df 8e bc 42 b8 6f bc c3 3f 23 3d
       0.081034824 -0.017440336 -0.014631333 0.03985573
000390 52 96 d4 3c 51 7e 93 bc 4a ca 46 3c a8 ab 76 bb
       0.025950585 -0.018004568 0.01213319 -0.0037638936
0003a0 56 db 8b bc 99 06 10 bd 83 d9 03 3d 36 a6 34 bd
       -0.017072361 -0.035162542 0.032189857 -0.044103824
0003b0 40 6d e3 3a 28 4c d7 bb c8 25 b1 bc 64 3e 11 3c
       0.0017351285 -0.006570358 -0.02162446 0.008864973
0003c0 67 21 44 3d 48 f3 70 bc 00 1e f8 b8 d2 e0 27 bd
       0.047883417 -0.01470644 -0.000118311495 -0.04098589
0003d0 b0 aa 47 3d d1 54 59 bd 95 73 d1 3c fb 98 7e 3d
       0.048746765 -0.053059403 0.02556781 0.062157612
0003e0 2d 83 d2 bd 2e 8a 9f bc 15 03 5a 3d da 09 5b 3c
       -0.10278926 -0.019475069 0.053225596 0.013369048
0003f0 c9 4b 1a be b1 8c 3d be ba c1 6f be 77 8b 94 3d
       -0.15067972 -0.18510701 -0.23413745 0.07253163

res_conv2.2.bias f4 [32]
000000 ff d7 84 3c 61 3a 88 bd d7 19 d4 bd 77 b8 64 3d
       0.016216276 -0.0665176 -0.10356491 0.055839982
000010 af 5f d5 bd 87 13 21 3c a2 57 7b 3c 0f 13 73 3c
       -0.10418641 0.009831316 0.0153407175 0.014836087
000020 c9 a6 ca 3c ab 53 22 bd 4c 0e 57 bc 41 cb 81 bd
       0.024737732 -0.039630573 -0.013125967 -0.06337596
000030 50 00 a5 3b b1 5a 23 bc 20 ad 9e bd e6 5d 99 bd
       0.0050354376 -0.009970353 -0.07747865 -0.07488613
000040 3a 28 9d bc d3 b4 11 3d d5 51 09 bd 13 13 8e bd
       -0.01918422 0.035572838 -0.033525307 -0.06937232
000050 a8 59 1a 3a 00 76 d1 bc 99 54 c3 39 e4 23 c7 bb
       0.00058879936 -0.025568962 0.00037256329 -0.0060772765
000060 73 f2 81 bd 22 35 a2 3c 65 34 f1 3c e9 37 ab bd
       -0.06345072 0.019800726 0.029443929 -0.083602734
000070 bc 0f dc bc 4b b2 97 bc 09 b1 e4 bc 41 ab 84 3d
       -0.026862971 -0.018517634 -0.027916448 0.064779766

se2.fc.0.weight f4 [2, 32]
000000 69 d7 5e be e7 96 65 bd 28 d3 a1 3e fe ab 5e 3d
       -0.2176186 -0.056052115 0.31606412 0.054363243
000010 38 71 0d 3f b1 4d a2 be 07 0f 00 bc 1e 45 d6 bd
       0.55250883 -0.316999 -0.007816083 -0.10462402
000020 ae 60 50 bf 81 c0 ce 3e 16 66 25 3f eb 79 3e be
       -0.8139752 0.40381244 0.64608896 -0.18601196
000030 5a b7 bb bd 58 ae 20 3f de 05 64 be 85 5c 24 3e
       -0.09165831 0.6276603 -0.22267863 0.16050918
000040 10 fc 89 3e 32 4b d4 3e 52 be 50 3f 55 36 3a bf
       0.2695012 0.4146362 0.81540406 -0.72739154
000050 e7 52 f7 be 0a 39 09 3e 40 5d 07 3e 00 5d d1 bc
       -0.48305437 0.13400665 0.13219166 -0.025557041
000060 f2 9b 5b 3c e7 ae 2c be 54 26 11 bf 23 75 54 3c
       0.0134038795 -0.16863595 -0.5669911 0.012967381
000070 f2 73 fb 3e cb 58 17 be 44 09 0c 3f 8e dc 44 3e
       0.49111897 -0.14779966 0.5470164 0.1922476
000080 fe 77 2e bd 8b ce 25 bb b1 38 4a 3e a1 17 a9 3d
       -0.042594902 -0.002530011 0.19748189 0.0825646
000090 46 64 e8 3e 07 10 a3 3d 37 af ec 3e 8c 15 18 3e
       0.45389003 0.07962041 0.46227428 0.1485197
0000a0 0a a1 73 bf a5 4a 26 3d 6f b2 e2 3e a0 c7 ab bd
       -0.951676 0.04059853 0.4427676 -0.08387685
0000b0 cc fc 56 bd a4 83 53 3f 41 65 88 3d 18 e7 67 3d
       -0.05248718 0.8262274 0.06659938 0.056616873
0000c0 07 9c 06 3f 5b 65 e9 3e bd 37 16 3f f3 c0 06 bf
       0.5258183 0.4558514 0.586788 -0.5263817
0000d0 43 09 a0 be 20 97 ab bc 0a d3 8d 3d 36 b4 92 bd
       -0.31257066 -0.020946085 0.06925018 -0.07163279
0000e0 3f c7 45 3e af a4 8d be 9d b1 03 bf e9 82 d5 bd
       0.19314288 -0.27664706 -0.5144289 -0.1042536
0000f0 13 4d c1 3e 17 ea a0 bc b7 7c db 3e 4d c0 9b 3e
       0.37754115 -0.019642873 0.42868587 0.3042015

se2.fc.2.weight f4 [32, 2]
000000 e7 6b 1c 3f b4 be 8c 3f 53 85 0e 3f 1d a6 80 3f
       0.61102146 1.0995698 0.55672187 1.0050694
000010 fb c7 84 3f 71 16 9f 3f 46 4d 64 bf e6 b9 77 be
       1.0373529 1.2428724 -0.8918041 -0.24192008
000020 5a 82 78 3f e9 e0 dd be 91 db 8d be 8f 9e 39 3f
       0.970739 -0.43335655 -0.27706578 0.72507566
000030 c4 00 c3 3f bb fe 59 3f dd 62 a3 bf 67 be ae 3d
       1.5234609 0.8515431 -1.2764546 0.0853241
000040 ec b5 f4 3d 5c 76 4f bf f2 ee 0d 40 23 70 3d 3f
       0.11948761 -0.8103998 2.217709 0.7399923
000050 0d 9d 05 40 08 04 e0 3f 1c c7 3e bf 9d 26 94 bf
       2.0877106 1.750123 -0.74522567 -1.1574284
000060 d3 87 0c 40 80 85 51 3f 22 7a 15 3f fd 10 c8 3f
       2.19579 0.8184433 0.58389485 1.5630184
000070 66 8c 85 be fd 26 0a bf 21 1c 9f 3f b6 97 69 3f
       -0.26083678 -0.5396574 1.2430459 0.9124712
000080 f3 8e 5a 3d d5 cf 9c 3f 9a a1 34 be bd a1 01 bf
       0.053358983 1.2250925 -0.17639771 -0.5063742
000090 52 84 47 3f 24 40 68 3f 92 bc 1c bf a4 79 88 bf
       0.7793628 0.9072287 -0.61225235 -1.0662122
0000a0 85 37 c7 bf 54 cf f6 be c3 f8 f8 bd 61 76 67 3f
       -1.5563818 -0.48205054 -0.121568225 0.90415007
0000b0 4c 23 72 3f 2e 96 08 3f 80 60 04 be d0 61 45 be
       0.9458511 0.53354156 -0.12927437 -0.19275594
0000c0 87 3a 2f bf 2d 2a 73 bf 21 a1 d1 3f 5b dc be 3f
       -0.6844868 -0.9498623 1.6377298 1.4910997
0000d0 ff 38 f2 be 43 08 5f be 69 09 95 3f bd 6c 93 be
       -0.4730911 -0.21780495 1.1643497 -0.28793898
0000e0 66 f9 ee be 7b e7 c3 bf 78 42 13 3f 56 b2 01 3f
       -0.4667465 -1.5305017 0.575233 0.50662744
0000f0 5b 00 c9 bf 92 aa 04 bd 02 ae 60 be 37 3b 56 bf
       -1.5703233 -0.03238923 -0.21941379 -0.83684105
