logs/real/PReNet2.pth (torch, 796834 bytes, 48 tensors)

conv0.0.weight f4 [32, 6, 3, 3]
000000 61 4f 93 bd 6d b6 2a 3d 2e 25 1b bd 7a b3 0b 3c
       -0.07192875 0.04167788 -0.037877254 0.008526677
000010 d5 69 ca bc 84 19 43 bc 0f f9 3e be 63 75 66 be
       -0.024708668 -0.011907939 -0.18649696 -0.22505717
000020 c8 f8 33 bd a0 4a 03 3e 6d 54 7c 3e d6 cc 66 3d
       -0.04393843 0.12821436 0.24641581 0.05634769
000030 3c db 4d 3e d5 39 6b 3e da c7 80 3d b0 9e 27 3e
       0.20103163 0.2297128 0.06288119 0.16369128
000040 80 09 d9 bd b5 94 60 bd 36 37 c6 bd 57 f6 2f 3d
       -0.10597515 -0.054829318 -0.096784994 0.042959537
000050 9c 2c 23 be 3e 03 98 3b 61 81 af 3d 6a 91 f4 3c
       -0.15934986 0.0046390584 0.08569599 0.029854495
000060 80 b2 5f bc ec d0 5a be aa fc 88 3e a7 ed 6c 3f
       -0.013653398 -0.2136876 0.26755267 0.9255013
000070 2d 95 b0 3f a7 52 b7 3e 42 97 56 3e e1 04 75 3e
       1.3795525 0.35805246 0.20956138 0.23927642
000080 dc 2a f5 ba 30 3e 6c bf ae 83 b7 bf 60 2f 56 be
       -0.001870479 -0.9228239 -1.433706 -0.2091651
000090 6a b2 4a 3f 9e 87 a2 3f e0 c0 c1 3e 57 9b 41 be
       0.7917849 1.2697637 0.37842464 -0.18906914
0000a0 39 22 f4 3d c8 f3 60 be 97 f4 8e bf d6 22 b6 bf
       0.1192059 -0.21967995 -1.1168393 -1.4229381
0000b0 94 14 e9 be 45 4e b9 3e 06 dd 82 3f 52 94 cc 3d
       -0.45523512 0.36192527 1.0223701 0.09989227
0000c0 80 11 0c 3d 34 0a a2 3e 19 ec c4 bd 8a 6b 20 bf
       0.034196377 0.3164841 -0.096153446 -0.6266409
0000d0 0e fe 8e bf 4e 82 c6 3c da b6 1b 3e 11 90 9a 3d
       -1.1171281 0.024232056 0.15206471 0.0754701
0000e0 9d 32 b2 be b5 0e 68 3e 65 09 b8 3e 20 66 62 be
       -0.3480424 0.2266186 0.35944667 -0.2210927
0000f0 1c ab 55 be 8d 59 42 3e 67 cd fd be 73 2d a9 3e
       -0.20866054 0.18979473 -0.49570772 0.33042488
000100 33 fc b9 3e 91 9d ba 3e 70 dd 08 3f d3 58 3f 3f
       0.36325225 0.3644834 0.53462887 0.7474491
000110 c5 9c e2 3e df 4b 71 3e 4e b5 03 3f 3b af 7d 3e
       0.4426023 0.23564099 0.51448524 0.24773876
000120 bd a1 01 bf 5c 10 47 bf 1d 86 f3 bd ca b1 ca be
       -0.5063742 -0.7775934 -0.118908145 -0.39588767
000130 21 dc f7 be a0 23 ed bc 15 21 1e bf b8 5e fe be
       -0.48410133 -0.028947651 -0.6176923 -0.4968164
000140 5e 56 eb bc ac 85 f0 3e c1 e4 f3 3e 6a d5 81 be
       -0.028727707 0.46976984 0.47635463 -0.25358135
000150 b4 48 de 3e 7d 02 84 3f 2f de 3f be 74 02 67 be
       0.43414843 1.0313259 -0.187371 -0.2255953
000160 02 14 2b 3f bd 6b 30 bf ca 21 4b 3e 46 a7 9e 3e
       0.66827404 -0.68914396 0.19837108 0.30986995
000170 ed 4c f6 be f1 21 fd 3e 80 f6 52 3f 50 8e cd bd
       -0.48105565 0.49439958 0.8240738 -0.100369096
000180 6d 76 83 be 2c 66 bd 3e 22 4f ee be b0 db e3 bc
       -0.2567629 0.36992013 -0.4654475 -0.027814716
000190 af ac 06 bf 70 4f 78 3e 3f 10 04 bf da 9f 5c bf
       -0.52607244 0.24249053 -0.5158729 -0.86181414
0001a0 b3 6f 80 3e ac 2f 3e bf 79 4c 46 be 01 af 3f 3e
       0.2508522 -0.7429149 -0.1936511 0.18719102
0001b0 50 38 01 bd 11 4f 22 3e 0a 39 16 3e 44 e6 34 bd
       -0.031547844 0.15850474 0.14670196 -0.04416491
0001c0 48 32 29 bd 1c 27 d9 3d 44 b5 54 bd 30 ef 71 bc
       -0.041307718 0.10603163 -0.05193068 -0.014766499
0001d0 b0 15 0d 3e 41 33 b0 3d a6 d0 8b be 22 ff 4f bd
       0.13777804 0.08603526 -0.27307624 -0.050780423
0001e0 cd 9d af 3e e4 0a 13 bf de d8 de be af c5 60 3e
       0.3430008 -0.5743849 -0.43524832 0.2195041
0001f0 f3 65 57 ba 29 45 d8 bd c3 8c b1 bc 8d 4d 87 3d
       -0.0008216791 -0.10560066 -0.021673566 0.066065885
000200 53 ad ae bd 4b 07 e9 bd 56 12 25 3f a5 38 8f 3e
       -0.08529153 -0.11378344 0.64481103 0.27972904
000210 42 bf 8d be fb 23 0b bd 15 6e af 3c 4a 80 36 bd
       -0.2768498 -0.03396986 0.021414796 -0.04455594
000220 c4 c8 3e 3c 7b 2c ee 3d 15 80 6e bf bf 9e 03 3f
       0.011644546 0.11629578 -0.9316419 0.514141
000230 73 b6 a5 3d 59 76 04 3e 86 50 43 be f3 c1 f7 3c
       0.0809144 0.12935771 -0.19073686 0.03024385
000240 5f 82 36 3f e1 bf 0c bf a3 b0 41 bf 06 f0 0b 3f
       0.7129268 -0.54980284 -0.7566015 0.5466312
000250 32 a1 a9 3e ea 68 92 bf ff c1 de 3f 53 2d 31 3e
       0.33130795 -1.1438267 1.7402953 0.17302446
000260 dd 60 bf be bd 1c 26 bf 20 1d f4 3e 66 26 13 3f
       -0.37378588 -0.648876 0.4767847 0.57480466
000270 02 1b e9 bf 62 0e d5 3f d4 da 39 3f 5e 97 8e bf
       -1.8211367 1.6645014 0.7259953 -1.1139944
000280 8b bf c7 be 4f 76 04 3e 2e 73 04 3e 86 05 cd bd
       -0.39013323 0.12935756 0.12934563 -0.10010819
000290 dd a0 96 be 14 9c d1 3e 63 fe 9d 3e 9a 6b 0f bf
       -0.29419604 0.4093939 0.30858144 -0.5602356
0002a0 cb 18 41 3e 24 b1 85 be 79 92 1c bf 3d 43 9a bd
       0.18857114 -0.2611171 -0.61161 -0.07532356
0002b0 0e 5a 96 be 41 70 b0 bd 73 b4 ae be b4 15 a7 bd
       -0.2936558 -0.08615161 -0.34122047 -0.081584364
0002c0 66 4d 0c be db 0e 35 bd 01 bc 06 be db e7 87 bc
       -0.137014 -0.04420362 -0.13157655 -0.01659005
0002d0 54 52 b9 bd 95 d9 20 be f0 07 1c 3f 02 f6 42 be
       -0.09048906 -0.15708001 0.6094961 -0.19039157
0002e0 de 58 02 3f 7a 5c 1c 3f 10 aa 2e be 9e 3d 10 3e
       0.5091685 0.6107861 -0.17057061 0.14086005
0002f0 67 80 2f 3f 25 e8 6d 3f 29 14 18 3f 62 27 b5 be
       0.685553 0.9293235 0.5940576 -0.3538161
000300 ac 73 96 3f f1 fe 2d 3f 39 cd 63 bf c4 2e 46 3f
       1.175405 0.67967135 -0.8898502 0.7741511
000310 9a ea a6 be 73 80 9f bf 3e 94 ca 3e fb 1e 95 3e
       -0.32600862 -1.2461075 0.39566225 0.291252
000320 0f bf 3e be 8d 2e f7 3e 0b 77 1d 3f c4 ac dd be
       -0.1862757 0.48277703 0.6150977 -0.43295872
000330 11 3d e7 3d b5 07 ba bc b9 8e 01 bf 48 67 0a bf
       0.11290944 -0.022708753 -0.506084 -0.54063845
000340 3b b8 13 3b 6b d2 22 bc c4 68 02 bf 57 58 2c 3f
       0.002254023 -0.009937863 -0.5094111 0.67322296
000350 e4 23 5b be b5 1e 45 bf bd 5c 0f bf e9 d9 81 bd
       -0.2140041 -0.7699998 -0.5600088 -0.06340391
000360 bd 13 11 3e 74 d4 b3 3e 18 7a 94 3e 40 23 ca bd
       0.14167686 0.35123026 0.289994 -0.09870005
000370 13 8c 85 3e 89 72 11 3f c2 ea ac be 5d 38 77 be
       0.2608343 0.5681539 -0.33772856 -0.24142595
000380 ed e3 f5 be ed 0d a9 3e d4 d3 02 3f c0 79 16 3f
       -0.48025456 0.33018437 0.51104474 0.58779526
000390 41 e3 0a 3e ad 31 18 3f 88 31 00 3f 3a f2 4d be
       0.13563253 0.594508 0.5007558 -0.20111933
0003a0 06 66 5b be e0 79 d8 be ba 29 17 3e f8 c1 a0 3e
       -0.21425638 -0.42280483 0.14762011 0.31397986
0003b0 fa 4c 4b bb 13 60 24 be 6f df b6 3e 90 a5 22 bd
       -0.0031021223 -0.16052274 0.3571734 -0.039708674
0003c0 f8 bf b3 3e 34 3c a7 3e ad 97 e3 be 06 dc 3e 3e
       0.35107398 0.3266312 -0.44451657 0.1863862
0003d0 a3 48 18 bf 74 f6 d0 bd 9a 5b 3e bd 33 b7 16 bf
       -0.59485835 -0.10203257 -0.046474077 -0.5887329
0003e0 ef cd 19 3f 4f bc 9d 3e 8d 06 94 bd 0c 7a 77 3e
       0.60079855 0.3080773 -0.07227812 0.24167651
0003f0 32 8f 7b be 2b 1e ea be e6 5d c0 3d 6f e7 fb be
       -0.24566343 -0.4572614 0.0939291 -0.49200007

conv0.0.bias f4 [32]
000000 76 54 52 3e 4f a3 28 3e ef 2b 83 3d 61 a9 26 bd
       0.20540032 0.16468547 0.06404864 -0.040688876
000010 33 4c d7 3e 8f 9e b8 3d cc 81 e4 3d 7f ef 80 bd
       0.42050323 0.09014618 0.11157569 -0.0629568
000020 6f 70 bc bc e1 32 3c be 0d 19 6e 3e a4 e5 25 3d
       -0.023002831 -0.18378784 0.23251744 0.040502205
000030 85 67 c7 3d d2 13 d5 3c 88 80 bc 3e 22 82 18 3f
       0.09736542 0.026010428 0.36816812 0.59573567
000040 11 a8 c5 3e bf 41 b5 3d ef bf bb 3c 55 33 7d 3c
       0.38604787 0.08850431 0.02291867 0.015454133
000050 0d 06 e2 3e e4 1b 97 3c 05 85 3b 3f b8 12 e3 3e
       0.4414524 0.018445916 0.73249847 0.4435022
000060 4a 10 35 3e 0b 41 c0 3d 2e 6f bc bd 8b 46 02 bd
       0.17681995 0.09387406 -0.09200893 -0.031805556
000070 02 da 3a 3d 8f 6a b2 3e 0e f8 a7 3f e6 14 c5 b9
       0.045618065 0.34846923 1.3122575 -0.0003759034

res_conv1.0.weight f4 [32, 32, 3, 3]
000000 4e 50 1c 3e 0a 81 0d be 6b 40 17 bd 3f 1e ff 3d
       0.15265009 -0.13818756 -0.036926668 0.12456941
000010 0a d4 0e be 8f 1c 75 bd 15 84 48 bd f4 24 97 bd
       -0.13948074 -0.05984169 -0.04895409 -0.07380095
000020 fc 32 26 3d db f7 e7 3e 58 12 8c be 7e 25 72 be
       0.040575966 0.45306286 -0.27357745 -0.23647115
000030 be d2 a6 3e 19 44 8c bd 90 26 80 be c4 3e ad 3e
       0.3258266 -0.06848926 -0.2502942 0.3383695
000040 fc 26 4a be 22 76 20 3d e9 53 a9 3c 3a 32 47 bc
       -0.19741434 0.03917516 0.020669894 -0.012157971
000050 35 99 a9 bc c1 7e 4e 3e d9 c1 54 bd 63 66 b2 bd
       -0.020702938 0.2016554 -0.05194268 -0.08710935
000060 71 f9 75 3e bf f6 60 be a5 d4 03 be d8 40 9a 3d
       0.24020936 -0.21969126 -0.12874086 0.07531899
000070 b1 83 4a 3c 4b 7b ad bc 89 01 4c bd 33 f3 5d 3e
       0.012360499 -0.021176955 -0.04980615 0.21674804
000080 43 50 9b 3b f5 5f e9 3d 84 36 fe 3d eb 9b 1c bc
       0.0047397926 0.113952555 0.12412742 -0.009558658
000090 33 00 f7 3e fb 16 9f be 6e 7c 58 be b0 dd 93 3e
       0.4824234 -0.3107222 -0.21141216 0.28880072
0000a0 e4 7a af be 51 c3 4d 3d a9 1a 5b 3f ff f3 59 bf
       -0.34273446 0.050235096 0.85587555 -0.85137933
0000b0 3d 27 4a 3e 68 62 c5 3e 9a 9b 52 be ab 1f 5f 3e
       0.1974153 0.3855164 -0.2056717 0.21789424
0000c0 b7 15 90 3d d9 80 79 be 2d 65 ab bc 9b ae ce 3e
       0.07035392 -0.24365558 -0.020922268 0.40367588
0000d0 18 ca bc be 6e 62 2f 3e b7 ab a8 3c b9 b4 aa 3d
       -0.36872935 0.17127392 0.020589693 0.08335251
0000e0 8d e1 a7 bd ef 34 3f 3d 4d b0 01 3e 5c e9 98 bd
       -0.08197317 0.04668134 0.1266491 -0.07466385
0000f0 ea a9 12 bd f6 8f 52 3d b5 3a d1 bd 45 bd 56 3e
       -0.035806574 0.051406823 -0.102162756 0.20970638
000100 68 7b 8d bd 42 94 18 bc 45 7a 3d 3e 07 6d 3d 3d
       -0.069083035 -0.009312691 0.18503673 0.046246555
000110 6d 4b d7 bd 05 c7 b5 3d 79 3a ea 3c a3 ea c1 3d
       -0.10512433 0.088758506 0.028592335 0.094685815
000120 85 bc 27 3c bd 56 c2 3d ac ee b0 bd 9b d6 8e bc
       0.010237818 0.094892 -0.08639273 -0.017436316
000130 4f cb 26 bd 68 cf 74 3e cb 10 47 bc 45 ec a0 bd
       -0.040721234 0.23907244 -0.01215 -0.07857565
000140 59 af 6f bd 10 54 ae 3e 79 00 2a be 66 5c 79 bd
       -0.058516834 0.3404851 -0.16601743 -0.060879134
000150 0a 21 99 3e a6 a7 bc be c1 c9 78 be 80 c7 c4 3e
       0.2990802 -0.36846656 -0.24295713 0.38433456
000160 30 fe 5a be 36 77 92 3d eb 7c 5a 3e cf 91 92 be
       -0.21386027 0.07151644 0.21336715 -0.28626868
000170 39 14 32 3e f6 ad 44 3d fc 51 5c be c6 84 18 3e
       0.17390527 0.048017465 -0.2151565 0.14894399
000180 b4 42 86 bc 31 c2 86 be 1a 8d 9e 3d 94 bf b1 3d
       -0.016389228 -0.2632003 0.07741757 0.08679119
000190 07 35 e9 3d 44 75 2f be 83 7a 89 bd 78 81 2c 3e
       0.11387067 -0.17134577 -0.067128204 0.16846263
0001a0 03 6c 0d bc a0 62 f3 3d c3 37 c3 3d 45 4c cd bd
       -0.008631709 0.118840456 0.0953212 -0.10024313
0001b0 d8 35 fc bd 66 af 34 ba a9 84 cd 3e 7e e5 d0 3c
       -0.123149574 -0.00068925915 0.40140274 0.025500055
0001c0 16 08 9a be e7 dc af 3e 81 df 1b bf 7a b6 3a bd
       -0.30084294 0.34348223 -0.60887915 -0.04558418
0001d0 ab 92 12 be 31 b7 33 be 68 2a 58 3e 09 1f c2 3d
       -0.14313762 -0.1755035 0.21109927 0.09478576
0001e0 cc 19 98 3d 00 d3 f9 3d 92 2e 8a bd 52 67 71 3e
       0.07426795 0.12198448 -0.06747164 0.2357457
0001f0 8f 83 54 be 61 0e f2 3c 68 e0 72 be 9c 09 0f 3d
       -0.2075331 0.029547872 -0.23718417 0.034921274
000200 db 90 39 3d 4d 7f 7f 3e 3e ec 50 be 1d 70 ab 3c
       0.04530416 0.24950905 -0.20402619 0.020927483
000210 dd 6d 5d 3c 96 52 08 be 5c 78 04 3e 77 62 8a 3e
       0.013514963 -0.13312754 0.12936538 0.27028248
000220 56 76 4d bf 04 b0 62 3f c9 b3 01 3e cd c3 65 bf
       -0.8025869 0.8854983 0.12666239 -0.89751893
000230 5f 2c 2b 3f 47 f9 93 3d 50 7a b4 bf 1f ac 42 3f
       0.6686458 0.0722528 -1.4099827 0.76043886
000240 d2 eb 6c 3f 0c 96 4b bf 03 e0 49 be fb 7f e1 bd
       0.92547333 -0.7952583 -0.1971436 -0.110107385
000250 c8 56 05 bf f6 90 72 3e da 64 ac bd d4 a5 60 be
       -0.5208554 0.2368811 -0.084176734 -0.21938258
000260 8e 42 cf 3e 6b 4c db 3d 1e ab 3a be 28 53 ae 3d
       0.40480465 0.10707935 -0.18229339 0.085119545
000270 b1 72 97 be 6d 6d 2c 3e 72 6c 92 bd 25 e8 64 be
       -0.2957969 0.16838618 -0.071495906 -0.22354181
000280 47 6e 11 3e a5 e5 a5 bd 2d b1 ec 3d 59 62 07 3e
       0.14202224 -0.08100442 0.11557231 0.1322111
000290 db ea b8 bd 18 07 37 3d a1 52 72 3d 9b d3 10 bd
       -0.0902917 0.0446845 0.059160832 -0.035358053
0002a0 de 7b bf 3e 26 d4 78 3d f8 93 d0 bd 07 dc c0 3f
       0.3739919 0.060749196 -0.10184473 1.5067147
0002b0 f7 2f 2c bf a2 7a e7 be eb ec b9 3e 8f 5b f3 be
       -0.6726069 -0.4521075 0.36313567 -0.4753079
0002c0 14 b7 0f bd f1 c5 16 3f e0 13 18 bf e2 63 fd 3e
       -0.035086706 0.58895785 -0.59405327 0.49490267
0002d0 2c af ba bd 7e ea a3 3b 0f d6 80 3d fb e1 9d be
       -0.09115443 0.005002319 0.062908284 -0.30836472
0002e0 4d a8 47 3c 8c d9 b4 3d 70 8c 8e bf 21 26 d3 3e
       0.012186122 0.08830556 -1.1136608 0.41240028
0002f0 4a 98 68 3d 0e a5 8b 3e 45 8c f2 bd bd c9 29 bd
       0.05678586 0.27274364 -0.118431605 -0.04145216
000300 1d fc 96 3d d9 b8 22 3d e2 81 35 3d fa 27 92 bd
       0.073723055 0.039727066 0.04431332 -0.07136531
000310 45 b8 8f 3d db 3e a6 bc aa e9 a8 3e 96 53 9b be
       0.070175685 -0.020293644 0.32990772 -0.30337209
000320 84 f3 34 3e 61 39 a5 3e db 38 06 bf c6 ce cd 3d
       0.17671019 0.3227034 -0.52430505 0.100492045
000330 d8 70 af 3e 8f ce 30 bf 14 02 0d 3e 7e a9 87 bd
       0.3426578 -0.69065183 0.13770324 -0.06624125
000340 d6 ed 47 3c 74 3e ab 3c af 2f 04 3d ce 88 8b bd
       0.012202701 0.020903803 0.032272037 -0.06813203
000350 e0 77 58 3d 09 3d 79 be 36 b2 0b 3d 26 9d 31 bc
       0.052848697 -0.2433969 0.034105502 -0.01084069
000360 9d f6 7d 3d df ba bf be f2 2a b8 3b 18 09 e9 3d
       0.062002767 -0.3744726 0.005620354 0.113786876
000370 70 a1 46 be 4f df dc 3d a2 71 c4 bd f3 f7 23 3e
       -0.19397521 0.1078478 -0.09591986 0.16012554
000380 bc 7c fa bd fa e3 11 3f 96 90 be bd 00 ab cd 3d
       -0.122308224 0.5698849 -0.09304921 0.10042381
000390 a5 3d 9f 3e c6 dd 9e be 24 cb 72 bd 21 a2 78 3e
       0.3110172 -0.31028575 -0.05927576 0.24280597
0003a0 98 f5 77 be e1 c1 81 3e e9 87 57 3d b1 fc d1 bd
       -0.2421478 0.2534323 0.05261985 -0.10253275
0003b0 0b 33 f3 3c dd 2a ff 3d 4e f1 75 bd 82 71 53 bc
       0.029687425 0.124593474 -0.06004458 -0.01290548
0003c0 70 1e 73 bd 20 03 a2 3d 9c 4e ea 3c 60 f1 c6 be
       -0.0593552 0.07910752 0.028601937 -0.3885603
0003d0 b8 82 0b 3f 65 04 85 be ba 2c 99 bd 2c cc 24 3e
       0.54496336 -0.25979915 -0.07479234 0.1609351
0003e0 a7 a7 bf 3c f2 41 b1 be e4 e6 8e 3e 1e 80 56 bd
       0.023395373 -0.34620625 0.2791053 -0.052368276
0003f0 00 e8 e1 be d1 f9 b8 3c 81 b1 4a be c9 36 7a bd
       -0.44122314 0.02258006 -0.19794275 -0.061087403

res_conv1.0.bias f4 [32]
000000 4f 17 ad ba e2 46 13 3d 5d 93 d9 bb e7 7e 09 bd
       -0.0013205799 0.03595627 -0.0066398815 -0.03356829
000010 c1 39 ea 3c ca cb 1f bd 97 f5 0e bd d8 7a cc bd
       0.028591992 -0.039012708 -0.03490218 -0.09984368
000020 ab 4a 7b bd af 60 b3 bd 84 40 d9 bc fe d9 23 be
       -0.061350506 -0.08758675 -0.026520021 -0.16001126
000030 fe cc 97 bd d3 0b cf bd 5c d7 ce bc 07 e9 a2 3c
       -0.07412146 -0.10109677 -0.025249176 0.019886507
000040 cc 67 40 bc 83 28 29 3d 0c 29 d3 bd e6 2f b0 bc
       -0.011743497 0.0412984 -0.103105634 -0.021507215
000050 bb bc 84 bd 57 47 38 3c 3f 5e 33 3d 1c d8 d0 ba
       -0.0648131 0.0112474775 0.043791052 -0.0015933546
000060 f7 d8 cb 3c fc e5 05 bd 12 19 fe bd 88 cc d5 3c
       0.02488373 -0.032690033 -0.124071255 0.026098505
000070 e8 0d 76 be 5b 6f 29 bd 08 62 cd bd e2 05 90 bd
       -0.24028742 -0.041365962 -0.100284636 -0.07032372

res_conv1.2.weight f4 [32, 32, 3, 3]
000000 ce 42 2f 3d a4 fd 6c bd b7 7b 5c 3e ed c9 70 3d
       0.04278832 -0.057859078 0.21531568 0.05878632
000010 c0 f5 2f 3d b9 91 70 3d f8 01 ae bd 0e 0a 06 3b
       0.042958975 0.058732722 -0.08496469 0.002045277
000020 aa 85 14 be 2d d2 a1 bd 21 c9 25 3d 3a d6 79 3d
       -0.14504114 -0.07901416 0.040475015 0.060995318
000030 06 2e 25 bc 6f f3 33 be bf 45 e7 3d f4 31 c2 bd
       -0.010081774 -0.17573331 0.112926 -0.09482184
000040 cc ca 25 bd 2c 91 d4 3c f2 29 d7 3d ac 9f 34 3e
       -0.040476605 0.02594813 0.10506047 0.17639035
000050 e5 da 7b bd 3b 3f c0 3d 4c 1c a0 ba 0d 8b d5 bd
       -0.06148805 0.0938706 -0.0012215464 -0.104269125
000060 c4 e9 6a 3b 85 ed df bd 18 de db 3d f4 13 86 bd
       0.0035844902 -0.10933975 0.107357204 -0.065467745
000070 c8 61 06 bb 42 01 d7 3c 30 b1 1c bc f0 31 39 bd
       -0.002050506 0.026245717 -0.009563729 -0.04521364
000080 15 a8 85 bc f5 97 44 3e 54 cc 5f be 6b df 5e be
       -0.0163155 0.19198592 -0.21855289 -0.21764915
000090 3f 0c dc 3d bd ee 94 bd 15 e9 68 3e 83 27 e1 bd
       0.10744523 -0.07272098 0.22745164 -0.109938644
0000a0 0c 41 d9 3a a8 d7 86 3d bb b2 8e be 9a 72 41 3d
       0.0016575172 0.06584102 -0.27870736 0.047228433
0000b0 e1 c9 8f bc c3 c9 58 3e 58 e1 f5 3c c5 d1 73 3d
       -0.017552318 0.21170716 0.030014679 0.059526224
0000c0 b2 c4 8d be 3c 71 3c 3e 74 4c 7e 3d 2e 3f 30 3e
       -0.2768913 0.1840257 0.06208463 0.17211601
0000d0 19 dd 67 3c c0 0b f3 3d 79 55 09 3d 08 75 32 3d
       0.014151835 0.118674755 0.03352878 0.04356864
0000e0 8a 6d 3b bc 3b 37 4b bd 4c c9 b5 be 2a aa b9 3d
       -0.01143969 -0.04961322 -0.3550514 0.09065659
0000f0 39 24 f1 bc 8c b0 eb bd 32 05 03 3e 6a 01 1f 3e
       -0.029436218 -0.11508283 0.1279495 0.15527883
000100 70 b8 f7 bc 26 15 88 3e 49 10 06 3e 73 bc e6 bd
       -0.030239314 0.26578635 0.1309215 -0.112664126
000110 b5 10 ac bd 7f 3a 1d 3d db 67 9e 3e c0 01 a5 3d
       -0.08401624 0.038385864 0.3093861 0.080569744
000120 de 7f c1 bd 51 ba 0e be 91 a6 49 bd 84 6e a3 bd
       -0.09448217 -0.13938262 -0.049231116 -0.079800636
000130 e2 1f 86 be b8 3e 2d 3d 26 27 11 be 83 3e 6d be
       -0.261962 0.04229614 -0.1417509 -0.23168378
000140 e4 ec 45 3e 70 69 12 3e 6a 72 ed bb c6 78 35 3d
       0.19328648 0.14298034 -0.0072463052 0.04430463
000150 cb 7c 8d 3e 26 d7 94 be 6d 13 b1 bd 0a 05 fc bd
       0.27634272 -0.29070395 -0.08646283 -0.123056486
000160 7a 2a 8a be 8c 2f 40 be 0a 99 60 3e 65 4b 55 3d
       -0.26985532 -0.18768138 0.2193338 0.052073855
000170 2e 20 cf bd be f0 42 3e e4 f0 f2 3a 3c 86 d1 3c
       -0.1011356 0.19037148 0.0018534926 0.025576703
000180 70 bd 3a 3e 07 92 fc bd 43 b6 64 be ab 62 bc 3e
       0.18236327 -0.1233254 -0.22335152 0.36794028
000190 05 01 ef 3d 92 85 d4 3d e8 76 0c 3e c3 c9 a3 be
       0.11670116 0.10377039 0.13717234 -0.3198987
0001a0 7a 23 fe 3d 9e cb 9d 3e 30 6c df 3e ba bc 12 3e
       0.1240911 0.3081941 0.43637228 0.14329806
0001b0 7d 3f 1c be 21 c0 14 bc 13 f4 35 bd 04 d7 72 be
       -0.15258594 -0.00907901 -0.04442222 -0.23714834
0001c0 b6 f7 24 bc 23 80 34 3e cf de 72 be 7a 4a e4 bd
       -0.0100688245 0.17627005 -0.23717807 -0.11147018
0001d0 91 87 27 bd 55 e6 00 3e 60 d9 67 be cf cf d2 be
       -0.04090077 0.12587865 -0.22641516 -0.4117417
0001e0 2b 62 c2 bd fd ff 57 bd c8 a2 66 3d f4 25 0c be
       -0.0949138 -0.052734364 0.056307584 -0.13686353
0001f0 54 e1 bb bd 0c 1f 7e be f0 29 e6 bd 75 74 07 3e
       -0.09173837 -0.24816531 -0.11238468 0.13228019
000200 c3 64 3f be 8f 99 54 3e 68 25 00 bd 0f b2 e2 3d
       -0.18690781 0.20761703 -0.031285673 0.11069118
000210 10 eb 23 3d e0 65 8d bd 1c a1 7a bd e7 0a 48 be
       0.040019095 -0.06904197 -0.061188802 -0.19535409
000220 e6 9c ce bd 60 b0 5c be 0c 22 bb 3d 65 a9 6f 3c
       -0.1008852 -0.21551657 0.09137353 0.014627789
000230 70 5a cc bd c7 68 26 be b4 17 f2 3c 98 b4 18 be
       -0.09978187 -0.16250907 0.029552318 -0.14912641
000240 a7 0b 20 3e 55 dd 8a 3e a4 db 7d 3d 20 03 58 be
       0.15629445 0.27121988 0.061977044 -0.21094942
000250 69 8f d1 3d 3b f4 11 be a9 39 02 be 22 6f 1b 3d
       0.102324314 -0.14253323 -0.12717308 0.03794778
000260 f6 0e 15 3e 9a 6f dc 3d 17 d5 63 3e d7 04 b6 3d
       0.14556488 0.10763474 0.22249256 0.08887642
000270 e3 20 30 bc 9a 6d f4 3d d0 bf 82 3d 3d 9c 7d bc
       -0.010750028 0.11934967 0.063842416 -0.015479145
000280 70 be 19 be da cb db be dc 75 84 bd 67 aa 01 bc
       -0.15014052 -0.42928964 -0.064677924 -0.007914162
000290 ee a4 49 3d c2 d7 5f 3e 05 c5 09 bc 6c cc be bc
       0.049229555 0.21859649 -0.0084087895 -0.023290835
0002a0 94 aa dc 3d f7 52 65 3e 5e a2 27 3e 19 cc 31 be
       0.10774723 0.2239493 0.16370532 -0.17363013
0002b0 51 16 2e 3d 38 81 6a 3c ad 2a fd bd 67 c8 8d 3d
       0.04250175 0.014313035 -0.123616554 0.06922989
0002c0 e2 34 6d 3c ca 6b 49 be c4 c5 36 be 20 c6 3d be
       0.01447794 -0.19670025 -0.17848879 -0.1853261
0002d0 12 50 b5 bd 4c 6f 1a be 55 16 08 3e 28 d3 94 bd
       -0.08853163 -0.15081519 0.13289769 -0.07266837
0002e0 d6 df 07 3e 72 4a 5a be fd d9 4d 3e dd 86 50 3e
       0.1326898 -0.21317461 0.20102687 0.20363946
0002f0 93 ce ed 3c 30 c1 96 be 82 12 93 be d5 0d 4f be
       0.029029166 -0.29444265 -0.28725058 -0.2022012
000300 c3 f2 8b 3d 0c a4 a5 3d b2 3c 2e 3d e1 a8 84 3e
       0.068334125 0.0808793 0.042538352 0.25910094
000310 21 49 ec 3d 25 63 10 3f eb af 57 be 14 1e a9 bc
       0.11537386 0.5640128 -0.21063201 -0.020644225
000320 9e 70 98 be ef de c7 3e 80 c0 c5 3e e3 f2 0b be
       -0.2977342 0.39037272 0.38623428 -0.13666873
000330 40 6c 88 3c 0c be 36 bb bf 5d 96 be fb 88 b0 be
       0.01665318 -0.0027884273 -0.29368398 -0.34479508
000340 70 a8 6f be 75 ab d6 be 16 42 14 3b 18 84 3c be
       -0.23404098 -0.41927686 0.0022622398 -0.18409765
000350 0a df 31 be 2b 5b f5 3d 7b 3f da 3e 58 80 ef 3e
       -0.17370239 0.119802795 0.42626557 0.46777606
000360 0b b0 29 3d 84 74 d5 3d 75 05 a6 bd c4 5c 15 ba
       0.041427653 0.10422614 -0.081065096 -0.0005697722
000370 ad 08 82 3d 9c 5f 38 3c d9 84 a4 3c 2d 3e 73 3d
       0.06349311 0.011253264 0.020082878 0.059385467
000380 16 08 3a be d6 fa 51 be 17 60 b7 bd 91 46 5b bd
       -0.18167147 -0.20505843 -0.089538746 -0.053534094
000390 64 16 78 be a3 6c ac bd 87 d9 9c bb f3 e8 c9 3d
       -0.24227291 -0.08419158 -0.0047866735 0.09858885
0003a0 7b 45 22 3d 89 2c 84 3e 9c 81 8f be be a8 c5 3e
       0.039617043 0.25815228 -0.28028572 0.38605303
0003b0 28 7b ad bd 3d 3a 78 bd 80 d7 28 be 7f 44 92 3e
       -0.08470756 -0.060602415 -0.16488457 0.28567883
0003c0 81 0a 9f be ef 4b 5b be a8 39 77 3e bc 53 53 bd
       -0.310627 -0.21415685 0.24143088 -0.051593527
0003d0 f8 20 c7 bd 5c 41 a8 bb 36 60 70 3e 6d 56 33 bd
       -0.09723085 -0.0051347446 0.23474202 -0.043783594
0003e0 7d 8d ab bd 73 d3 9b be d4 9d 95 3e ab de 91 bd
       -0.08376596 -0.3043476 0.29221976 -0.07122549
0003f0 0d 25 e7 bc 65 79 43 3e d1 e2 90 bc 01 ad 07 3e
       -0.02821591 0.19089277 -0.01768628 0.1324959

res_conv1.2.bias f4 [32]
000000 a9 40 98 3d 9b 1c 88 bd 7e e6 06 be 94 d8 bb bd
       0.07434208 -0.06646081 -0.13173863 -0.091721684
000010 76 fa 7f bd 86 26 92 bd c5 c6 a9 3c 1f 0d 5f bd
       -0.062494718 -0.07136254 0.020724664 -0.054455873
000020 39 4f ac bd 10 cc 26 bd 10 ad 30 be 79 65 a4 3d
       -0.08413548 -0.040721953 -0.17253518 0.08027167
000030 72 42 5e bd 4a d4 bc bc 67 11 da bd f3 38 ad bd
       -0.054262586 -0.023050446 -0.106478505 -0.08458128
000040 51 84 9e bc 9c 02 89 3d b9 03 31 3c 9d 59 30 be
       -0.019350203 0.06689951 0.01080411 -0.17221685
000050 ac d8 9b bd 48 87 b1 bd 79 c0 9b bd 80 5b b8 3d
       -0.07609686 -0.08668381 -0.076050706 0.09001827
000060 2a 8b a9 bd 88 91 f5 3c 70 e8 0b 3d d8 11 58 be
       -0.082784966 0.029976621 0.034157217 -0.21100557
000070 12 5a 4f 3c d6 20 e6 bd ce 39 25 bd 7a 8c af 3d
       0.012655752 -0.11236732 -0.04033833 0.08571716

res_conv2.0.weight f4 [32, 32, 3, 3]
000000 51 77 b7 bc 00 8c 3d bc 48 59 ea bb 3e 63 2c 3c
       -0.022395762 -0.011569023 -0.0071517564 0.010521708
000010 7a 5d ee 3c 93 a6 be 3c 87 61 67 bd 73 23 ad 3c
       0.029097307 0.023272788 -0.056489494 0.021135068
000020 1a 4a 0c 3b dc d8 27 3c 14 b9 65 bc 1c ae 4e 3c
       0.0021406473 0.010244574 -0.014021177 0.012614753
000030 98 8b 65 bd 90 95 93 bd 91 e7 22 bd ae 93 cf bc
       -0.05604133 -0.07206261 -0.03977162 -0.025338974
000040 51 99 81 bd 5d c1 05 bd 72 cb 7e bd 32 fd 96 bc
       -0.06328071 -0.03265511 -0.06220574 -0.01843128
000050 05 85 a4 bc 79 b3 ca 3c 10 f6 96 3c 3d 5b 8f bd
       -0.02008296 0.024743782 0.018427879 -0.06999824
000060 92 9d 0a bd c9 df 27 3d 69 e0 f8 bc f4 02 35 3c
       -0.033841677 0.040984903 -0.030380445 0.011048067
000070 48 7d 10 bd 00 7c ed b9 06 94 76 bd 80 6d a2 bd
       -0.035275728 -0.0004529655 -0.06019976 -0.07931042
000080 7d e7 8c bd 05 42 58 3d 5c 8b 4a 3c c6 04 b0 3c
       -0.068800904 0.052797336 0.012362327 0.021486651
000090 73 12 8c bc 24 3e 76 bd 2f 04 f6 3c 68 47 96 bc
       -0.017098641 -0.060117856 0.030031292 -0.018344596
0000a0 57 4c 19 bd 5b ff 52 bd 71 bb d3 bc 66 47 a9 3b
       -0.03742632 -0.051513057 -0.025846215 0.005165982
0000b0 b7 13 1d 3d 08 5b 1e bc e4 bd 08 3d 9a c3 48 bd
       0.03834888 -0.009665258 0.03338422 -0.049014665
0000c0 70 88 a7 3c a0 1b 79 bd 7e 70 cc 3c 5f 39 11 bd
       0.0204508 -0.06081736 0.024955984 -0.035455104
0000d0 e2 37 d6 39 0e 72 1a bd ec df c7 3c 1a 91 a0 3b
       0.00040858897 -0.037706427 0.024398766 0.00490011
0000e0 63 e1 69 bd b5 dc 6e 3b 0f 25 5f 3c 1b 58 19 bd
       -0.05709971 0.003644747 0.013619675 -0.03743754
0000f0 70 c4 6f bd 4a ce ad bb 58 6f 89 bd 82 d7 5f bd
       -0.058536947 -0.0053041326 -0.0671069 -0.054648884
000100 bb 94 0e 3c bb 9a 8f bc 78 52 07 bd 46 8c 2f bd
       0.008702452 -0.017529836 -0.033037633 -0.042858385
000110 a1 c8 53 bd 6d dc 95 3a 03 fe 47 3d 6d 51 d9 bb
       -0.051705007 0.001143349 0.04882623 -0.006632021
000120 c9 51 6f bd b4 86 2d 3c 83 e8 88 3c a1 a2 1c 3c
       -0.058427606 0.010591198 0.016712433 0.009560258
000130 7b 36 36 bd cd c9 90 bc b1 e3 29 bc 9f 56 7b bd
       -0.04448555 -0.017674351 -0.010369227 -0.061361905
000140 5f 42 86 bd d6 b8 21 3d cf d6 80 bd 20 0c 2d 3c
       -0.06555628 0.039482914 -0.062909715 0.010561973
000150 25 ec 14 bd 0d 3a 8f bd 23 33 96 bd 02 29 00 bd
       -0.036358017 -0.06993494 -0.07333972 -0.031289108
000160 6a d4 fd bc 3d 67 d3 3c 2e b9 3f bd a2 2f 02 bd
       -0.030985076 0.025806064 -0.04680746 -0.031783707
000170 58 4c a3 bb a2 44 50 bc f6 51 32 bd 4b 8d 87 bc
       -0.004983466 -0.012711676 -0.043535195 -0.016546866
000180 6b e9 57 bc 1a 02 1d bd 40 e6 82 3c 39 cf 31 bd
       -0.01317821 -0.038332082 0.015978932 -0.043410514
000190 1e da 29 bd 43 aa e4 bc a7 e6 a6 bd 77 7f e1 3c
       -0.04146778 -0.027913218 -0.08149462 0.0275266
0001a0 4a 7d 83 bc 2f 98 03 bd ca 85 2f bc 08 5c 02 3d
       -0.016050953 -0.032127555 -0.01071305 0.03182605
0001b0 fa b1 7d 3c ac 98 27 3d 14 86 e6 bb c2 cd f3 bc
       0.015484327 0.040917084 -0.0070350263 -0.029761199
0001c0 c9 d0 88 bc 70 f8 91 bc 4b c0 9e bc 44 1e 61 3d
       -0.016701119 -0.01781866 -0.019378802 0.054960504
0001d0 a8 f6 c8 bc 7d b2 c5 3c b4 75 0c 3d 45 8c 0c bd
       -0.024531677 0.024132961 0.034291938 -0.03431346
0001e0 1e ca aa 3c c0 e4 19 bd 95 f1 35 bc 66 6e 35 3c
       0.02084833 -0.03757167 -0.011104961 0.011073684
0001f0 4e ef 30 3c bc bc b8 3c 0e 9a 90 bc 5b 8b 37 3d
       0.010799242 0.022550933 -0.017651584 0.044810634
000200 52 57 b4 3c 28 d1 00 bc 0e 3b da bc d0 21 d4 3a
       0.022014294 -0.007862367 -0.026639488 0.0016184393
000210 66 68 18 bd 71 09 87 bd bd bc 96 3c 88 ec 95 bb
       -0.037208937 -0.06593598 0.018400544 -0.004575316
000220 16 2f 56 bd a6 be 45 3c 88 f3 a0 3a 2a 29 62 bd
       -0.052291 0.01206938 0.0012279609 -0.05521504
000230 db df 54 bd 17 53 0e bc 8a 47 89 bd 5d 98 5a bd
       -0.051971298 -0.008686802 -0.06703098 -0.05336796
000240 74 8d 45 bc 37 6f 2f 3d ca 18 d3 bc 7d b7 62 bd
       -0.012057651 0.042830672 -0.025768656 -0.05535077
000250 73 78 12 3d 06 6b ec 3c e4 77 3a 3d 39 10 13 bd
       0.0357594 0.028859627 0.045524493 -0.035904143
000260 5d 69 0a bd 07 35 60 bd d9 ea 03 3d 2a dd 06 bb
       -0.03379189 -0.05473807 0.03220639 -0.0020578601
000270 dc 59 a0 3c 03 a1 96 3c 02 74 7a 3c d0 b9 2e bd
       0.019574098 0.018387323 0.0152864475 -0.042657673
000280 59 6d e4 bc 18 9a 70 bd 86 6e 08 bc 16 5d 25 bd
       -0.027884172 -0.058740705 -0.008327132 -0.040371977
000290 93 47 f6 39 7f 45 fb bc 22 0f 40 bd 88 60 83 bd
       0.00046974103 -0.030672787 -0.04688943 -0.06414896
0002a0 f6 93 ce 3c cb e0 2f bd a7 b5 c5 bc b3 26 97 3c
       0.025217038 -0.04293899 -0.02413447 0.01845107
0002b0 23 03 0e 3d e7 03 63 3d 3d 3f dd bc 8d 2c 86 bd
       0.03467096 0.055423643 -0.027007693 -0.06551466
0002c0 3d 96 af bc ee 32 6d bd 0b ee 95 bd 1e 6f 87 bd
       -0.021433944 -0.0579099 -0.07320794 -0.06612991
0002d0 58 4a 11 bd b3 5a 8d 3c 99 23 17 3b 35 7e 85 bc
       -0.03547129 0.017255163 0.002306199 -0.016295532
0002e0 cc 0a a6 3c 90 b4 af bc dd ca 37 bb 34 82 85 bc
       0.02026882 -0.021448404 -0.00280445 -0.016297437
0002f0 04 cd b8 3c 13 64 d1 bc 37 05 f2 3c 63 ce a9 3c
       0.022558697 -0.025560414 0.029543502 0.020728296
000300 2a d1 4a 3b 38 35 2d 3d d0 d7 3c 3d 07 1a f9 bc
       0.0030947425 0.04228708 0.046104252 -0.030407919
000310 6f 8c 06 bd b2 0d 03 bd aa 85 49 3d 91 55 4c 3d
       -0.03284877 -0.031995483 0.049199738 0.04988629
000320 bb 1a b9 bc b8 fb 1e bd 60 79 ed bc 0a bf 40 3d
       -0.022595754 -0.038814276 -0.02898854 0.04705719
000330 7b 36 4b bd e3 d7 13 3d b1 d7 3f bc 8b 20 cc 3a
       -0.049612503 0.036094557 -0.01170914 0.0015573663
000340 2b 9c c2 3b cb fa 9b 3c e5 45 07 3a 15 87 68 3c
       0.005939027 0.019040486 0.00051602564 0.014192362
000350 ec bf e3 3c 86 0c 48 bd 93 6c 2c bd ba b7 96 bc
       0.027801476 -0.04884007 -0.042095732 -0.018398155
000360 9a 67 8b 3c f4 88 3f b9 70 0c b5 3c b5 e7 79 bd
       0.017017175 -0.00018266198 0.022100657 -0.06101199
000370 45 38 a0 3a 2f aa a1 3b d6 ae cc 3c 3c ad 5d 3c
       0.0012223801 0.0049336175 0.024985712 0.013530072
000380 4d 5e c4 3b eb f2 ee 3c 40 6b 5f bc fb 74 7a bc
       0.005992687 0.029168567 -0.01363641 -0.015286679
000390 bf 18 fd 3b df 3c 50 3c 84 d5 91 bc 30 d6 58 bc
       0.007723897 0.012709825 -0.017802007 -0.01323466
0003a0 1b 48 57 bd 12 54 92 bd 82 c8 10 3d 7c ac a5 3c
       -0.052559 -0.071449414 0.03534747 0.020223849
0003b0 b1 cb 16 bd 93 65 3f bb f1 07 8e 3c 0f c1 c9 3c
       -0.03681535 -0.002920483 0.017337771 0.02462819
0003c0 bb e6 cd bc 10 cb 97 bd e8 98 9f 3b 58 90 21 bd
       -0.025134435 -0.07411778 0.004870523 -0.039444298
0003d0 ad a3 e7 bc 6e 5d 05 3c ad c6 1b 3d 1a 97 99 3c
       -0.028276289 0.008139951 0.03803127 0.018748809
0003e0 b5 f4 2e 3d 81 16 98 bc 96 89 54 bd fe 31 51 bd
       0.04271384 -0.018565418 -0.051889025 -0.051073067
0003f0 73 dc 07 bc 9c 58 3d bd 69 12 0c bd fe 1c ed bc
       -0.008292305 -0.046227083 -0.034197245 -0.028944489

res_conv2.0.bias f4 [32]
000000 b7 34 e1 bd c3 40 93 bd 9c ab 58 3d 92 0c c4 3c
       -0.10996383 -0.07190087 0.052898034 0.023931775
000010 c0 e5 35 bd d8 23 19 3e 1c ee f3 3d b6 80 4b 3d
       -0.04440856 0.1495508 0.1191065 0.049683295
000020 b4 3c d2 3c 8a 23 ef 3c 9f cc 0b 3d ba 9c d9 38
       0.025663711 0.029191751 0.03413069 0.00010376559
000030 a9 5c 20 3d 65 f0 ea bc bb e8 12 3d be d3 96 3d
       0.039150868 -0.028679082 0.03586648 0.07364605
000040 a8 d3 8a 3d 3a 4b 38 be 81 dc ab bd 5f de 69 bd
       0.067786515 -0.17997447 -0.08391667 -0.057096835
000050 3d 78 63 bd 25 01 82 3d 21 b9 9b 3d 52 28 3d 3c
       -0.05553459 0.063478746 0.0760367 0.011545258
000060 d0 d6 0e bc b0 5c c8 3c 15 a3 68 bd 77 10 39 3d
       -0.0087182075 0.02445826 -0.056796152 0.045181718
000070 70 ba d7 bd ec 97 4c 3d e2 59 0d 3d 95 ca 00 3c
       -0.10533607 0.04994957 0.034509547 0.007860799

res_conv2.2.weight f4 [32, 32, 3, 3]
000000 90 a8 71 bc 88 b3 c5 3b 2c e7 42 bd ae 46 f6 3c
       -0.014749661 0.0060333647 -0.047583744 0.030063
000010 1c dd 60 3c 6b 97 3d bd b3 93 5f 3d 9e 93 fa 3c
       0.013724592 -0.04628698 0.054584216 0.030587967
000020 1e c9 1c bd 80 c4 fe 39 21 e5 32 3d fa 4c 8a 3c
       -0.038277738 0.0004859306 0.043675546 0.016882408
000030 2f 0c 6a bd f0 c5 53 bc fc 34 21 3c c0 6b a5 bb
       -0.057140525 -0.01292561 0.009839293 -0.005048245
000040 ab fb 01 3d 02 87 d4 3c 26 92 39 bd 45 b2 1e bd
       0.03173415 0.025943283 -0.045305394 -0.03874423
000050 06 a3 57 bd e4 4f 22 3b 16 7a 71 bc d1 ca 68 bd
       -0.052645706 0.0024766857 -0.01473858 -0.056834046
000060 66 9d 82 bd 77 83 cf bc 2e b2 63 bd 4e c1 21 bd
       -0.063776776 -0.025331242 -0.055589847 -0.03949099
000070 ce b8 c0 bb da f6 21 3d 38 d6 90 bd c6 00 89 3c
       -0.0058814054 0.039542057 -0.07072109 0.016724002
000080 4f 8f b9 bd 67 af 94 bc 08 ed 39 3b 5f 88 7b bd
       -0.09060537 -0.018150045 0.0028370041 -0.06140935
000090 fc 92 25 3c 9a 25 36 bd 5c a9 54 bd ba 8d 14 bd
       0.010105845 -0.044469453 -0.051919326 -0.036267973
0000a0 1a 9d 9d bd 2b 64 8e 3c 20 9b 77 39 44 67 3f bd
       -0.0769598 0.017381748 0.00023613544 -0.04672934
0000b0 17 44 aa bd e9 fd 1a bd ed 00 58 bd 6e 55 59 bd
       -0.08313768 -0.037839804 -0.052735258 -0.053059988
0000c0 11 d5 d4 bc d2 40 9f bc a3 3f a1 bd 8c 45 a1 3c
       -0.025980504 -0.019440088 -0.07873466 0.019686483
0000d0 34 5f 49 3c 3f cc 08 3d 2d b3 ee bd 08 16 cd bc
       0.012290765 0.03339791 -0.11655269 -0.02503492
0000e0 a2 83 b4 bc 28 51 d5 bd 24 a1 43 bd 49 c5 81 bd
       -0.022035424 -0.1041587 -0.047761098 -0.06336457
0000f0 05 33 36 bd 57 18 55 3c 5b bb 13 bd ce 71 d9 bc
       -0.04448225 0.013006291 -0.036067348 -0.026543524
000100 1b 81 a9 3c 09 97 82 3c 9a e2 12 bd 20 d1 99 bd
       0.020691445 0.01594116 -0.035860635 -0.075105906
000110 83 db a0 bc cc ba 53 3b b6 8c 91 3b be f7 d5 3c
       -0.019635921 0.0032307385 0.004441823 0.02611911
000120 b8 c1 3a bd 2c 57 75 bd f4 27 ac 3b da 00 65 bd
       -0.0455949 -0.059897587 0.005253786 -0.055909015
000130 57 a9 61 bd d2 0b bb bd c9 32 a4 3a f8 d9 55 bd
       -0.055093136 -0.09133114 0.0012527342 -0.052209824
000140 5c b2 1e bd 29 3d f1 bc dc 30 94 bc 82 35 67 bd
       -0.038744316 -0.029448109 -0.018089704 -0.056447513
000150 ac 16 90 bd d0 f7 aa 3c 0f fc 9b bd 14 2e 8e bc
       -0.07035574 0.02087012 -0.07616436 -0.017355956
000160 02 5a 6a bc 48 d4 56 bd c9 dd f5 bc 3a 10 b6 bc
       -0.014303686 -0.05244854 -0.030012982 -0.022224534
000170 6a c9 83 bd 49 6b 70 bd eb d1 93 bd eb 92 87 3d
       -0.06434901 -0.058696065 -0.07217773 0.06619819
000180 97 57 90 bd 83 18 08 bd 5d 95 09 bd 35 54 cc bc
       -0.070479564 -0.0332265 -0.03358971 -0.024942497
000190 85 3d 02 3a ce 66 91 bd 0b 7c 24 bc 55 ff 4c 3d
       0.00049682736 -0.070996866 -0.01003934 0.05004819
0001a0 f9 b0 a1 bd 19 3c bc bc 76 c3 02 bd af ed 79 bd
       -0.07895083 -0.022977876 -0.031924687 -0.06101769
0001b0 0e 27 75 bd 1a d1 ed 3c 55 f0 8d bd 1f a8 32 bd
       -0.0598517 0.029030371 -0.06930605 -0.043617364
0001c0 02 27 aa bc 1b 18 b3 bc 95 84 74 bd b7 ab db 3c
       -0.020770553 -0.02186208 -0.059696753 0.026815278
0001d0 aa 24 85 bc fc 8c 96 bd e4 22 c7 bc 90 4f 9c bd
       -0.016252834 -0.073511094 -0.02430863 -0.07632363
0001e0 ea 8e 86 3c 06 4d 97 bd 15 4f aa bd b6 bd 70 3d
       0.016425569 -0.07387738 -0.08315865 0.058774672
0001f0 9b b8 a5 bd 44 67 42 bd d2 56 10 bd bc 48 c9 bc
       -0.08091851 -0.047461763 -0.03523905 -0.024570815
000200 d2 2b 18 bd 66 bc 0b bd a4 0d 9d 3b c9 64 2d bd
       -0.037151165 -0.034115218 0.004792886 -0.042332444
000210 63 d0 4f bd 6e 6e 9d bd 5a d4 c4 bc 68 1d 32 3c
       -0.050735842 -0.076870784 -0.024027038 0.010871269
000220 bd db a8 bd 29 e7 ac 3c af 94 44 bd 71 5f a2 bc
       -0.08245037 0.02110632 -0.04799336 -0.0198209
000230 fd 23 a5 bd b4 32 cc 3c 5c 02 2f bd b4 3a 34 bd
       -0.08063505 0.02492652 -0.04272686 -0.044001296
000240 4b ed 03 bd 2c 6b 8a 3b 40 74 6f bd ab 16 5c 3c
       -0.032208722 0.0042242017 -0.058460474 0.013433139
000250 77 18 0d ba ab 09 d3 bb 9c 33 05 3c 54 b9 91 3c
       -0.00053823687 -0.0064403615 0.00812998 0.017788567
000260 c2 db 15 3d 7b 6c ba bd 98 84 f0 3c e8 2b 12 3d
       0.03658653 -0.09102722 0.0293601 0.035686404
000270 41 66 d4 bd 50 13 40 3c 62 08 37 3d be df 8c 3d
       -0.10371066 0.011723354 0.04468573 0.06878613
000280 59 54 83 3c b7 86 06 bd b1 b7 06 bd b1 a7 19 bd
       0.016031431 -0.032843318 -0.032890026 -0.03751344
000290 19 4e 11 bb 6e fd d1 3c 55 40 d4 3c ba 4e 8d bd
       -0.0022171794 0.02563354 0.025909582 -0.068997815
0002a0 2d 01 ef 3c 94 3b 20 3d 99 a8 92 bb 57 7e 64 bd
       0.029175365 0.039119318 -0.004475665 -0.05578455
0002b0 94 86 a9 bc 81 07 20 3d 54 0a 8a bc e8 e1 c4 3b
       -0.020694055 0.039069656 -0.016850628 0.0060083754
0002c0 be 1c df bc 7e 1c f8 3c b2 9e 66 bd 76 4b d2 3c
       -0.027235385 0.030287024 -0.056303687 0.025670748
0002d0 e8 69 4d ba f4 1b 5b bd 75 04 20 bd a0 5e b7 bd
       -0.00078359107 -0.053493455 -0.03906675 -0.08953595
0002e0 c8 b9 4a bd 1f f6 b0 bd 2e 8a 77 3c 77 bf 86 bd
       -0.04949358 -0.08640694 0.015108628 -0.06579488
0002f0 6e 99 35 bd 46 0b 15 3c 26 17 8f bc 49 52 06 3c
       -0.044335775 0.009096926 -0.017467093 0.008198329
000300 e0 c5 9c bd 91 1b ef 3d e6 96 97 bc fb ea dd 3c
       -0.07654929 0.1167518 -0.018504571 0.027089586
000310 83 aa 97 bd ed 00 30 3c e9 1e 96 bb 45 2d 90 bc
       -0.074055694 0.010742408 -0.0045813215 -0.017599711
000320 4f df 89 bd e1 6b fa bc 04 ac c3 bd 6d 00 57 bc
       -0.06732046 -0.030569019 -0.09554294 -0.01312266
000330 40 9d 05 bd f7 ee 87 bc 3e 4d 0f bd bd de 45 bd
       -0.03262067 -0.01659344 -0.034985773 -0.048308123
000340 e2 98 d8 bd 8e 06 6c 3d 2a b1 f6 bc dd d4 27 bd
       -0.10576035 0.05762344 -0.030113775 -0.040974487
000350 85 6c 9b bc cc 42 7f bc 18 d7 aa 3b 15 d6 a3 bd
       -0.018972645 -0.01557989 0.0052136295 -0.07999817
000360 2f 76 32 bd 51 68 60 bd 0a 55 42 bd c0 12 a8 bc
       -0.04356974 -0.054786984 -0.04744438 -0.020516753
000370 5c f7 ad 3c 9e e0 d0 bd c2 72 4a bd fe 0f f9 bb
       0.021236114 -0.10199092 -0.049425848 -0.0076007834
000380 f3 77 8e bc 19 5c 25 3c b0 2d da bd 4c 83 85 bd
       -0.01739118 0.010092759 -0.106532454 -0.065191835
000390 c5 1b cc bd 98 6e 29 bd 89 95 76 3d 9e 65 31 bd
       -0.09966234 -0.041365236 0.0602012 -0.0433098
0003a0 c9 c5 9e bd b0 c9 d8 bb 58 7b 87 bb 55 3c fd bc
       -0.07752568 -0.00661584 -0.004134577 -0.030912558
0003b0 5b d4 59 bd 4a 7e a7 bc 92 93 2a bd fe ab 5a bd
       -0.053181034 -0.020445962 -0.04164464 -0.05338668
0003c0 97 56 36 3d f7 d0 2b 3d 53 3a 4a 3d 71 de bd 3c
       0.044516172 0.04194733 0.04937203 0.023177357
0003d0 95 20 5b 3c 76 72 8d bc e2 3e 91 bc ab a5 56 bc
       0.013374467 -0.017266493 -0.01773018 -0.013101022
0003e0 24 17 5d bc ec 20 90 bd 33 62 4f bc d8 72 37 bd
       -0.013494287 -0.07037529 -0.01265769 -0.044787258
0003f0 e9 c3 68 bd c3 d1 3d 3d 9a d9 8c 3c 66 8b d5 3c
       -0.05682746 0.046342622 0.017193604 0.026067447

res_conv2.2.bias f4 [32]
000000 5c 84 01 be 1d 23 f3 bd e9 fd b4 be e9 8f de 3c
       -0.12648147 -0.11871932 -0.35349968 0.027168231
000010 a4 61 98 be 03 c8 18 3d 0e ac 72 bd b3 e8 cf bd
       -0.29761994 0.03730012 -0.059246115 -0.10151806
000020 42 3d 15 bd 49 e6 c5 be 82 16 a8 bd ff 16 c5 bd
       -0.036435373 -0.38652256 -0.08207418 -0.09623527
000030 57 a2 d2 bd 4d 9e 0b be 7e 9d 9e bd b5 ec 38 be
       -0.1028487 -0.13634606 -0.07744883 -0.18059047
000040 b6 91 b2 bd db 7d b1 bd ef fb ea bd c4 f7 05 3d
       -0.087191984 -0.08666583 -0.11473834 0.03270699
000050 39 f4 da bd 2f 12 df bd 04 c3 fe bd e2 83 05 3c
       -0.10691113 -0.1089214 -0.1243954 0.008149119
000060 4a 07 1e 3d ce 44 77 bd b9 74 8a bd 6f c2 48 3c
       0.03858117 -0.06036835 -0.06760544 0.012253388
000070 e2 07 a3 3c 25 a7 ad bd 34 b1 4d be a3 05 c1 bd
       0.01990122 -0.08479146 -0.20087129 -0.09424903

res_conv3.0.weight f4 [32, 32, 3, 3]
000000 fe 4c e5 bd 78 ca 51 3d 4c 86 d6 bd fc 01 90 bd
       -0.11196326 0.05121848 -0.10474834 -0.070316285
000010 88 a6 0b 3d ac 61 6c 3d cc cc 15 3e 7d 3e 01 bd
       0.034094363 0.057710335 0.14628905 -0.031553734
000020 f7 bf e7 3d 72 69 86 3d c1 44 a6 bb a6 6b 09 3f
       0.11315911 0.06563081 -0.005074114 0.53679883
000030 67 56 8a 3d 14 1d ab 3e e0 a3 95 3a 77 8c 74 3e
       0.06754761 0.33420622 0.0011416636 0.23881708
000040 a9 78 38 3e c4 77 67 3e a9 d0 80 3d 25 17 65 be
       0.18014778 0.2260428 0.06289799 -0.2237211
000050 71 e2 cf be ee d2 5f bc 73 7f d2 3d 11 c0 69 3e
       -0.4060245 -0.013661129 0.10278215 0.22827174
000060 27 1f 99 3e 03 93 9b 3e 92 ae 85 3e 1d 69 6a be
       0.2990658 0.303856 0.2610975 -0.2289166
000070 90 8b 7f 3e 1d 29 a9 bd 03 3a 83 bc 02 aa 35 3d
       0.24955583 -0.08259795 -0.016018873 0.044351585
000080 cd 87 76 3d 53 19 22 be 99 db 6f be 5f d6 2c 3e
       0.060188103 -0.15829973 -0.23423614 0.16878651
000090 2b 12 b8 3c 6a cd ba 3d 83 56 a3 bd 93 78 cf bc
       0.0224696 0.09121211 -0.07975485 -0.025326049
0000a0 84 39 fc 3d 3e 5a d5 3d 6f 30 7f be e4 a5 97 3e
       0.12315658 0.10417603 -0.2492082 0.29618752
0000b0 6d 8d e9 bd 00 d3 3a bd 91 ec cb be e3 b7 95 be
       -0.11403928 -0.04561138 -0.39828923 -0.29241857
0000c0 3e 14 d4 bc fb 05 e6 bd a6 61 7f bd 92 76 09 bf
       -0.025888558 -0.112316094 -0.062348984 -0.5369655
0000d0 ae 9c 3b bf 77 2e 75 be f1 31 08 3d 58 ed 6b 3b
       -0.7328595 -0.23943506 0.033250753 0.0035999622
0000e0 26 51 13 3e ee 82 92 bc 6f c3 e1 3a 5c a6 90 bd
       0.14386424 -0.017884698 0.0017224381 -0.070629805
0000f0 27 c5 02 be 8d af 18 3e f8 be d9 bd 7b dc e6 3e
       -0.1277052 0.14910717 -0.106321275 0.45090088
000100 49 0b e0 be 4f 49 ec 3e 19 9f 55 3d aa 30 07 be
       -0.4375861 0.4614968 0.05215368 -0.13202158
000110 2b df e2 3e 8c e4 62 be dc 6a 6d 3e c8 3a e7 3e
       0.4431089 -0.22157496 0.23185295 0.45162034
000120 31 54 27 3d b8 5c cc bc 81 2c da 3d 7e f2 63 3e
       0.040851776 -0.024946555 0.1065302 0.22260472
000130 42 79 14 be 6c d2 48 3c be fd 87 be ab 99 48 3e
       -0.14499381 0.0122572 -0.26560777 0.1958987
000140 84 d8 06 be 9f 4a db 3e 9d 19 c2 3e ba 98 c4 bd
       -0.13168532 0.4283037 0.37910166 -0.09599443
000150 bd 56 8d be d4 f5 1e 3e d3 d2 f7 bd e3 ee 60 be
       -0.2760524 0.15523463 -0.121007584 -0.21966128
000160 f2 90 9d 3d 39 f6 ce bd 34 18 cd 3e 95 0a 35 bb
       0.07693662 -0.10105557 0.40057528 -0.0027624716
000170 2a f0 97 ba 52 0d e1 3e 50 5e 9f bd 85 7b 5d 3e
       -0.001159196 0.43955475 -0.077816606 0.2162915
000180 ef aa 6c 3e ae f4 87 bd 76 7c 86 be 0d 76 83 bd
       0.23112081 -0.06638466 -0.2626683 -0.06419001
000190 4a 7b 9e 3d 5a 5e 90 bd af 96 01 3e 1b 46 1d 3d
       0.07738359 -0.07049246 0.12655137 0.038396936
0001a0 5f 88 55 3d 62 07 81 3d 91 13 75 be 72 97 4f 3d
       0.052132007 0.06300236 -0.23933245 0.05068154
0001b0 0b 72 03 bd 3e 01 49 bf 9d d3 f2 3d ec 93 d1 3c
       -0.03209118 -0.7851752 0.11856768 0.02558323
0001c0 4a d1 1c 3e ba 11 99 be b5 26 4e 3e f7 ee bd 3d
       0.15314212 -0.29896337 0.20131953 0.092740946
0001d0 b5 47 ab bf 5d 75 99 bd 88 ec c1 be 51 df 83 3e
       -1.3381258 -0.074930884 -0.37875772 0.25756314
0001e0 ee e6 07 3e af 3c eb 3d 59 8f c1 bd b2 ca 22 be
       0.13271686 0.11486184 -0.094511695 -0.15897635
0001f0 bb 69 e7 3d 36 b2 3d 3e 06 3b 81 be 73 87 39 bf
       0.11299463 0.18525013 -0.25240344 -0.72472304
000200 7b 30 14 3e c2 3c 07 bf 5f df 21 be 91 b7 f3 3c
       0.14471619 -0.52827084 -0.15807866 0.029750617
000210 c9 bd a7 bd cf be 81 3e 02 5f c5 3e 9a f9 18 3e
       -0.081904955 0.25340888 0.38549048 0.14938965
000220 4f 30 fb 3d df c6 39 3d 66 eb c2 3d ae 5b 9a 3e
       0.122650735 0.045355674 0.09517555 0.3014807
000230 b5 96 2c be 28 8f 2b 3e bd b7 0c 3f ac 38 e0 be
       -0.16854365 0.16753829 0.5496786 -0.43793237
000240 57 27 d7 bf 7d 4c 96 3f a6 5d ab bf 8c 61 ee bd
       -1.680888 1.1742092 -1.3387954 -0.11639699
000250 29 a8 22 3e 90 08 4f 3d 65 09 09 3f 88 12 81 bf
       0.1588446 0.050545275 0.5352996 -1.008378
000260 b4 51 95 bd a3 3c 11 bd 55 4b b5 be cc 8d cc 3c
       -0.07290974 -0.03545822 -0.35409036 0.024969958
000270 24 a1 49 be 43 ad 12 bd 1c dd 58 3d 11 a2 27 3e
       -0.19690377 -0.035809767 0.05294524 0.16370417
000280 3b 78 ef be 1c b4 16 3f 6a fd 89 be dc ac ee bd
       -0.46771416 0.58868575 -0.26951152 -0.11654064
000290 5d 2e 60 be 76 9f a1 3d fc ea e0 3a 2d 41 35 bd
       -0.21892686 0.07891743 0.0017159875 -0.04425161
0002a0 2a ea 9b 3e f2 47 62 bf 36 33 75 3e 97 25 85 bf
       0.3045209 -0.8839103 0.23945317 -1.0402097
0002b0 2e 3a a1 bf e8 0f 2e bf f1 6b c3 bd c4 54 8d be
       -1.259588 -0.6799302 -0.095420726 -0.27603734
0002c0 41 fa 82 bc 53 a4 58 be 32 18 92 bf c7 cd 18 bf
       -0.015988471 -0.21156435 -1.1413634 -0.5968899
0002d0 dd a4 8b bd bf bb a1 3e 4b b9 a4 3e a0 28 7c 3e
       -0.068185546 0.3158855 0.32172617 0.24624872
0002e0 39 a3 0c 3f 62 72 3b 3e 18 6b 17 3f 0c 55 62 bf
       0.5493656 0.18305352 0.5914779 -0.8841102
0002f0 49 78 cd 3d c5 fd 6f 3b ee 16 84 3e 5d 6c 30 bd
       0.10032708 0.0036619764 0.25798744 -0.043072093
000300 ac d6 c7 be 98 6c 25 3e 6d fa 58 3b 25 3a a8 3e
       -0.3903097 0.16154706 0.003310825 0.3285686
000310 0c 8f dd bc b0 33 1b 3e 6c 1f 67 3e 6f 8b 1a 3f
       -0.02704575 0.15156436 0.2257058 0.6036901
000320 91 c8 c9 3c 6f f8 88 bd c8 96 f4 3e 00 8c db bd
       0.02463177 -0.0668801 0.47771287 -0.10720062
000330 77 4f e9 bd e7 56 7b 3f 43 8a 64 bf 7b a0 b6 bd
       -0.1139211 0.9817948 -0.8927347 -0.08917328
000340 73 fe 0e 3e 82 5b 43 be 38 12 86 3c b9 47 fd 3b
       0.13964252 -0.19077876 0.01636611 0.0077294973
000350 1e 15 e6 3c 17 8a 0b 3e 82 33 66 be 2b 77 b5 3d
       0.028086241 0.13626896 -0.22480586 0.0886062
000360 71 4e ad 3e 97 3c 21 bf f8 bf e6 bc 48 46 4a 3e
       0.3384891 -0.6298308 -0.02816771 0.19753373
000370 7a 3b 93 bd a0 7f 53 3d f6 9e 2b bf 8d c8 22 3f
       -0.07189079 0.051635385 -0.6703943 0.63587266
000380 27 50 bc bd 48 33 95 3e 64 1a 81 bf 55 d0 48 bf
       -0.09194975 0.29140687 -1.0086179 -0.7844289
000390 e9 f4 9d bd b3 3f 56 bd ef 83 f6 3e e7 45 15 bf
       -0.077127285 -0.052306842 0.48147532 -0.5830979
0003a0 fa f3 07 bf 36 72 bd be 90 43 c2 be 17 47 2d be
       -0.53106654 -0.370012 -0.3794217 -0.1692165
0003b0 7a f2 ad be 11 c8 dc 3d 53 55 02 be 7c cc 2d 3e
       -0.33974057 0.10780347 -0.12727861 0.16972536
0003c0 28 34 44 bf 1c 96 4b 3c 1a 10 2e bf fe 00 92 bd
       -0.76642084 0.012425926 -0.6799332 -0.071290955
0003d0 e6 22 3d bf 3f 46 7c be 6f 43 50 be e7 d9 36 3a
       -0.73881376 -0.24636172 -0.20338224 0.0006975219
0003e0 0d 43 e9 bd 63 63 89 3d 19 77 95 be 1e 14 7e be
       -0.11389742 0.0670841 -0.29192427 -0.24812362
0003f0 bf 76 52 bd c7 22 32 be bd 7b 16 3e f7 f1 9d 3d
       -0.051382776 -0.17396079 0.1469564 0.07712167

res_conv3.0.bias f4 [32]
000000 1d d3 20 3e 16 90 ac bd 78 e2 6f 3d 99 3a d2 bd
       0.15705533 -0.0842592 0.058565587 -0.10265083
000010 6c e3 86 bc 4b d1 d7 bd 7c 4a 01 bd 6a 6d 9e bd
       -0.016465865 -0.10537966 -0.031565174 -0.07735713
000020 d3 eb aa 3d 80 f3 37 bd e3 21 a1 3d f1 dc 60 bd
       0.08345761 -0.044909954 0.078677915 -0.054898206
000030 7e 7e c7 3d 7a 75 b5 3b e9 44 75 bd 65 83 4d bd
       0.09740923 0.005537686 -0.05988017 -0.050174136
000040 40 bb 10 3c bd c5 91 3d 89 12 84 bd ca 16 aa 3c
       0.008833706 0.07117794 -0.06448848 0.02076282
000050 8b 59 98 bc 19 bb 0a be 41 f9 62 3d 0d 25 e5 3d
       -0.018597385 -0.13547935 0.05541349 0.111887075
000060 b9 4d 5c 3d 20 45 33 3e ed 86 73 bd 6b dd 48 3d
       0.05378506 0.17506838 -0.059454847 0.049039286
000070 d3 81 09 3d 24 e2 a5 3a 78 90 d2 3d e5 a4 d7 bd
       0.033571076 0.0012655896 0.102814615 -0.10529498
