logs/real/PReNet1.pth (torch, 796888 bytes, 48 tensors)

conv0.0.weight f4 [32, 6, 3, 3]
000000 d7 ee 3e 3c 32 92 fe bb 3a 79 80 bd a0 d1 a4 bb
       0.011653624 -0.0077688927 -0.06273122 -0.005029872
000010 f7 2a 42 be e5 35 e7 bd bc 71 e5 3c 92 23 44 be
       -0.18961702 -0.112895764 0.028008334 -0.19154194
000020 90 18 2a 3c 7e d8 24 bd b6 cf 40 be 67 79 6f bd
       0.010381833 -0.040245526 -0.18829235 -0.058465388
000030 5d 32 62 bd 9a d5 10 be f7 e0 74 3d 0a d6 1d bd
       -0.05522381 -0.14143983 0.059784856 -0.0385342
000040 ba 01 49 bd d9 45 19 be 4d 4c 01 be 4f 61 69 be
       -0.049073912 -0.14968051 -0.12626763 -0.22791027
000050 80 0d ab bd 28 19 b7 3d 26 2d 8a be ad 3c 97 3d
       -0.08352184 0.08940345 -0.2698757 0.0738462
000060 95 fa 1f be e8 e4 40 be 7d 0b 30 3d 01 41 62 bb
       -0.15622933 -0.18837321 0.042979706 -0.0034523609
000070 d8 f9 3e 3d 7a 0a 0a 3e cc 7e 07 3e 12 f3 18 3e
       0.04662499 0.13480559 0.13231963 0.14936474
000080 c1 43 20 bd 27 ae e5 bc e8 59 ed 3d 2c 10 78 3d
       -0.039127115 -0.028037144 0.11589414 0.060562298
000090 36 c4 28 3e fd 32 06 3e b5 27 be 3c ae 37 51 bd
       0.16481099 0.13105388 0.023212293 -0.05107849
0000a0 c9 1f 2c 3d 56 5b 36 3e 28 94 e9 3d 17 97 9b bd
       0.0420225 0.1780828 0.11405212 -0.075971775
0000b0 0f bb fe 3d ef 9a e5 3d 61 4a f5 3c 6b 10 ae bc
       0.12438022 0.11211192 0.029942693 -0.021248063
0000c0 ee 88 c7 3d 67 55 35 3e aa 40 32 3e a6 5a 91 3c
       0.09742914 0.1770836 0.1740748 0.01774342
0000d0 f8 ff 1e 3e aa 08 8a 3d 70 fa 92 bd 42 e9 76 bd
       0.15527332 0.06739934 -0.071766734 -0.060281046
0000e0 5d 5b 73 bd ad eb a8 bd 2a 9e a3 bd 8b aa a7 3c
       -0.059413303 -0.082480766 -0.07989152 0.020467063
0000f0 51 bb 14 3d 25 46 e3 3c 5e ac 28 3d fa f0 22 bd
       0.03631145 0.027743408 0.041180007 -0.039780594
000100 ac b8 cf bd 19 a0 c9 bd 6a 88 1e 3d 35 e5 57 bd
       -0.10142645 -0.09844989 0.038704313 -0.052708823
000110 8a 81 68 3d e8 2a eb 3d a9 94 0d 3e 0b 78 18 bd
       0.056764163 0.11482793 0.1382624 -0.037223857
000120 c9 52 70 bd d9 f6 0e 3d cb 3c 61 3c 34 98 0f 3d
       -0.0586727 0.03490338 0.013747404 0.03505726
000130 38 77 94 bd 6c 20 0e 3c 9d 85 23 3d 7d 3e 06 3e
       -0.07249302 0.008674722 0.039922345 0.13109775
000140 2f 4b 0d bd 77 0a 40 be 7e 0d 83 be 43 fa 0f be
       -0.03449553 -0.18753992 -0.2559623 -0.14060311
000150 a0 5c 5b 3d e5 c8 78 3d b3 2c 2f 3d ff db 9c 3e
       0.05355513 0.060738463 0.042767238 0.30636594
000160 fa 52 5c 3e 8f 95 c3 3d fd 66 36 be df 2f 17 be
       0.21516028 0.095500104 -0.17812724 -0.14764355
000170 f7 ba 75 bd 85 d6 ad bb 35 f7 26 bc a5 f5 4b 3c
       -0.059992757 -0.0053051137 -0.010190775 0.012448703
000180 8c 3e 69 3e a3 a5 40 3e a0 4b 37 bc e6 93 27 3c
       0.22777766 0.18813185 -0.011187464 0.010228133
000190 5e 10 6b be b4 2a 94 3c 9c 6e b3 bd a3 67 13 3d
       -0.22955462 0.018086769 -0.087613314 0.035987508
0001a0 f5 6a 1a be ef 27 30 3e 4a 7b 79 3e e3 5c 09 be
       -0.15079863 0.17202733 0.24363437 -0.1341434
0001b0 1e fe cd 3d 62 07 c6 3d 83 75 1a be e7 e4 71 3d
       0.10058235 0.09669377 -0.1508389 0.05905619
0001c0 cd 58 a1 bd 7b b6 a1 3c 4d e0 cd 3d 43 f4 95 3d
       -0.078782655 0.019740334 0.100525476 0.0732198
0001d0 9e 16 46 bd 76 57 6b bd 7a de 7b 3d 12 fb 1d 3c
       -0.048361413 -0.057456456 0.061491467 0.009642379
0001e0 ca 3a e0 3d a5 d6 74 bd af a0 d3 3d 29 f0 6d bd
       0.10948713 -0.059775013 0.10333382 -0.058090363
0001f0 7f 61 24 3e 55 52 3a 3d 96 c3 0d be cb 80 e8 3c
       0.16052817 0.045488674 -0.13844141 0.028381726
000200 8c 37 30 3c 92 d2 11 bd 78 e2 d2 bd e8 79 1d 3c
       0.010755431 -0.035601206 -0.10297102 0.009611584
000210 73 2f 2f be e4 d5 8e bd 35 bc 15 bd 5a 61 c5 3d
       -0.17107944 -0.0697439 -0.03655644 0.09637709
000220 45 c5 90 3d 26 a3 80 bd be 1c 98 3e 5e be 38 3e
       0.07068876 -0.06281118 0.2970943 0.1804137
000230 3d ac fb bd 20 16 45 3e 1d 8d fd bc b0 0e b7 bd
       -0.12288711 0.19246721 -0.030951077 -0.08938348
000240 81 32 bc bd bc 06 75 bc 3c de 84 3d db 35 34 b9
       -0.0918932 -0.014955219 0.064877 -0.000171862
000250 49 5d 52 3e f5 67 e8 3d 68 5b c1 3a 23 d3 0f bd
       0.20543398 0.11347953 0.0014751973 -0.035113465
000260 84 13 1a be cf 28 84 be cd b3 29 be 9f d6 76 3d
       -0.15046507 -0.25812384 -0.16572495 0.060263272
000270 81 60 98 3c 7f 68 0f be f2 a7 77 bd 16 0e 10 be
       0.018600704 -0.14004706 -0.0604629 -0.14067873
000280 3f 66 30 bd 14 d8 13 3d e1 62 eb bc f0 da cd 3d
       -0.04306626 0.03609474 -0.028733673 0.10051525
000290 f4 e5 09 be f1 6e 3b 3c 23 5c 98 bb dd de 78 bd
       -0.13466626 0.011440025 -0.0046496554 -0.060759414
0002a0 62 ae be bd ff 6f f4 3d 89 d6 c9 bd 2d fd 5a be
       -0.09310605 0.11935424 -0.098553725 -0.21385641
0002b0 aa e8 55 3d b1 fa 93 3d a3 0a 05 be df bf ad 3d
       0.05222384 0.0722555 -0.12992339 0.08483862
0002c0 06 f6 7a 3d eb ee 1d bc 66 9f 12 3e 75 86 59 3d
       0.061269782 -0.009639482 0.14318618 0.053106744
0002d0 c1 6e a8 3d 81 dd 62 3d 54 04 4d 3d 6c bf 51 be
       0.0822425 0.055387024 0.050052956 -0.20483178
0002e0 19 df 90 3d 16 56 bf bd d3 93 06 bc 88 7d 3a 3e
       0.070738025 -0.093425915 -0.008213955 0.18211949
0002f0 e1 a2 17 ba c3 27 1f be f6 d6 09 3d 1a 1c aa 3d
       -0.0005784464 -0.15542512 0.03365227 0.08306141
000300 c7 78 d2 bd e9 3b 2a 3e 6f e3 20 3e 5d 54 a2 bd
       -0.10276943 0.16624416 0.15711759 -0.07926247
000310 b8 52 0f 3e d9 75 b0 bd 3b 1e 7c be d7 57 1a 3e
       0.13996398 -0.08616228 -0.24620907 0.1507257
000320 b7 bc 86 bc f0 0b 1f be 79 69 c3 3d e7 61 d3 3d
       -0.016447408 -0.15531898 0.09541602 0.10321408
000330 4c 4b 79 bd e5 8a 34 3e ca 05 16 be 07 e3 6b be
       -0.060862824 0.17631109 -0.14650646 -0.23035823
000340 86 d3 b5 3d c4 2a 0c 3d 00 ce 82 be bc 0c 23 3e
       0.088782355 0.034220472 -0.2554779 0.15922827
000350 63 d1 b8 3c 15 f6 24 be 29 42 15 3e e3 ab 20 3d
       0.02256078 -0.16109498 0.1457602 0.039226424
000360 e8 5a 64 3c 9c de 2f be 6b e4 2d 3d 6a a9 07 3e
       0.013937689 -0.17174762 0.042454164 0.1324822
000370 5a f5 bf bc 84 62 7b bd 2d 89 82 bb 05 d0 af 3d
       -0.023432422 -0.06137325 -0.003983638 0.085845985
000380 fe 30 99 3c 11 b1 10 bd 8c e1 c9 3d fd d1 5b bc
       0.01870012 -0.035325114 0.09857473 -0.013416764
000390 3e a2 0b bd a9 ed 44 3e c5 94 08 3d a7 40 43 3c
       -0.034090273 0.19231285 0.033345003 0.01191727
0003a0 02 ec 94 3d ad c0 c6 bd 98 01 49 bd 95 04 e8 bd
       0.072715774 -0.09704719 -0.049073786 -0.11328999
0003b0 29 72 6c 3d ba e4 df 3b 83 6a 84 bc 6c 27 08 3e
       0.05772606 0.0068326863 -0.01616407 0.13296288
0003c0 8c ff 5c bd 4c 1e f0 bd e5 01 ae bd 11 24 0b 3e
       -0.053954646 -0.11724529 -0.08496455 0.13587977
0003d0 43 b9 91 be 32 1e a3 bc 3a a4 80 3e 4f 45 14 bd
       -0.28461656 -0.01991186 0.25125295 -0.03619891
0003e0 3c 82 95 bb 76 e3 26 3c a6 ee 11 3e a0 a4 77 be
       -0.0045626443 0.010186067 0.14251193 -0.24183893
0003f0 f6 cf 13 3e 1e e0 8f be 09 b9 38 3e 4a b4 7c bc
       0.144348 -0.28100675 0.18039335 -0.015423844

conv0.0.bias f4 [32]
000000 d5 c8 0a 3e a2 fc 9a 3b 32 fc 86 bc 41 bb a1 3c
       0.13553174 0.004729823 -0.016477678 0.01974261
000010 fb 6a 01 3d 7f 9a 91 3d e1 58 96 39 53 b5 45 3d
       0.031596165 0.07109546 0.0002867645 0.048268627
000020 d2 1a 2a bd 69 19 18 3c ad 53 e4 3b f1 16 56 3d
       -0.041529484 0.009283402 0.0069679827 0.052267972
000030 9c 81 be be 17 65 42 3d 46 8d e6 3d 41 25 ad 3a
       -0.3720826 0.047459688 0.112574145 0.0013209955
000040 eb 17 ad 3b 80 f6 bf 3d 2f aa 9b 3d 62 05 b2 3c
       0.0052823923 0.09373188 0.07600819 0.021731082
000050 0b bc 5b 3c cb ab 63 3d f6 f1 0b 3d ce e7 9e 3b
       0.013411532 0.055583756 0.0341663 0.0048494106
000060 14 67 55 3a f1 dd 4a 3d 52 f1 de 3d e5 9e 8f bc
       0.0008140665 0.049528066 0.10885872 -0.017531822
000070 b5 00 44 3d 31 34 8b 3c de f7 38 3e 70 d9 42 3e
       0.047852237 0.01699266 0.18063304 0.19028258

res_conv1.0.weight f4 [32, 32, 3, 3]
000000 29 6e 40 be e7 b7 0a 3d cf 53 22 3e ee 4c 56 be
       -0.18792023 0.03386679 0.15852283 -0.20927784
000010 8f f6 e2 bd db b5 e3 3d 61 be e0 bd 74 75 cd bc
       -0.110821836 0.111186706 -0.10973812 -0.02508042
000020 22 49 3a 3e 9b ba 19 3c 99 ea e0 bd 67 68 b5 bc
       0.1819196 0.009382869 -0.10982246 -0.02214451
000030 18 18 94 3d 28 c2 30 bd bd ab 9f bb c9 c3 2d 3c
       0.07231158 -0.04315391 -0.0048727677 0.010605761
000040 18 df 60 bd 2c 48 f0 bc 5c 98 71 3d 10 03 ce 3d
       -0.05490026 -0.02933129 0.05898319 0.10059178
000050 0b 13 07 3d fd 33 9b bd bf 45 80 3d 3a f4 ee 3d
       0.032977145 -0.07578275 0.06263303 0.11667676
000060 ec b1 18 be 5e c9 b6 bd a4 90 66 3d 7a c0 3e 3b
       -0.14911622 -0.089251265 0.056290284 0.0029106424
000070 61 5f 57 3d 0c 85 b4 bc c9 55 a0 3d 98 d4 f9 bb
       0.052581195 -0.022036098 0.07828862 -0.00762422
000080 da 94 e3 bc 5d da 7e 3d 32 09 8a 3d 9c 08 92 bc
       -0.027780939 0.062219966 0.06740035 -0.01782637
000090 48 21 17 bd c8 b6 6c bd 50 8f 0c 3e f1 97 7c bc
       -0.036896974 -0.0577915 0.13726544 -0.015417085
0000a0 3e a3 ba bd ef bc c8 3c 82 37 fd bc 90 e2 9c bd
       -0.09113167 0.024504153 -0.030910257 -0.07660401
0000b0 6f 00 85 bd 0f 77 a1 3c cd 41 16 3e fb 5c d2 bc
       -0.06494223 0.019710092 0.14673539 -0.025679102
0000c0 f7 a2 58 bc 45 fd c5 3d ee ec aa 3d b2 04 d9 bd
       -0.013222448 0.09667448 0.08345972 -0.10596599
0000d0 3a 89 3f bc e8 36 61 3d cc d7 2e 3d 9a 2e 33 bc
       -0.011690432 0.054984003 0.04268627 -0.010936404
0000e0 74 1e 3d bd b8 53 66 3d 36 13 18 bd a2 3c db bd
       -0.04617162 0.056232184 -0.037127696 -0.10704924
0000f0 b6 d4 0a 3d da 91 bb 3d 8f 2f 87 bd 74 14 90 3d
       0.033894263 0.09158678 -0.06600868 0.07035151
000100 99 0a bc 3c 11 ca 1e be b7 70 f2 bc e5 c6 1b 3d
       0.022954272 -0.1550677 -0.029594762 0.038031477
000110 6a 94 e5 bd 4a a6 76 3c 41 e4 c1 ba 68 64 d1 3d
       -0.11209948 0.015054295 -0.0014792756 0.10224229
000120 a5 2b 7d 3d 50 e8 9f 3d 2e 50 57 3c 7d ec 35 3c
       0.0618092 0.07807982 0.013141675 0.0111037465
000130 c6 6f 7c 3d 73 00 68 bc d1 89 8d bc d7 62 03 be
       0.061630033 -0.014160263 -0.01727763 -0.12830673
000140 0d 6d b4 3d 04 7c 0a bd 75 aa a2 3d 30 46 80 bc
       0.08809862 -0.033809677 0.07942668 -0.015658468
000150 65 1a 8e bd d2 38 94 3d 7b bc 3d bd 55 8e 22 be
       -0.06938628 0.072374 -0.046322327 -0.15874608
000160 13 5c 9f bb 1b 44 c7 bc 63 bb 4a bd 0a 75 b0 3b
       -0.004863271 -0.024324467 -0.049495112 0.005385046
000170 97 1f 23 bd 5c fa 10 bd c3 7a 72 3c 9d 00 42 3d
       -0.03982505 -0.03539501 0.0147997765 0.047363866
000180 8b 94 b4 bc 9f 34 a4 bd d7 41 0b 3e 8d 62 4b 3b
       -0.022043487 -0.08017849 0.13599335 0.0031034083
000190 df 9f 57 bc fd 32 8e bd 9a cb 06 3d d6 16 72 3d
       -0.013160675 -0.06943319 0.032909013 0.05910381
0001a0 61 ee d2 bd ec 02 54 3d af c2 ef 3a ad dd 28 bd
       -0.102993734 0.0517606 0.0018292273 -0.04122703
0001b0 43 9b 06 3e a9 e6 c3 3d 95 79 3a be d0 2c 9e bc
       0.13145165 0.09565479 -0.18210442 -0.019308478
0001c0 75 81 95 3d 05 81 07 bd 61 39 b0 bc b0 f5 07 3e
       0.073000826 -0.033082027 -0.021511735 0.13277316
0001d0 ed 09 e8 3c fe 53 01 bd 11 8a 17 bd ed 79 05 3e
       0.028325045 -0.03157424 -0.036996905 0.13034792
0001e0 c6 49 85 3d 38 8c a7 bd 7a 0a 09 bc c6 8f a5 3d
       0.06508212 -0.081810415 -0.008364314 0.08084063
0001f0 6b 0c a0 3d 97 60 bc 3b c3 41 92 bb 94 e3 11 bc
       0.078148685 0.005748819 -0.004463406 -0.0089043565
000200 a6 40 f6 3d 18 a6 85 bd 19 27 42 be 56 e4 8c 3d
       0.120240495 -0.065258205 -0.18960227 0.06879489
000210 ca 15 91 bd 0e 93 5c be 2d b8 ef 3c 14 61 3b 3d
       -0.07084234 -0.21540472 0.029262627 0.045746878
000220 e7 f9 b2 bd 0c ea 12 be ec 56 ef 3d db 31 48 bd
       -0.08739071 -0.14347094 0.11686501 -0.04887567
000230 25 4b 95 bd 64 87 d1 3d 21 76 07 be 30 ed 21 be
       -0.07289723 0.10230902 -0.13228656 -0.15813136
000240 5d 6d 7f bb 6a f7 04 3e 2a fb 9d 3c 4d 51 69 bc
       -0.0038975098 0.12985006 0.019284803 -0.014240575
000250 90 d8 b2 3d 16 e9 97 3d 06 c7 48 3c ea a1 67 3b
       0.08732712 0.074175045 0.012254482 0.003534431
000260 95 93 18 3e 3e 4a 6d bc 93 c4 a3 bc bc dc 1c bd
       0.14900048 -0.014483033 -0.019991195 -0.038296446
000270 47 1b 69 3a 4d 06 d8 3c 08 10 c0 3c 8c a6 f1 bd
       0.0008892309 0.026370192 0.023445144 -0.117993444
000280 d2 80 99 3d 94 83 8e 3d ac dc 02 be 36 bb 0f 3e
       0.07495274 0.0695869 -0.12779492 0.14036259
000290 04 63 05 3e 28 e3 54 be 84 13 7d bd 4c f7 dc 3d
       0.13026053 -0.20789778 -0.06178619 0.10789356
0002a0 0c 4b 43 be 37 77 08 be 14 a0 15 3e a7 5b 11 bc
       -0.19071597 -0.13326727 0.14611846 -0.008871949
0002b0 c1 a2 04 3d b6 c9 c7 3e e0 01 e2 bd bb d1 c1 bc
       0.032381777 0.3902108 -0.11035514 -0.023659578
0002c0 0a 8e 45 3e 83 a0 9d bc 55 6c 4a be 6c 1e fd bd
       0.19292465 -0.019241577 -0.19767888 -0.12359318
0002d0 e5 b6 0e be 07 6a e0 bd 27 5d bf 3d db 23 84 3d
       -0.13936956 -0.10957723 0.09343939 0.064521514
0002e0 79 e9 12 be 29 b9 f6 ba fc 66 20 3e 5e ca c7 bd
       -0.14346875 -0.0018823493 0.15664285 -0.09755395
0002f0 bd ce 25 be a9 41 bd 3c 74 e7 9d 3c 4b ea 4f be
       -0.16192146 0.023102598 0.019275405 -0.2030422
000300 90 a9 15 3d 09 cb a2 3d d2 74 94 bd 6e 86 8f 3c
       0.03653866 0.07948882 -0.07248844 0.017520156
000310 fd af 18 3d 9b 78 62 bd 7c 73 c5 3d c7 df 30 3d
       0.03727721 -0.0552908 0.096411675 0.04318216
000320 f8 7e f9 bd 19 1d 6c bc ec e1 1b 3d 07 32 44 bc
       -0.121824205 -0.014411234 0.038057253 -0.011974818
000330 5c cc 1f be 04 1e b4 3c 95 a2 de 3d 20 cf 2d 3d
       -0.156053 0.021986969 0.10870854 0.042433858
000340 a3 8f 49 bc c9 0a 12 be 0f 6d 05 bc 08 27 d1 3d
       -0.012302312 -0.14261927 -0.008143677 0.10212523
000350 e5 b4 c0 bd fe e8 d4 bd 7a 14 d4 3d 82 54 29 3e
       -0.09409503 -0.10396002 0.10355468 0.16536143
000360 b2 96 c8 3c 73 ec 05 3d 56 bb 45 bd 17 77 20 bd
       0.02448592 0.0326962 -0.04827436 -0.039176073
000370 44 20 31 bd 90 e1 e9 3d 22 f2 2d be 14 9a 5f 3b
       -0.04324366 0.11419976 -0.16986898 0.0034118937
000380 e6 d2 2b 3e 28 94 06 bd b8 42 9d 3d 2d 0c c6 bd
       0.1677967 -0.032856137 0.07678741 -0.09670291
000390 7e f9 51 bd 07 75 a6 3d 78 ea 42 3d 75 d5 30 be
       -0.051263325 0.0812779 0.047586888 -0.17268927
0003a0 d2 06 fc 3d b6 1b 80 3c 01 df aa 3c 20 e0 da bc
       0.12305988 0.015638214 0.02085829 -0.0267182
0003b0 22 95 51 bd e4 9e d5 3c a6 ef bf bc d6 a4 94 bd
       -0.051167615 0.026076742 -0.023429703 -0.072580025
0003c0 51 a9 a7 bc 68 56 b8 bd 80 b9 40 bc 9f ee b6 bd
       -0.020466479 -0.09000856 -0.011762977 -0.08932232
0003d0 cf 66 f5 bc 87 6c 18 3d 51 42 b1 bd 34 62 06 3d
       -0.02995625 0.037212875 -0.08655227 0.032808498
0003e0 82 2e a5 3c 0b 7d a4 bd bf 0f dd bc 71 6d d4 3d
       0.020163778 -0.080316626 -0.026985047 0.10372437
0003f0 a9 83 97 bd 1d 8d 19 be 16 21 09 3d 78 a5 09 bd
       -0.07398159 -0.14995237 0.03347882 -0.03360507

res_conv1.0.bias f4 [32]
000000 4b 8e 82 3a 1d a1 04 be 20 cc e5 bd 21 87 9d bc
       0.000996062 -0.12952085 -0.112205744 -0.019229474
000010 e0 85 62 3a 36 c3 b9 bc 89 ba 85 bd 3e 90 bf 3b
       0.0008641165 -0.022676092 -0.065297194 0.0058460524
000020 b6 1c 3f bc 5b d5 1c bd ff 4f 0b bc 77 e2 b2 3c
       -0.01166456 -0.03828941 -0.008502959 0.021836502
000030 d8 2c 2e bd 9a 1a fd ba 73 13 25 bd b2 3c 92 3c
       -0.042523235 -0.0019310296 -0.04030175 0.017851207
000040 91 a8 b3 bc 49 c5 dd 3c cb cd 04 be 12 65 f3 bc
       -0.021930965 0.027071612 -0.12969129 -0.02971128
000050 1f 56 68 3c 46 02 eb ba 5c 43 ec 3b f4 04 9a 3b
       0.014180689 -0.0017929755 0.0072101783 0.0047002975
000060 8f 4c b1 3c 11 9e 8c 3c 13 a5 86 bc ee bc b9 bd
       0.021642951 0.017165216 -0.016436135 -0.090692386
000070 45 f7 f1 bc 1c 97 8b bd c5 8a 3b be 59 23 11 3c
       -0.029536853 -0.06815931 -0.18314655 0.008858525

res_conv1.2.weight f4 [32, 32, 3, 3]
000000 97 47 26 bd 04 2c b5 3c cd 28 69 bc d3 8a 1f bd
       -0.040595617 0.022115715 -0.014230919 -0.038950752
000010 fc b1 64 3d 95 0b 84 3d 8d cb 15 3d 49 1c 2b 3d
       0.0558338 0.064475216 0.036571074 0.04177502
000020 bb a4 d1 3d ac 40 47 bc 0c 1b ff 3c f8 33 2b bd
       0.10236498 -0.012161415 0.031140827 -0.041797608
000030 0d 21 20 3d 69 54 5d 3d 63 68 a8 bd 0b 26 43 bd
       0.03909402 0.054035578 -0.08223035 -0.047643702
000040 93 02 7b 3d c6 3b 10 3d bc 40 dc bd f2 f2 7f 3d
       0.06128175 0.035213254 -0.107545346 0.06248755
000050 1c bf 71 3d 00 64 1d ba 2a a2 1c bd e2 c0 c5 3c
       0.059020147 -0.0006003976 -0.03824059 0.024139825
000060 b6 d5 91 bd 71 1d 94 3d 3c df 77 bd 72 c7 3c bc
       -0.0712084 0.07232178 -0.060515627 -0.011522161
000070 28 55 ab bd e5 c5 45 bc 38 fa f3 bd 07 4f 1b bd
       -0.08365852 -0.0120711075 -0.1191296 -0.037917163
000080 9d f2 fc 3c 0d 8b e9 bd b1 14 06 bd 0b 68 60 3d
       0.030877406 -0.11403475 -0.032734577 0.054786723
000090 65 07 2e be c4 cf 35 be e7 bd 14 3d a7 92 99 bd
       -0.16995008 -0.17755038 0.036313917 -0.07498675
0000a0 e3 c5 41 bd c8 4c 84 3d ad ee b0 3d d6 01 bb bb
       -0.04730786 0.06459957 0.08639274 -0.005707006
0000b0 a4 57 b4 bb 66 e7 a3 bd 74 ac 1d 3d 03 e0 be bc
       -0.0055036116 -0.0800312 0.038494542 -0.023300176
0000c0 f4 29 39 3c 6e 98 9a bd b7 66 9c bd c8 57 cb bd
       0.011301506 -0.07548605 -0.07636779 -0.09928852
0000d0 57 00 77 3b e9 98 9e bd a0 0d 5f bd ba 24 49 bd
       0.0037689412 -0.07744009 -0.054456353 -0.04910729
0000e0 28 8f aa 3d b7 bf 3e bd 22 f7 29 3c 67 5c 31 bd
       0.08328086 -0.046569552 0.010373862 -0.043301012
0000f0 9e 47 77 bc 45 8d a3 bb e2 96 1d bd ef a6 90 bd
       -0.015092758 -0.004991206 -0.03847397 -0.0706309
000100 e7 b1 10 be 3f 7b 27 bd 2e c8 71 3d 7b 84 02 be
       -0.14130364 -0.04088902 0.059028797 -0.1274585
000110 f8 2a 08 bd 4f 6a 53 bc 3b cd 61 3b 76 29 0f 3e
       -0.033244103 -0.012903764 0.0034454602 0.1398066
000120 36 fa 23 bd d8 8a fd 3c cb 1c 06 bc a1 16 2a 3c
       -0.04003354 0.030949995 -0.008185576 0.010381372
000130 4d 58 b8 3d ce 08 75 bd b7 e3 26 3d b0 3d d1 3d
       0.09001217 -0.05982285 0.04074451 0.10216844
000140 52 44 dc ba bb 59 6c 3b ac 06 05 3e 5c 55 4c bd
       -0.0016805029 0.0036064226 0.12990826 -0.049886093
000150 5a f5 92 3d 0b 95 7f bc 54 3f d5 3c aa d7 bf 3c
       0.07175703 -0.015599499 0.026031174 0.023418266
000160 64 71 fd 3c 54 70 da 3d 09 54 ba 3d bb 64 ca bd
       0.030937858 0.10665956 0.0909806 -0.09882494
000170 43 69 36 bd 31 2e 48 bb f4 3e 91 bd 15 d3 69 bd
       -0.04453398 -0.003054511 -0.070920855 -0.05708607
000180 5c 7b e4 bd 9e 8f 23 be 09 c4 55 bd b0 36 9c bc
       -0.111563414 -0.15972754 -0.052188907 -0.019069046
000190 f4 a2 ac bd 6f 5c 4c 3d 60 d8 23 3a 0e 6d 08 bd
       -0.08429518 0.04989284 0.0006250199 -0.033307128
0001a0 55 89 9c bc 08 f8 50 3d 2d 94 62 3c f7 67 e2 bc
       -0.019108454 0.05101779 0.013829273 -0.027637465
0001b0 12 5c d4 3c 7b 0d df 3c 7c d0 08 be d7 6b 22 bc
       0.025922809 0.027228108 -0.1336078 -0.009913406
0001c0 9f 4d 86 3d d6 f1 9f bd 8a 54 ab 3c 77 36 b6 ba
       0.06557774 -0.078097984 0.020914335 -0.001390173
0001d0 d2 e9 c4 bc 67 7e 83 bd 28 09 22 bd 4c ca 66 3d
       -0.024037275 -0.06420594 -0.039559513 0.05634527
0001e0 01 4e 9d bd 1b 55 db 3c f8 ee 00 3c 76 78 4e ba
       -0.07680894 0.02677398 0.007869475 -0.00078762264
0001f0 b6 52 e4 3d ec 3b f3 3d 52 64 15 3b 3f 4d 0f be
       0.11148588 0.118766636 0.0022795391 -0.13994311
000200 9c 3e 09 bd 7f 7d 82 3c 58 61 02 be eb 71 01 be
       -0.033506975 0.015928982 -0.12732446 -0.12641113
000210 37 36 ad 3d cf 92 00 be 1f 9c 13 be 9e 4c 38 bc
       0.08457606 -0.12556003 -0.14415024 -0.011248736
000220 41 c7 a3 3d 69 cc 2a 3a 16 45 46 3d 8b 25 c5 3c
       0.07996989 0.0006515445 0.04840573 0.024065753
000230 32 04 ac bd 45 42 83 3c 9d 72 fb bd 42 cb a7 bd
       -0.08399238 0.01602281 -0.1227772 -0.08193065
000240 48 3c 0c 3e fa 0b 84 3d d7 e2 b1 3d ad 52 87 3d
       0.1369487 0.06447597 0.086858444 0.06607566
000250 be 93 f8 3c cf e8 14 bd 96 0a 59 bc 06 c0 ef 3d
       0.030343886 -0.036354836 -0.013247153 0.117065474
000260 15 e9 b0 3d 1a 29 24 be aa 4b 0e be c8 a5 a2 bd
       0.08638207 -0.16031304 -0.13896051 -0.079417765
000270 03 df b1 bc 9e d3 2c bc ec 44 83 3d 96 42 90 ba
       -0.021712786 -0.0105485 0.0640963 -0.0011006172
000280 83 d9 b9 bd 22 cf f1 bc 3d 67 2d 3d a7 1a 2f bd
       -0.0907469 -0.029517714 0.042334784 -0.042750027
000290 c5 66 93 3d 12 af 50 bc 06 e5 03 bd 42 08 27 3c
       0.07197336 -0.0127370525 -0.032200836 0.01019484
0002a0 e0 9f e1 39 90 b4 61 3d 7a 7e d8 bb e0 16 89 bd
       0.0004303446 0.05510384 -0.006606874 -0.06693816
0002b0 78 08 68 3d 01 d3 d5 3d 83 c3 07 3d 19 6a 78 3c
       0.0566487 0.104406364 0.03314544 0.015162014
0002c0 6d 74 52 3d cb 42 d6 3c de ee 30 bd db bb 82 bd
       0.051380564 0.026154896 -0.04319655 -0.06383487
0002d0 0e 38 9c bd 1c 6b b6 3d 8c d2 f8 3d b8 6e fb 3c
       -0.07627879 0.08907148 0.12149534 0.030692443
0002e0 82 6f df 3d d8 4e 94 3d d0 7e 92 bb 84 74 01 3d
       0.1090994 0.07241601 -0.0044706836 0.03160526
0002f0 bf 1d 26 bd d7 40 cd 3d 84 67 18 3d 0b 2a d1 bd
       -0.04055571 0.10022133 0.037208095 -0.10213097
000300 5f 12 3f bc b5 43 e2 3c 44 e0 0e bd 9c ab 4c 3d
       -0.011662095 0.027620176 -0.034881845 0.049968347
000310 38 22 45 3c 7c dc 7a 3d 4c 1a af bd f8 c4 3a 3d
       0.012032084 0.061245427 -0.085499376 0.045598
000320 8a 86 ca 3d da f6 c4 bc 61 96 2a bd 27 c7 c9 3d
       0.098889425 -0.02404349 -0.04164732 0.098524384
000330 02 62 dc bc ae 5c 43 bb 6e d0 b9 bc 85 f3 c5 3d
       -0.026902203 -0.002980988 -0.022682395 0.09665588
000340 fd 31 7d 3d 53 f6 04 3d 94 b8 2f 3c 01 44 d2 bb
       0.06181525 0.032461476 0.010725159 -0.006416798
000350 76 3b f0 3b 19 c7 c2 3d 8b 80 9c 3a 5a 94 bf bd
       0.007331307 0.09510631 0.0011940164 -0.09354468
000360 cb 5b 07 3d 00 2b 1c bc 26 4d 2b 3d e6 67 1e bb
       0.033046525 -0.009531736 0.04182162 -0.0024170815
000370 58 64 4f 3d 52 b6 2c 3c 37 b3 a0 3c 95 39 b4 bb
       0.050632805 0.010541515 0.019616706 -0.0055000284
000380 83 51 10 3d 81 8f 9f 3c 67 f9 93 bc 15 65 0d bd
       0.035233986 0.019477608 -0.01806326 -0.034520227
000390 69 46 18 3d 63 d8 a7 3d 91 01 01 bd f3 fd df 3b
       0.037176523 0.08195569 -0.031495634 0.006835693
0003a0 e1 ea b4 3d a9 77 51 bb f3 d4 23 3d ce c2 83 3d
       0.08833862 -0.0031962192 0.039998006 0.064336404
0003b0 24 07 23 3d e7 46 59 3d c6 05 19 3b 5c dc 23 3c
       0.03980173 0.053046133 0.0023349389 0.010001268
0003c0 b3 78 30 3d 05 4b 2e 3d ec 96 42 bd e1 b6 c6 3c
       0.043083858 0.042552013 -0.04750721 0.024257125
0003d0 67 58 bb 3d f0 3a 86 3d 32 36 72 3e d7 7e 8e 3d
       0.09147721 0.0655421 0.23653486 0.069577865
0003e0 24 4f 4e bb 24 37 61 3e c3 3b f3 bc 39 45 c8 3d
       -0.0031480277 0.2199369 -0.029691583 0.09778828
0003f0 2f 18 c3 bc fe 60 f5 bb 7c 3d 1a bd e3 d0 9b bc
       -0.023815243 -0.007488369 -0.037656292 -0.019020503

res_conv1.2.bias f4 [32]
000000 70 a8 d0 3b f1 64 22 bd fb 74 52 3a 37 e3 96 3c
       0.0063677356 -0.039647046 0.00080282957 0.018418891
000010 36 53 36 3c 12 17 9b bd 7d e9 1b 3d 6e fb 22 3c
       0.0111282375 -0.0757276 0.03806447 0.009947641
000020 04 1c d4 3c 97 c5 40 bd 89 58 2a 3d 5e 08 9d bc
       0.025892265 -0.047063436 0.04158834 -0.019169029
000030 c6 e4 be bd 58 6b c3 b9 70 28 cf 3c 98 eb 55 3d
       -0.09320979 -0.00037273276 0.025287837 0.052226633
000040 01 bb 13 3c 48 ac ba bd 56 97 a9 bd e5 c8 ca 3b
       0.009016753 -0.09114891 -0.08280818 0.0061884993
000050 f2 a3 4e 3c f6 7f 95 bd d9 55 c7 bb 5c e9 0a 3c
       0.01261233 -0.07299797 -0.006083232 0.008478489
000060 1b b7 c7 bb 5b bf 90 bd 6a b2 53 3c 2a 21 79 bd
       -0.006094826 -0.07067748 0.012920955 -0.060822643
000070 6f 94 94 3a eb d4 fb 3b 44 a5 95 bd 48 fd ea bc
       0.001133574 0.007685294 -0.073069125 -0.028685227

res_conv2.0.weight f4 [32, 32, 3, 3]
000000 6f 53 35 bd af 00 28 3d e0 11 19 3c 9d aa b3 bd
       -0.04426902 0.041016277 0.009342641 -0.08772776
000010 8d 09 4f 3c e9 6f 23 bd dd 33 10 be f3 6e e6 bd
       0.012636554 -0.039901648 -0.14082284 -0.11251631
000020 01 c7 88 bc 5b 26 a4 bd 3c c0 03 bf 25 25 fa bd
       -0.016696455 -0.08015128 -0.514652 -0.12214116
000030 e2 8f 29 3d a0 92 c6 bd ca 66 4d bd 35 a7 34 bb
       0.041396983 -0.09695935 -0.050146855 -0.0027565483
000040 e7 50 48 3e 9f 28 17 bd 24 ab 1f 3d b7 23 f7 3d
       0.19562112 -0.036903974 0.03898157 0.12067359
000050 69 66 12 3e b1 dc 80 bd 45 c4 cb bb 56 2b d3 3c
       0.14296879 -0.062920935 -0.0062184655 0.0257775
000060 dd 42 07 be 4f d1 ec bc ba a3 af bb c5 b3 ae bd
       -0.132091 -0.0289084 -0.005360094 -0.08530382
000070 91 a0 1a 3d 11 40 13 3e a9 c9 b5 bd 0c d2 4b bc
       0.037750784 0.14379908 -0.08876354 -0.012440216
000080 0c 5b 03 bc 5f 9e 16 39 11 74 bc bd 29 e3 56 bc
       -0.008017313 0.00014364113 -0.092018254 -0.013115683
000090 39 84 d7 bd db 9b 12 ba a2 a5 97 3b 61 11 d7 bd
       -0.10523266 -0.0005592682 0.0046278993 -0.10501362
0000a0 84 04 24 bd d1 90 0a bd e8 88 23 3d 9f 5c 0a bd
       -0.04004337 -0.033829514 0.039925486 -0.033779737
0000b0 c2 fb 01 bd 77 74 46 3e 82 88 89 3e 39 6a b7 39
       -0.031734236 0.19380365 0.2686196 0.00034983622
0000c0 15 6a 67 bd 79 79 68 3d 58 53 2c bc 89 73 ea bd
       -0.056497652 0.05675647 -0.010517918 -0.11447818
0000d0 4c 79 f9 bd 0b bf eb bd 91 3a 6f bd 2f c4 09 be
       -0.12181339 -0.11511048 -0.058405463 -0.13453744
0000e0 8b 8f 4a 3d 14 4d 0e bc 00 bd 7e 3d 1e b3 81 3b
       0.0494533 -0.008685369 0.062191963 0.00395812
0000f0 33 a8 1d 3d 25 9d 1e bd f6 f1 d5 bd ce f7 45 3b
       0.038490485 -0.038724083 -0.10446541 0.0030207518
000100 ce c3 fd 3c 09 12 74 3c 5f 6b fb bd 7d 52 a2 3c
       0.030977156 0.014896878 -0.12276339 0.019814724
000110 b3 74 af 3c a4 e4 8d 3d 12 d5 f7 3c 7d 33 4f bb
       0.021417951 0.06928375 0.030252967 -0.0031616383
000120 1c bb de 3d 35 46 ee 3d 1f c4 12 3e 3a a4 be 3d
       0.10875532 0.11634485 0.14332627 0.093086675
000130 eb 68 04 3e e0 ee 51 3d 1f bf 3d 3d b8 e1 8b 3e
       0.12930648 0.0512532 0.046324845 0.27320647
000140 db 6d 01 3e cd 63 04 3e fc c7 2a 3e 89 8b d8 bc
       0.12639563 0.12928696 0.1667785 -0.026433723
000150 89 48 c5 3d 0a 3f 9b 3d c9 39 19 be df 21 8f 3d
       0.096329756 0.07580383 -0.1496345 0.06988882
000160 b3 df 8c bd c1 47 22 bd ce 70 c3 3d c8 56 00 3e
       -0.06878605 -0.03961921 0.09543 0.12533104
000170 11 94 bc 3c 24 27 a3 bd e9 c7 98 3d 04 45 d8 3b
       0.023019822 -0.0796645 0.07460005 0.006600024
000180 7e 2d 35 be ef 0e 45 be f9 70 56 bd 38 3a 03 bb
       -0.17693135 -0.19243978 -0.052353833 -0.0020023715
000190 2e 51 08 be a2 f8 15 be 10 23 cf bb fd 96 62 bc
       -0.13312218 -0.14645627 -0.0063213184 -0.013829944
0001a0 7e d1 11 bc 35 23 11 3e fd f2 a8 bd 2a b3 98 bc
       -0.0089000445 0.14173587 -0.08249471 -0.01864012
0001b0 72 a3 76 3d 17 57 c8 3d a3 c4 86 3d 0e 1b a3 3d
       0.060214467 0.09782236 0.06580474 0.07964145
0001c0 05 46 87 3d 32 5c f7 bb e0 a6 0b 3e a5 a1 90 3d
       0.06605152 -0.0075488323 0.13637877 0.07062081
0001d0 52 06 d9 bd 18 3a ba bc f1 2a 88 3d 4a d3 b2 3d
       -0.10596909 -0.02273278 0.066488154 0.087317064
0001e0 dc ad bb 3c 7b a7 2e bd 8a 75 89 3d 65 31 91 3d
       0.022910051 -0.04264019 0.06711872 0.070894994
0001f0 0d 08 52 3d 2d 24 b4 3d a0 c5 76 3d 16 28 4e 3e
       0.05127721 0.087959625 0.060247064 0.20132479
000200 fd 14 39 3e d3 5f 91 bd 16 fd 7e 3d 0d 09 88 3d
       0.18074413 -0.07098355 0.06225308 0.06642351
000210 c1 19 06 be aa 7f 6e be 5f 90 34 be 61 5d b1 3d
       -0.13095762 -0.23290887 -0.17633198 0.08660389
000220 fa d4 8d 3d a7 4b 2e 3d 03 28 f9 3c 76 b3 15 3d
       0.06925388 0.042552616 0.030414587 0.0365481
000230 53 c2 cd 3c 90 e7 94 3d 4a f0 f6 3c 71 23 78 bd
       0.025117075 0.072707295 0.030143876 -0.060580675
000240 dc 34 eb 3d b9 f2 83 bc df b7 3a 3e a0 fb 12 be
       0.114846915 -0.01610695 0.18234204 -0.143538
000250 42 62 08 ba cd 86 1e bc 50 c3 9f bd 06 ef 62 be
       -0.000520263 -0.009675694 -0.07800925 -0.22161493
000260 60 5c 4b be a9 7e ad bd 9f 35 44 3d 70 5e 31 be
       -0.19859457 -0.08471424 0.0479027 -0.17321181
000270 e6 0b 4e 3d 21 47 56 3d cb 26 e7 bd 62 15 14 3d
       0.050304316 0.052313928 -0.11286696 0.036153205
000280 53 c1 ae 3d c4 6b 95 bd 52 72 d6 bd dd ca af bc
       0.085329674 -0.07295945 -0.104710236 -0.021459037
000290 20 ee f1 bd 48 81 9d be 4c 70 83 bd ef 22 01 be
       -0.11812997 -0.30762696 -0.06417903 -0.12610982
0002a0 63 96 c5 be cf 34 75 be cc d4 98 bd ec 7a 0d be
       -0.38591298 -0.23945926 -0.07462463 -0.13816422
0002b0 32 12 14 3d 17 44 dd 3d 4a cc b8 bd 7a 63 e2 3b
       0.036150165 0.10804003 -0.0902334 0.006908831
0002c0 d5 a8 b8 3c b6 e1 cc 3c 0c c4 3f be 5b 27 82 bd
       0.022541443 0.025009971 -0.1872713 -0.06355163
0002d0 d1 a5 11 bd 32 f9 b5 bd 8b cb e4 3d dd 57 76 bd
       -0.035558525 -0.08885421 0.11171635 -0.060142387
0002e0 3c a3 c1 3b 79 a3 ff bc 26 82 f8 bd 37 8e d2 bd
       0.0059093516 -0.03120588 -0.12134199 -0.102810316
0002f0 ad 2d 26 3d 99 e9 b5 3d 51 a0 bc 3d 3f 35 28 bd
       0.040570904 0.08882446 0.092102654 -0.041066404
000300 2d 1a 55 3d 24 7f c5 3c 14 cc b3 bd 9c ba 98 3b
       0.052026916 0.024108477 -0.08779159 0.0046609174
000310 25 11 c7 bc 55 68 90 bd 2c ba 87 3e b2 e7 02 3e
       -0.024300167 -0.0705115 0.26509225 0.12783697
000320 83 c4 aa 3d 55 63 df 3c cf 7d 81 3d 42 27 e5 3c
       0.08338263 0.027269045 0.06322824 0.027972821
000330 12 5e 92 bd 69 84 cb 3d fd 70 35 3d b5 f2 72 3e
       -0.07146849 0.099373646 0.044297207 0.23725398
000340 d6 e7 ea 3d 26 ce 14 bd 0c 98 d5 3d 60 31 5e 3d
       0.114700004 -0.03632941 0.10429391 0.054246306
000350 f2 0d 10 3d 41 de f8 bc 58 e7 ce bd 6b 97 8d be
       0.03516955 -0.030379416 -0.10102719 -0.27654585
000360 9f 77 e3 3c 3e 38 b7 3d 5f 0a c8 3d 54 e4 82 3d
       0.027767 0.08946274 0.09767603 0.063912064
000370 1d ef 88 bc a6 cc 64 3c ef 57 42 bc a1 bc 63 be
       -0.01671558 0.013964808 -0.011861785 -0.22239925
000380 da 42 82 be 20 ae 22 3c 84 c9 a4 3d 8e a6 25 3e
       -0.2544163 0.00992921 0.080462486 0.16176817
000390 95 e3 7a bd 95 8c 08 be 07 85 5b bd e6 a1 f3 bd
       -0.061252195 -0.13334878 -0.05359366 -0.11896114
0003a0 e4 a8 11 be 25 a6 d6 bd 60 47 fa 3d ba 7b fb 3c
       -0.14224583 -0.10480908 0.12220645 0.030698646
0003b0 6b fb 28 3c 8d 01 e8 bb 83 2e 9f 3c 96 61 17 bc
       0.010313849 -0.007080263 0.019431358 -0.009239575
0003c0 ed 0e c4 bc f3 24 ad bd 8c b3 a0 3c ac b0 3b 3e
       -0.023932898 -0.08454313 0.019616865 0.18329114
0003d0 0d e6 94 bd e9 5a 8d bd 81 2b 43 bd 49 c6 19 be
       -0.07270441 -0.06902105 -0.04764891 -0.15017046
0003e0 58 0e fc bd 50 52 e9 bd 17 30 08 be 06 64 29 bd
       -0.12307423 -0.11392653 -0.13299595 -0.041355155
0003f0 35 57 a5 bc d5 6f 89 bd a8 90 95 bd 61 f1 b2 3c
       -0.020183185 -0.067107834 -0.073029816 0.021843614

res_conv2.0.bias f4 [32]
000000 3e 93 d9 bb dd 02 62 3c 87 fb f5 3b f0 36 ee 39
       -0.006639867 0.013794628 0.007506791 0.0004543583
000010 cb 64 f9 bc 9a b9 c3 3b 4e 94 aa bb 41 fc dc 3c
       -0.03044357 0.005973053 -0.0052056676 0.026975753
000020 49 57 9e bd 21 ca 82 3c be 91 84 bd b7 bc 87 bd
       -0.07731492 0.015965523 -0.064731106 -0.066277914
000030 7a b6 a2 bb 9c af c0 bc e8 64 c9 bb c0 4b 89 bd
       -0.0049656006 -0.023521237 -0.006146062 -0.06703901
000040 18 01 61 3c c4 39 e4 3c 5e b0 32 bc 75 99 fb 39
       0.013733171 0.027859576 -0.010906307 0.00047988785
000050 fb 66 11 3a c5 0c f6 3b 5e c8 64 3c 54 69 92 bd
       0.00055466563 0.0075088465 0.013963787 -0.07148996
000060 4f 18 32 3d 55 dc 8b bd ee db a5 bc 1b c0 ab bd
       0.043480214 -0.068291344 -0.020246472 -0.083862506
000070 11 5e a3 bd f9 69 54 bd 1b 96 9d 3c 8d 70 34 bc
       -0.07976926 -0.051858876 0.019236615 -0.011013162

res_conv2.2.weight f4 [32, 32, 3, 3]
000000 b9 7c cb 3d 9d 39 04 3b 77 f5 32 bd a7 0a 4c 3d
       0.09935898 0.0020175942 -0.043691125 0.049814846
000010 bb ce 89 bd 68 cc a3 bc 38 3f 4a bd 26 34 1a be
       -0.06728884 -0.01999493 -0.049376696 -0.15058956
000020 45 45 7c 3d 0b 73 a8 bb 56 fe 79 3d 70 2e ae bb
       0.061589498 -0.0051406673 0.06103357 -0.0053155944
000030 18 47 d0 3c 77 b6 07 bd 7b 94 dd 3b a8 ba b8 3d
       0.025424525 -0.033132996 0.006762085 0.09019977
000040 bf af 04 bd 7e 46 ab bb fd 38 92 be 5b 12 87 3d
       -0.032394167 -0.005226909 -0.28559104 0.06595298
000050 91 a0 b5 bd f7 a9 75 3d dd d8 3b bd 23 9e ac 3b
       -0.08868516 0.059976544 -0.045861114 0.005267875
000060 25 97 20 bd bf 8e 83 bc a3 1e 91 bd dd 16 c1 bd
       -0.039206643 -0.016059278 -0.070859216 -0.09428189
000070 b1 fb 8d bd 23 c7 d2 3c c8 af d3 bb 72 b1 09 be
       -0.06932772 0.025729721 -0.0064601637 -0.13446596
000080 aa e5 1c bc 21 cf 8b bd 34 c2 7c bd 49 37 a6 bc
       -0.009576241 -0.06826616 -0.061708644 -0.020290034
000090 2e 69 02 3d 50 3c d0 bd bb 33 8a be e1 b8 a5 bd
       0.03183859 -0.10167754 -0.26992592 -0.080919035
0000a0 ba 55 05 be 21 54 14 be a8 ca 94 be 98 da c6 3c
       -0.13020983 -0.14485218 -0.29060864 0.024274155
0000b0 2a af 97 bd 4e 86 0c be 97 1b bd bd d9 9d 9e bd
       -0.07406457 -0.13723108 -0.09233778 -0.07744951
0000c0 24 21 cc bc d6 66 4b bc cf d5 28 bd 3b a1 36 bd
       -0.024918146 -0.012414655 -0.04121953 -0.044587355
0000d0 64 13 20 bd 23 40 f7 bd 54 24 ae bd c6 a0 b7 bc
       -0.039080992 -0.1207278 -0.08503023 -0.02241553
0000e0 20 9a b0 bd bf 1b cc 3c 3a 8e 05 3d 6f a5 76 bd
       -0.08623147 0.024915574 0.03260634 -0.060216364
0000f0 b7 94 71 3d 52 f3 ba 3d e4 e9 eb bb 76 6b f1 3d
       0.058979716 0.09128441 -0.007199513 0.11788075
000100 26 ce ef bd 19 c3 4d 3c 99 d7 00 3d 27 f6 b1 3d
       -0.117092416 0.012558722 0.03145561 0.08689528
000110 19 08 9c bc 88 da 1d bd 10 b3 e6 bc df 29 40 be
       -0.01904683 -0.038538486 -0.028161556 -0.18765973
000120 97 5d 1f bd 36 b2 36 3b 74 17 3a bd e6 bf 8b bc
       -0.038907614 0.0027877218 -0.045432523 -0.017059278
000130 03 0c af 3c d9 b7 5f bd b7 0d bc 3c d9 70 e4 3c
       0.021368032 -0.05461869 0.022955758 0.027885841
000140 04 94 34 3d 1d cc 63 3d ab 5a f3 3b ac d0 03 be
       0.04408647 0.05561458 0.00742658 -0.12872571
000150 86 65 47 3c d7 45 01 bd 25 e5 88 bd d2 46 2d be
       0.012170201 -0.031560745 -0.06684331 -0.16921547
000160 9c 07 5c bd 64 93 24 3d e9 29 56 bd aa 5c ea bc
       -0.053718194 0.040179625 -0.052286062 -0.028608639
000170 82 9e ab bc 46 6a 36 3d 57 ab 30 3d c3 72 3d ba
       -0.020949606 0.044534944 0.043132152 -0.00072268787
000180 90 e6 e5 bc 53 84 12 3d 05 75 62 3d 85 da f8 bc
       -0.028064042 0.035770725 0.05528738 -0.030377636
000190 bc 92 8c bc 8c 90 d7 3b 76 b2 cd 3c 8b af ac bb
       -0.017159812 0.0065785106 0.02510951 -0.00526995
0001a0 e9 bf 93 39 a4 3a 54 3c af 74 87 3d db dd 44 3d
       0.0002818101 0.012953434 0.066140525 0.04806314
0001b0 35 c1 ee 3c 92 fc 21 bd b5 e2 55 bd 3b 35 0b 3d
       0.029144863 -0.03954751 -0.052218158 0.03398631
0001c0 a3 ed d1 bc ec d2 39 bd 79 17 25 3d 2b 2a 15 3e
       -0.02562601 -0.045367166 0.04030559 0.14566867
0001d0 5a c1 6c 3d 16 ea e4 bd 10 27 29 bd a7 12 1e 3d
       0.057801582 -0.11177461 -0.04129702 0.038592007
0001e0 93 89 b8 bc 10 e9 95 3d 6c 7b 38 bc 78 6b 2c 3d
       -0.022526538 0.07319844 -0.011259895 0.042094678
0001f0 e1 71 47 3b df ee 3f 3c ff cc f4 3c e8 f1 bb 3d
       0.0030432867 0.011714666 0.029882906 0.09176999
000200 15 56 d6 3d 21 df 26 3e 08 0d df bc 3f 08 ba 3d
       0.104656376 0.16296054 -0.027227893 0.09083604
000210 61 8f e6 3d 81 59 1f 3c 96 f3 61 3d 42 f8 28 3d
       0.11257816 0.009725929 0.055163942 0.041252382
000220 89 1f 74 bd 8f 2a 6d bd 08 f7 0e bd cf e3 07 3d
       -0.059600387 -0.057901915 -0.034903556 0.03317624
000230 b2 33 17 3c 68 f6 af bc 27 1b 53 bd 13 10 12 3d
       0.009228634 -0.0214798 -0.051539566 0.03565986
000240 42 36 0b 3d d5 aa 36 3c f8 64 af bb 01 9c 1c 3d
       0.03398729 0.011149128 -0.0053526126 0.038234714
000250 2e 3f 70 bd 8d 81 90 bd 23 00 a7 bc f9 3a 11 bd
       -0.058654003 -0.0705596 -0.020385807 -0.03545663
000260 02 53 ae bd de 2f 01 bc 4c 95 73 bb b6 53 d6 3b
       -0.08511926 -0.007884948 -0.0037167845 0.006540741
000270 29 90 af bb 42 eb 15 bd a2 a0 e5 3c 89 d0 ab bd
       -0.0053577614 -0.036601312 0.028030697 -0.08389384
000280 44 e7 ad 3a 13 5e 16 3e 1e 94 ac bc 11 49 48 3b
       0.0013267775 0.14684324 -0.021066722 0.003056113
000290 f5 5e 47 3d ce 48 8f 3c 59 31 9c bc 9f 05 de 3c
       0.048674542 0.01749077 -0.0190665 0.02710229
0002a0 04 7f cc 3c 0b 97 a0 3c 5e 91 9e 3d 24 68 19 bd
       0.02496291 0.019603273 0.0774257 -0.037452832
0002b0 c1 b1 81 3d 38 3c 72 3d f7 fa 2b bd fe 05 87 bc
       0.06332732 0.05913946 -0.041987386 -0.01648235
0002c0 84 2d 17 3d c9 4a 00 3d 6d ae 4a bd fa 7d 23 bc
       0.03690864 0.03132132 -0.04948275 -0.009978766
0002d0 3a e8 f7 bd 5f 6f 79 bd 68 d4 3d bc 5c 36 95 bd
       -0.121048406 -0.060897227 -0.011586286 -0.07285759
0002e0 71 ca 22 3d 85 f4 02 3d 24 d5 d7 bd 9d e1 dd bd
       0.039743844 0.031971473 -0.105387 -0.10834048
0002f0 95 41 5a bc ae bd a1 3d b6 90 a6 bd 3f b4 35 bd
       -0.0133213 0.07897507 -0.0813307 -0.04436135
000300 37 4d 6c bd 09 ee 7c bd 6a c4 c0 bc 93 61 2e bd
       -0.057690825 -0.061750446 -0.023531158 -0.042573523
000310 72 4f 0e bc c5 bd 11 bd e8 e4 5f bc 91 36 18 be
       -0.008685933 -0.03558137 -0.013665415 -0.14864565
000320 5e 6f 1b be d5 79 84 3d 43 ef 03 3c ca 92 87 3d
       -0.15179202 0.0646855 0.00805265 0.06619795
000330 5e e4 34 bc ba 0d 35 be ab 98 a9 3c d2 32 a3 bc
       -0.011040775 -0.17681018 0.02070268 -0.019921694
000340 4e 03 cd 3c fb 59 0d 3d 39 c7 54 bd 46 24 3e bd
       0.02502599 0.03450964 -0.051947806 -0.04642131
000350 12 2f 56 3d 09 1a 1f 3d 67 64 7d bd 71 2a af 3b
       0.052290983 0.03884319 -0.06186333 0.0053456356
000360 d5 8e 09 be c1 15 15 be e4 96 b0 3c 64 f2 57 bd
       -0.13433392 -0.1455908 0.021556325 -0.052721396
000370 a8 1b 0a be a0 22 06 3d f2 90 ae 3b 4e a0 e6 bd
       -0.13487113 0.032747865 0.0053273374 -0.112610444
000380 5b 89 2b bd 22 fa 5d bd 30 e7 09 3d 7b 41 16 3d
       -0.04187904 -0.054193623 0.033667743 0.03668354
000390 e3 b2 2f 3d 2b ec be bc 9d 54 a9 3c 25 e8 47 3d
       0.04289521 -0.023305973 0.02067023 0.048805375
0003a0 92 45 0f 3d 95 ba 17 bd cd 7b 3c be 2a e2 e4 3d
       0.034978457 -0.037043173 -0.18406601 0.1117595
0003b0 3a 84 9a bb f1 7d 90 bd 3b 3b 88 bc 70 6d 4b 3c
       -0.0047154697 -0.070552714 -0.016629806 0.012416229
0003c0 33 93 15 be 9e 8a 34 be 7a d5 27 be cc 62 60 3c
       -0.14606933 -0.17631003 -0.16390029 0.01369543
0003d0 35 e3 6a 3c 55 b1 60 3d 88 59 19 3d 52 94 17 bd
       0.014336397 0.054856617 0.0374389 -0.037006684
0003e0 c1 cc ee bb dd bc 76 bc a2 94 90 3c 80 dc 62 bd
       -0.007287592 -0.015059677 0.017648999 -0.055386066
0003f0 76 b6 cd 3c b9 51 90 bd 16 7c 14 3d d2 82 b6 bb
       0.025111418 -0.07046837 0.03625115 -0.005569794

res_conv2.2.bias f4 [32]
000000 6d 9c c8 3c b6 0e 18 bd c4 e6 f8 3b 53 02 e2 bd
       0.024488652 -0.037123404 0.007595869 -0.110355996
000010 d8 99 85 3b 63 b1 9c b9 3d 3f 8d bb 3c d6 b4 3a
       0.0040771775 -0.00029886802 -0.004310517 0.0013796757
000020 52 db 2f 3d f6 a4 f4 3c 7d 15 a3 3c 7a c5 4a 3c
       0.04293377 0.029863816 0.019907707 0.012376184
000030 37 80 d1 3c aa 59 44 bd 8c 37 6e 3c 26 2f 93 bd
       0.025573833 -0.047937073 0.014539611 -0.07186727
000040 a8 67 c1 bd 71 97 06 3d 05 55 47 bc ba db c0 3c
       -0.09443599 0.03285927 -0.012166266 0.023542274
000050 17 21 37 bc 80 d3 89 bd db 8c 22 3d 89 c8 d1 bb
       -0.011177323 -0.067297935 0.03968511 -0.0064020795
000060 5f 75 97 3c d4 22 9e 3c fb e0 bd bd 57 46 24 bb
       0.018488584 0.019303717 -0.09271427 -0.002506634
000070 c2 a6 cf 3c a3 2c 53 bd c6 39 89 3c 6f 2c a6 bb
       0.025348071 -0.05155624 0.016751181 -0.005071215

res_conv3.0.weight f4 [32, 32, 3, 3]
000000 50 90 68 bd 08 1e 01 bd f8 34 11 3d 4b 14 09 3d
       -0.056778252 -0.03152278 0.035450906 0.03346662
000010 d9 ae ca bb 1c 71 00 bd d2 39 a5 3c 45 27 36 3d
       -0.0061853942 -0.03135787 0.020169172 0.044471044
000020 fb e4 77 3a 93 cb 32 3c 01 7f a9 3b 1d dd 8c 3d
       0.0009456423 0.010912794 0.0051726107 0.068781115
000030 26 56 7a 3a 26 b7 d0 bc a4 79 5d bc 2f 30 4f bc
       0.000954958 -0.025477957 -0.013517771 -0.012645765
000040 b7 bc 36 3d f9 bc 33 3b 08 45 de bc bc b2 8e bc
       0.044613566 0.002742587 -0.027132526 -0.017419212
000050 27 81 ac 3c 2b ab 2b bd 1b ef 88 bd e1 cd c2 bc
       0.021057678 -0.041911285 -0.06686231 -0.023779811
000060 da 2f 3b bd a8 ba e2 bc 09 3c 34 3b f3 1d 1e 3d
       -0.04569993 -0.027676895 0.0027501604 0.03860278
000070 c0 37 ec bc 16 44 09 3d d3 dc ea 3c c3 d8 4b bd
       -0.028835177 0.033512197 0.02866975 -0.049767267
000080 b5 b6 4a 3a ed 38 d3 3c 9e 6e 08 bd 15 3a d1 3b
       0.0007732914 0.02578398 -0.033308618 0.0063850977
000090 f9 13 46 bd ec 2d 4d bd 92 b4 33 bd 96 7f 28 bd
       -0.04835889 -0.050092623 -0.043873377 -0.0411373
0000a0 75 b6 f1 3c e1 dd 2b bd a6 f6 ff bc 65 98 fd bb
       0.029505948 -0.041959647 -0.03124554 -0.007739114
0000b0 f2 53 9e 3c 12 fa 35 bc 77 67 3e 3c e7 00 b1 3c
       0.019327138 -0.011106985 0.011621348 0.021606876
0000c0 30 ca d9 3c 26 bb e5 3c ed 17 75 bd ed bf 77 3b
       0.026585668 0.02804334 -0.05983727 0.0037803606
0000d0 dd 6f 25 3d b4 39 21 bd a0 d9 80 bd 7c 19 d7 3c
       0.040389884 -0.03936167 -0.06291509 0.02625727
0000e0 f9 77 3f 3d 72 83 b5 bb 59 a2 d2 3b ae 5a 68 bd
       0.046745274 -0.005539351 0.0064280448 -0.056727104
0000f0 59 ee 90 bc 4b 16 09 bd ef 8e 3c 3d 9c b2 69 3c
       -0.017691778 -0.033468526 0.04603475 0.014263775
000100 bd 0c 15 3c 7e f4 84 3a 32 16 5e bd ed 64 13 bd
       0.009097275 0.0010143665 -0.054220386 -0.035984922
000110 40 a5 15 bc ec 7d ac 3c 55 44 4e bd c5 1c 38 3d
       -0.009133637 0.021056138 -0.050358135 0.04494931
000120 3c 16 06 bd 47 5d 34 3d 2f ab 2c 3d 88 14 56 bd
       -0.032736048 0.04403427 0.04215544 -0.052265674
000130 80 ef 2f 3d 86 86 22 3c 80 92 ab 3c dc 35 59 bc
       0.042953014 0.009919768 0.02094388 -0.01325747
000140 89 ef c4 bc b9 71 1a 3d c5 68 ef 3c 8a 2a 02 bb
       -0.02404 0.03770611 0.029224763 -0.001986178
000150 9a 10 66 bc 70 36 89 bc 41 2e 25 bd e6 1b b0 bc
       -0.014042044 -0.01674959 -0.040327314 -0.021497678
000160 a7 c5 0a bc a2 db 49 bc 2e ad 87 bc ca 58 92 bc
       -0.008469976 -0.012320431 -0.01656207 -0.017864604
000170 59 df 23 bd 80 8d 8e 3b 4b b8 f2 3b 3c ac b8 3c
       -0.040007923 0.004350364 0.0074072233 0.022543065
000180 8d 46 b7 3c de 12 0b 3d d7 29 41 3c d9 68 fe 3c
       0.022372508 0.03395354 0.011789761 0.031055855
000190 be 1c 30 3d 5f f4 a3 bc 2b 21 fa 3c c5 1c 17 3d
       0.04299616 -0.020013986 0.030533394 0.03689267
0001a0 dd 4b 75 bd 4f e1 ea 3b 6d 88 af 3c 21 1c 62 bd
       -0.059886802 0.007167972 0.021427358 -0.055202607
0001b0 c6 96 65 bd fc 0c 1e 3d aa 9b 13 3d 0a 3f 25 bd
       -0.056051992 0.0385866 0.036037125 -0.04034332
0001c0 f5 e0 16 3d 04 27 29 3d 26 0c 47 ba 35 0d 29 3d
       0.03683563 0.041296974 -0.0007593058 0.04127236
0001d0 ce 98 4d bc 7d 8a 9a bc be bc 40 bc 03 ca 63 bd
       -0.0125486385 -0.018864864 -0.01176375 -0.055612575
0001e0 d4 cf 53 bd 7c c8 93 3c a1 81 30 bb c0 1b 4d 3c
       -0.051711872 0.018039934 -0.0026932734 0.012518823
0001f0 28 0e 1b 3d e5 5e 41 bd a4 56 f9 bc dd 63 c1 bc
       0.037855297 -0.04720964 -0.030436821 -0.023607189
000200 80 83 a1 3c 4e 78 ef 3c fb 67 39 3d 37 3c 2a 3c
       0.019716024 0.02923217 0.04526518 0.010390333
000210 7b 6d a8 bc 8d a7 56 bd dc 94 0e 3c 6f 2a a6 3c
       -0.020560017 -0.052405883 0.008702483 0.020283906
000220 aa aa 3c bc 4a e2 de 3c 65 88 38 3b 3b 34 1d 3d
       -0.011515299 0.027207512 0.002815747 0.03837989
000230 76 2e 08 bd 69 ff dd bc 53 71 36 bd f3 53 37 3d
       -0.033247434 -0.027099328 -0.04454167 0.044757795
000240 ac 22 39 3d b9 60 8f bc a8 b5 89 bb ee 0d 92 3b
       0.04519908 -0.017502176 -0.0042025633 0.004457227
000250 d3 f5 ce 3c 88 91 44 bd b1 5d 01 3d a2 48 0d bd
       0.025263702 -0.047990352 0.03158349 -0.034493096
000260 bf 97 45 3d e3 05 46 3d 3e 41 69 bc 39 e4 f5 bc
       0.04824042 0.048345458 -0.014236746 -0.030016052
000270 81 3f 6f bd 1f 9c 1c 3d f7 03 75 bd 35 01 87 bd
       -0.05841017 0.038234826 -0.059818234 -0.06592027
000280 45 55 61 bd 56 8c bc 3c 21 5b 60 3c 54 55 45 bd
       -0.05501296 0.023016136 0.013693602 -0.04817708
000290 50 e6 3a 3d b8 2e 09 3d 78 ae f8 bc aa fc 1c 3d
       0.0456298 0.03349182 -0.03035663 0.038326897
0002a0 b2 63 5a bd 7f d1 93 bc e7 0f 7b bd 8c e7 8b bc
       -0.053317733 -0.018044231 -0.061294463 -0.017078184
0002b0 52 13 12 3d 20 99 a7 bc f3 01 33 3d 12 a2 00 bc
       0.035662957 -0.020458758 0.04370303 -0.007851141
0002c0 4c 96 27 3c d9 27 8d bc f6 38 54 bd 70 e4 21 3d
       0.010228705 -0.017230915 -0.051812135 0.039524496
0002d0 5f d8 38 3b 41 68 16 39 d8 43 e0 3c c6 08 bd bb
       0.002820514 0.00014343952 0.0273761 -0.005768868
0002e0 08 25 52 bd 5a 47 eb bc b7 af dd 3a 4f 57 09 bd
       -0.051304847 -0.028720547 0.0016913329 -0.03353053
0002f0 c3 d9 2b bb 9d 83 83 bd 85 20 d7 bc 03 fe 24 3d
       -0.0026222325 -0.064215876 -0.026260624 0.040281307
000300 cd 24 20 3d 20 5d 21 bc 4a 08 45 bd de 05 20 3d
       0.039097596 -0.009848863 -0.04810361 0.039068095
000310 f6 28 4b bd 11 7d 36 3d 64 24 4b bd 56 43 93 bc
       -0.04959961 0.044552866 -0.04959525 -0.017976444
000320 ee d1 c3 3c f6 0b 01 3d f0 52 18 bd 40 a4 0a 3d
       0.023903813 0.031505547 -0.03718847 0.033848047
000330 54 0c 46 3d 78 fa 10 3d c7 e8 8b bc 34 e8 8c 3b
       0.0483516 0.035395116 -0.01707877 0.0043001417
000340 59 15 9f bc 22 4c df 3c a1 2e 61 3c bf 56 31 3c
       -0.019419359 0.027257983 0.013744027 0.010823905
000350 a2 77 59 3c c3 17 75 ba 5c 9e 3a bd bb eb d2 bc
       0.013273152 -0.0009349549 -0.04556118 -0.02574717
000360 b0 07 37 bd 5e f2 77 bd f6 0a 86 bd ef 14 3a 3c
       -0.044685066 -0.060533874 -0.065450594 0.01135753
000370 a7 52 53 bd 44 4e 72 bd 0b 34 57 bd 53 f7 d7 bb
       -0.051592495 -0.05915667 -0.052539866 -0.0065907626
000380 cd 62 35 3d a7 1a 43 3c b3 07 54 bd af f7 02 3d
       0.044283677 0.01190821 -0.051765155 0.03197449
000390 d7 44 77 3c 45 74 b7 bc 85 46 e2 3c 00 71 3d 3c
       0.015092096 -0.022394309 0.027621517 0.011562586
0003a0 cf 53 6f bd e6 07 99 bd 52 de 03 3d a5 6b 29 bb
       -0.058429535 -0.0747221 0.032194443 -0.0025851515
0003b0 23 ae 07 3d e0 9d e6 bc d5 cd 09 3d 26 0e 7f bd
       0.033125054 -0.028151453 0.033643562 -0.062269352
0003c0 44 c6 60 bb 19 05 1e bb 29 31 ad bc 5e cd 87 bd
       -0.0034297863 -0.0024111925 -0.021141605 -0.066309676
0003d0 7b 68 60 bd fa 17 ce 3c c2 67 00 3d ea 79 4d 3d
       -0.05478714 0.025157917 0.03134895 0.050165094
0003e0 6f e5 66 bc df 21 08 3c f7 f7 55 3d d0 51 4a bd
       -0.014092787 0.008308857 0.05223843 -0.04939443
0003f0 2f 44 63 3b 09 48 ab 3c 5f e5 ee 3c f2 62 12 3c
       0.0034678092 0.020908372 0.029162107 0.008934723

res_conv3.0.bias f4 [32]
000000 51 53 68 bd e6 65 fd 3b ed 75 0e 3c 8f f6 00 3d
       -0.05672008 0.0077330945 0.008695108 0.031485137
000010 ce 11 98 3c 0a 96 1e bd 74 63 18 3c 6f 3c 38 bc
       0.018563177 -0.038717307 0.009301055 -0.011244877
000020 5e 77 9e bc a9 5c 65 bb 45 85 6c bd 0a de d6 ba
       -0.019344028 -0.0034997857 -0.057744283 -0.0016393077
000030 98 8f 5d bc a9 86 18 3b 19 2a 47 3c 3c a3 85 bd
       -0.013523005 0.0023273623 0.012156033 -0.06525275
000040 68 25 07 bd 67 8a f5 bb 9c d3 98 ba b3 ad 72 bd
       -0.032994658 -0.0074933055 -0.0011659744 -0.059247684
000050 08 fb 9c 3b 72 96 f9 3c b5 37 18 ba 44 7c 75 bd
       0.0047906674 0.030467246 -0.0005806641 -0.059932962
000060 c9 9a 53 bd 3a a4 29 3b f4 a3 7e bc 11 b2 c6 bc
       -0.051661287 0.002588524 -0.015542019 -0.02425483
000070 8c 82 5f bd a4 93 7c 3d e0 e8 8e bd 7f 0f 46 3b
       -0.05456786 0.06166424 -0.06978011 0.0030221639
