logs/Rain100L/PReNet_GAM_behindConv0/net_latest.pth (torch, 796834 bytes, 48 tensors)

conv0.0.weight f4 [32, 6, 3, 3]
0	0x3c383ad5	0.011244495
1	0xbc0f75a6	-0.008756077
2	0xbd7e153a	-0.062031962
3	0xbbaae85f	-0.005215689
4	0xbe43571d	-0.190762
5	0xbde68934	-0.11256638
6	0x3ce26cda	0.027639795
7	0xbe446fed	-0.19183321
8	0x3c31632a	0.010826865
9	0xbd233f73	-0.03985543
10	0xbe41b776	-0.18917641
11	0xbd6e2a71	-0.058145944
12	0xbd5fa8c4	-0.054604307
13	0xbe121acd	-0.14268036
14	0x3d732bf8	0.059368104
15	0xbd1c5e6a	-0.038175978
16	0xbd4b3ee4	-0.049620524
17	0xbe19b3bc	-0.1500997
18	0xbe007e88	-0.12548268
19	0xbe69bd51	-0.22826125
20	0xbda9ad28	-0.0828498
21	0x3db8c2da	0.0902154
22	0xbe8ad32d	-0.2711424
23	0x3d96e4c8	0.07367855
24	0xbe1f93b9	-0.15583695
25	0xbe41775d	-0.1889319
26	0x3d2e5490	0.042561114
27	0xbb91f785	-0.0044545555
28	0x3d424fb8	0.047439307
29	0x3e0a7d51	0.13524367
30	0x3e069f0e	0.13146612
31	0x3e1a01d9	0.15039767
32	0xbd2017e1	-0.039085273
33	0xbcee29e1	-0.029072704
34	0x3df0a1ce	0.11749612
35	0x3d7915db	0.06081186
36	0x3e285555	0.16438802
37	0x3e073214	0.13202697
38	0x3cbf2576	0.023333292
39	0xbd521ba8	-0.051295906
40	0x3d3021b1	0.04300088
41	0x3e35ae7e	0.17742345
42	0x3de8a0e1	0.1135881
43	0xbd98bc0f	-0.07457744
44	0x3dfda187	0.123843245
45	0x3de4fe9a	0.11181374
46	0x3d010766	0.031501196
47	0xbcaab28a	-0.020837087
48	0x3dc6cd3c	0.09707114
49	0x3e366027	0.17810117
50	0x3e31c42a	0.17359987
51	0x3c8af5c8	0.0169629
52	0x3e207587	0.15669833
53	0x3d88d39f	0.066809885
54	0xbd917ab6	-0.071034834
55	0xbd745073	-0.059647035
56	0xbd6ec429	-0.05829254
57	0xbda9857c	-0.08277413
58	0xbda3df93	-0.08001628
59	0x3ca98910	0.02069524
60	0x3d10fe70	0.0353989
61	0x3cdf09fd	0.027226442
62	0x3d2742b0	0.040835083
63	0xbd2093f5	-0.039203603
64	0xbdce2c19	-0.10067005
65	0xbdc69bd1	-0.09697688
66	0x3d1c8e0a	0.038221397
67	0xbd578be7	-0.052623656
68	0x3d6af46d	0.05736201
69	0x3de928c4	0.113847286
70	0x3e0d62ed	0.13807268
71	0xbd17c97b	-0.03705738
72	0xbd6dae78	-0.058027714
73	0x3d10eaff	0.03538036
74	0x3c7814eb	0.015141706
75	0x3d0d79d8	0.034540027
76	0xbd94fe61	-0.072750814
77	0x3c17dfd3	0.009269672
78	0x3d1e5744	0.03865744
79	0x3e058dde	0.130424
80	0xbd0d690c	-0.03452401
81	0xbe404f58	-0.18780267
82	0xbe8374da	-0.25675088
83	0xbe108846	-0.14114484
84	0x3d5b3c7d	0.053524483
85	0x3d77dddc	0.060514316
86	0x3d2bfa44	0.04198672
87	0x3e9d0d28	0.306741
88	0x3e5cf58c	0.21578044
89	0x3dc26a81	0.0949297
90	0xbe36f12b	-0.17865436
91	0xbe17dcb1	-0.14830281
92	0xbd76f6f6	-0.060294114
93	0xbbb3e5a8	-0.0054900236
94	0xbc23db6e	-0.010001047
95	0x3c44e0de	0.012016503
96	0x3e69be3c	0.22826475
97	0x3e41fdeb	0.18944518
98	0xbc375916	-0.011190673
99	0x3c1f4fdd	0.009723631
100	0xbe6c15f8	-0.23055255
101	0x3c8ff89b	0.017574599
102	0xbdb36605	-0.08759693
103	0x3d13e8b1	0.036110584
104	0xbe1ade6f	-0.15123914
105	0x3e30e036	0.1727303
106	0x3e7add86	0.24498567
107	0xbe096407	-0.13417064
108	0x3dcc556e	0.09977232
109	0x3dc54bca	0.09633596
110	0xbe1baf93	-0.15203695
111	0x3d70d4cc	0.05879669
112	0xbda2593f	-0.079271786
113	0x3c97efed	0.018547023
114	0x3dcda96a	0.10042079
115	0x3d955865	0.072922505
116	0xbd4ea6ca	-0.05045203
117	0xbd70322a	-0.05864159
118	0x3d7a80e1	0.061158065
119	0x3c151fb5	0.009101798
120	0x3dded930	0.10881269
121	0xbd761102	-0.060074814
122	0x3dd269b1	0.10274065
123	0xbd6e6499	-0.058201406
124	0x3e248d63	0.1606956
125	0x3d34989d	0.044090856
126	0xbe0db72a	-0.13839403
127	0x3cf1414a	0.029450078
128	0x3c3c8325	0.011505877
129	0xbd138060	-0.0360111
130	0xbdd3cd5c	-0.103419036
131	0x3c1d0c4a	0.0095854495
132	0xbe2eb64a	-0.17061725
133	0xbd8d5cd3	-0.069024704
134	0xbd16c996	-0.03681334
135	0x3dc54244	0.0963178
136	0x3d907902	0.070543304
137	0xbd831623	-0.064007066
138	0x3e987f58	0.29784656
139	0x3e38dcf6	0.1805304
140	0xbdfdb8c2	-0.123887554
141	0x3e4555b1	0.1927097
142	0xbcfbbabc	-0.03072869
143	0xbdb9f041	-0.09079028
144	0xbdbe21a2	-0.09283759
145	0xbc7b6828	-0.015344657
146	0x3d84753c	0.06467673
147	0xb9938e76	-0.00028144167
148	0x3e52683d	0.20547576
149	0x3de8661c	0.11347601
150	0x3aa47228	0.0012546228
151	0xbd0dfd0d	-0.034665156
152	0xbe1a3bd0	-0.15061879
153	0xbe845fd9	-0.25854376
154	0xbe294dd1	-0.16533591
155	0x3d7d17a2	0.061790116
156	0x3c933de5	0.01797385
157	0xbe10837b	-0.14112656
158	0xbd744fc9	-0.0596464
159	0xbe109bca	-0.14121929
160	0xbd2f7738	-0.042838305
161	0x3d1a14d0	0.037617505
162	0xbce82d0a	-0.028341789
163	0x3dcd07df	0.10011267
164	0xbe0a4d57	-0.13506065
165	0x3c4bf3d7	0.012448273
166	0xbb8765c0	-0.0041320026
167	0xbd78478d	-0.06061511
168	0xbdbbda8d	-0.09172545
169	0x3df4d101	0.11953927
170	0xbdca3997	-0.09874266
171	0xbe5b442d	-0.21412726
172	0x3d536a71	0.051615182
173	0x3d93fa28	0.07225448
174	0xbe0508ac	-0.1299159
175	0x3dae42e2	0.08508851
176	0x3d7d39a6	0.061822556
177	0xbc17b490	-0.009259358
178	0x3e12b7e2	0.14327958
179	0x3d5a0928	0.05323139
180	0x3da82aeb	0.08211311
181	0x3d5e076c	0.054206297
182	0x3d4b6c38	0.049663752
183	0xbe51f4cd	-0.2050354
184	0x3d8fa5da	0.070140556
185	0xbdc037c6	-0.09385638
186	0xbc01cb30	-0.007921979
187	0x3e39b495	0.18135293
188	0xba741274	-0.0009310611
189	0xbe1fb1ec	-0.15595216
190	0x3d0a4605	0.033758182
191	0x3da828a6	0.08210878
192	0xbdd22541	-0.10261012
193	0x3e2b5b99	0.1673416
194	0x3e20d550	0.15706372
195	0xbda0ccb7	-0.07851546
196	0x3e104287	0.14087878
197	0xbdb13310	-0.086523175
198	0xbe7d0b67	-0.24711381
199	0x3e1a8171	0.1508844
200	0xbc8ab85c	-0.016933613
201	0xbe1f91fa	-0.1558303
202	0x3dc5ca7d	0.09657762
203	0x3dd43e1c	0.10363409
204	0xbd78d398	-0.060748667
205	0x3e35c8cc	0.17752379
206	0xbe15fbc3	-0.1464682
207	0xbe6c340c	-0.2306673
208	0x3db60a90	0.088887334
209	0x3d09b271	0.03361744
210	0xbe82f5c4	-0.2557813
211	0x3e23cd91	0.15996386
212	0x3cb55eef	0.022139994
213	0xbe247725	-0.16061075
214	0x3e160592	0.14650562
215	0x3d1f6529	0.038914833
216	0x3c4e02ef	0.012573942
217	0xbe2ff58f	-0.17183517
218	0x3d2f16e4	0.04274644
219	0x3e06d223	0.13166098
220	0xbcb7ad1b	-0.02242141
221	0xbd77605c	-0.06039463
222	0xbb954ea7	-0.004556495
223	0x3db1d8d3	0.08683934
224	0x3c9dc34c	0.019258164
225	0xbd15b6dd	-0.036551345
226	0x3dc9ff08	0.098630965
227	0xbc6db6af	-0.014508887
228	0xbd0ce375	-0.034396607
229	0x3e461301	0.19343187
230	0x3d09a321	0.033602837
231	0x3c52404d	0.012832713
232	0x3d948726	0.0725234
233	0xbdc56a2a	-0.0963939
234	0xbd484df9	-0.048902486
235	0xbde7887b	-0.113053285
236	0x3d628784	0.05530502
237	0x3bef3ae3	0.007300721
238	0xbc747cad	-0.014922303
239	0x3e080029	0.13281311
240	0xbd57cd41	-0.05268598
241	0xbdf1b506	-0.118021056
242	0xbdaf7c3e	-0.08568619
243	0x3e0ae8a0	0.13565302
244	0xbe92e47c	-0.28689945
245	0xbc9d5ba9	-0.019208746
246	0x3e80bdc1	0.2514477
247	0xbd15fe0c	-0.03661923
248	0xbb6e5a7a	-0.0036369846
249	0x3c1c3974	0.009535182
250	0x3e12f6e6	0.14351997
251	0xbe788793	-0.24270467
252	0x3e13375d	0.14376588
253	0xbe90a72b	-0.2825254
254	0x3e38d208	0.1804887
255	0xbc7c88e8	-0.0154135

conv0.0.bias f4 [32]
0	0x3e08bf5a	0.13354245
1	0x3ba1467f	0.004921734
2	0xbc81b937	-0.015835388
3	0x3ca37114	0.01995138
4	0x3d041a29	0.03225151
5	0x3d936cd3	0.07198491
6	0x3a226729	0.00061951816
7	0x3d4c364c	0.04985647
8	0xbd257fa3	-0.040404927
9	0x3c142992	0.009043114
10	0x3bec9684	0.0072200913
11	0x3d5686eb	0.05237476
12	0xbebf2b85	-0.3733789
13	0x3d432726	0.047644757
14	0x3de5c55c	0.11219284
15	0x3aab1118	0.0013051359
16	0x3bd4a2b0	0.0064891204
17	0x3dc1a24d	0.094547845
18	0x3d9cedd4	0.076625496
19	0x3cb23375	0.021753052
20	0x3c6bb757	0.014386973
21	0x3d64791c	0.05577956
22	0x3d09f6dc	0.03368269
23	0x3b96d585	0.00460309
24	0x3a8fd7ce	0.0010974349
25	0x3d493102	0.049119003
26	0x3ddd7559	0.10813398
27	0xbc8b0ec6	-0.016974818
28	0x3d46e350	0.048556626
29	0x3c888b86	0.016668092
30	0x3e3911b6	0.18073162
31	0x3e41d6e2	0.18929628

res_conv1.0.weight f4 [32, 32, 3, 3]
0	0xbe401676	-0.18758568
1	0x3d0eefe0	0.03489673
2	0x3e233c34	0.15940934
3	0xbe52e379	-0.20594586
4	0xbde3d01c	-0.11123678
5	0x3de48682	0.11158468
6	0xbddf0688	-0.108899176
7	0xbce46ecb	-0.027884861
8	0x3e3b2791	0.18276812
9	0x3c2fca2b	0.010729353
10	0xbddf11c9	-0.10892064
11	0xbcb698f8	-0.022289738
12	0x3d975130	0.07388532
13	0xbd2a2cba	-0.04154656
14	0xbbcd7e0e	-0.0062711304
15	0x3c3ac47a	0.011399383
16	0xbd55ff77	-0.052245583
17	0xbce11c9a	-0.027479459
18	0x3d70afdf	0.058761474
19	0x3dcfafff	0.101409905
20	0x3cf1a998	0.029499814
21	0xbd9a861c	-0.075451106
22	0x3d85580a	0.06510933
23	0x3dea8bd8	0.11452454
24	0xbe18439b	-0.1486954
25	0xbdaeee14	-0.085415035
26	0x3d644d49	0.055737767
27	0x3bad7774	0.005293781
28	0x3d5f3519	0.054493997
29	0xbcb22a1f	-0.0217486
30	0x3da11fdc	0.07867405
31	0xbbcaa435	-0.006184126
32	0xbce0e910	-0.027454883
33	0x3d7b48ec	0.06134884
34	0x3d8ad9a6	0.067797944
35	0xbc8fcb8d	-0.017553115
36	0xbd127b53	-0.035762142
37	0xbd696fa4	-0.056991234
38	0x3e0c8d59	0.13725795
39	0xbc849ee1	-0.01618904
40	0xbdb98e91	-0.090603955
41	0x3cc78dae	0.02435955
42	0xbd08de45	-0.033415098
43	0xbd9d020f	-0.07666408
44	0xbd8370a6	-0.0641797
45	0x3cbbdaf9	0.022931563
46	0x3e16c962	0.14725259
47	0xbccf703b	-0.02532207
48	0xbc4e997b	-0.012609835
49	0x3dc72531	0.097238906
50	0x3dad8e99	0.08474464
51	0xbddd462a	-0.10804398
52	0xbc4ac6ae	-0.0123764705
53	0x3d677c9f	0.056515332
54	0x3d364ac8	0.04450491
55	0xbc20f0ae	-0.0098230075
56	0xbd40a704	-0.04703428
57	0x3d6a6c0c	0.057231948
58	0xbd16267e	-0.036657803
59	0xbddc3d77	-0.10753911
60	0x3d100c71	0.035168115
61	0x3db8dba5	0.09026269
62	0xbd88d961	-0.06682087
63	0x3d8d7ee2	0.069089666
64	0x3cc3822a	0.023865778
65	0xbe1f1765	-0.15536268
66	0xbcfcb53e	-0.030848142
67	0x3d1e7c21	0.038692597
68	0xbde56693	-0.11201205
69	0x3c6a12c3	0.0142867
70	0x3acc6387	0.0015593626
71	0x3dcfd9c6	0.10148959
72	0x3d82cb95	0.063864864
73	0x3d9fac6a	0.07796557
74	0x3c427f12	0.011871116
75	0x3c64e533	0.013970661
76	0x3d7da57d	0.0619254
77	0xbc686b69	-0.014185765
78	0xbc8acca7	-0.016943289
79	0xbe060b49	-0.13090242
80	0x3db79bd5	0.089652695
81	0xbd0c4b8f	-0.034251746
82	0x3da4116c	0.080111355
83	0xbc84f12b	-0.01622828
84	0xbd9014d5	-0.070352234
85	0x3d93ed51	0.07222999
86	0xbd3918bb	-0.0451896
87	0xbe246b66	-0.16056594
88	0xbb3dc13f	-0.0028954295
89	0xbcc04b46	-0.023473393
90	0xbd4e72c0	-0.050402403
91	0x3b42710d	0.0029669434
92	0xbd26db14	-0.040736273
93	0xbd1664f8	-0.036717385
94	0x3c57d1ed	0.013172609
95	0x3d3cfe30	0.04614085
96	0xbcbd074c	-0.023074768
97	0xbda657f7	-0.08122247
98	0x3e098b2a	0.13431993
99	0x3b65ccf9	0.00350648
100	0xbc65b881	-0.01402104
101	0xbd91ab86	-0.071127936
102	0x3d083557	0.033253994
103	0x3d6ebde9	0.05828658
104	0xbdd7ecba	-0.10543199
105	0x3d52d87f	0.051475998
106	0x399abeea	0.0002951541
107	0xbd352084	-0.044220462
108	0x3e08de0d	0.13365956
109	0x3dc8262b	0.09772905
110	0xbe3954d2	-0.18098763
111	0xbca821b5	-0.020523885
112	0x3d9785b4	0.07398549
113	0xbd011026	-0.03150954
114	0xbcb1e27a	-0.021714438
115	0x3e081f7a	0.13293257
116	0x3cee570a	0.029094238
117	0xbd004a3d	-0.0313208
118	0xbd14910e	-0.036271147
119	0x3e05f374	0.13081151
120	0x3d853473	0.065041445
121	0xbda5ea10	-0.081012845
122	0xbbeddffe	-0.007259368
123	0x3daa4c24	0.08315304
124	0x3da23132	0.079195395
125	0x3c0dd617	0.008657
126	0xbab3161d	-0.0013663206
127	0xbba9ef34	-0.005185986
128	0x3df82d93	0.121180676
129	0xbd7fabc4	-0.062419668
130	0xbe410654	-0.1885007
131	0x3d8dce97	0.069241695
132	0xbd8d116b	-0.06888088
133	0xbe5d64e3	-0.21620516
134	0x3ceefc4b	0.029173037
135	0x3d3cf96f	0.046136316
136	0xbdb252bd	-0.08707187
137	0xbe12df45	-0.14342983
138	0x3df5ac5d	0.11995766
139	0xbd4374ee	-0.047718935
140	0xbd93d863	-0.07219007
141	0x3dd7efd1	0.10543788
142	0xbe065bdf	-0.13120984
143	0xbe214e60	-0.15752554
144	0xbb7ff62d	-0.0039056644
145	0x3e042df1	0.1290815
146	0x3c93ce41	0.018042685
147	0xbc70272d	-0.014657778
148	0x3db105b0	0.08643663
149	0x3d94dc3d	0.072685696
150	0x3c3cfe66	0.011535263
151	0x3b19ac98	0.002344882
152	0x3e171e14	0.14757568
153	0xbc8f1fd7	-0.017471237
154	0xbc98b290	-0.018639833
155	0xbd126be6	-0.03574743
156	0xb9c17d12	-0.00036905013
157	0x3cc87fd7	0.024475021
158	0x3cc51094	0.024055757
159	0xbdefb550	-0.117045045
160	0x3d9064c6	0.07050471
161	0x3d8bf602	0.06834032
162	0xbe02992e	-0.12753746
163	0x3e0f6e76	0.14006981
164	0x3e0438c2	0.12912276
165	0xbe54ba46	-0.20774183
166	0xbd82c393	-0.06384959
167	0x3dd9bc46	0.106316134
168	0xbe447fdd	-0.19189401
169	0xbe098368	-0.13429034
170	0x3e148244	0.14502817
171	0xbc1a6313	-0.009423035
172	0x3d0671ec	0.032823488
173	0x3ec742ed	0.38918248
174	0xbde1857c	-0.11011788
175	0xbccc01d0	-0.024903208
176	0x3e444e82	0.19170573
177	0xbc96ae12	-0.01839355
178	0xbe4ca132	-0.19983366
179	0xbe011879	-0.12606992
180	0xbe0fd381	-0.14045526
181	0xbde0a3d5	-0.109687485
182	0x3dbf89fa	0.09352489
183	0x3d83965c	0.06425163
184	0xbe132ee6	-0.14373359
185	0xbb3a4bc3	-0.0028426505
186	0x3e213503	0.15742879
187	0xbdc7c32f	-0.09754025
188	0xbe2768ee	-0.16348621
189	0x3cb46a3e	0.022023316
190	0x3ca32bc0	0.019918323
191	0xbe4f3488	-0.20234883
192	0x3d0edf4b	0.034880918
193	0x3da2d851	0.07951415
194	0xbd92155a	-0.07132979
195	0x3c821588	0.015879408
196	0x3d15248a	0.0364118
197	0xbd60a9b7	-0.054849353
198	0x3dc4bb30	0.09606016
199	0x3d38ddf3	0.045133542
200	0xbdf7c6d2	-0.12098469
201	0xbc814a25	-0.015782425
202	0x3d252857	0.040321674
203	0xbc33dcf9	-0.010977977
204	0xbe21f7c4	-0.15817171
205	0x3cc051a7	0.023476435
206	0x3ddf11ea	0.10892089
207	0x3d26f8e3	0.0407647
208	0xbc5f1fab	-0.01361839
209	0xbe12b477	-0.14326654
210	0xbc2a5357	-0.010395846
211	0x3dce0a4f	0.1006056
212	0xbdbf1e8a	-0.09331997
213	0xbdd90704	-0.10597041
214	0x3dd12eed	0.102140285
215	0x3e29e168	0.16589892
216	0x3cc8409d	0.024444873
217	0x3cf9f4e7	0.030512286
218	0xbd592f34	-0.053023532
219	0xbd233de9	-0.039853964
220	0xbd37acb0	-0.044842422
221	0x3de928f3	0.113847636
222	0xbe2b33a7	-0.16718923
223	0x3b594ba1	0.003315665
224	0x3e2bea89	0.16788687
225	0xbd07dfbf	-0.033172365
226	0x3d9d4b08	0.07680327
227	0xbdca164d	-0.09867535
228	0xbd5af505	-0.053456325
229	0x3da85384	0.08219054
230	0x3d401225	0.046892304
231	0xbe31b487	-0.17354022
232	0x3df7ee13	0.12105956
233	0x3c617909	0.013761767
234	0x3cb0b5d7	0.021571083
235	0xbcd543b6	-0.026033264
236	0xbd4fd029	-0.050735626
237	0x3cdcdb80	0.026960135
238	0xbcb48127	-0.02203424
239	0xbd926abe	-0.07149266
240	0xbc9a23a8	-0.01881583
241	0xbdb60b97	-0.08888929
242	0xbc44dd50	-0.012015656
243	0xbdb4cd2f	-0.08828198
244	0xbcebdb1c	-0.028791003
245	0x3d15c168	0.0365614
246	0xbdb00cdf	-0.08596205
247	0x3d049bd6	0.03237518
248	0x3c91f204	0.017815597
249	0xbda3f9df	-0.080066435
250	0xbce2d427	-0.027689053
251	0x3dd13d18	0.10216731
252	0xbd9a321f	-0.07529091
253	0xbe19b5d2	-0.15010765
254	0x3cf0f71e	0.02941471
255	0xbd0955b4	-0.033529

res_conv1.0.bias f4 [32]
0	0x3a50d710	0.0007966617
1	0xbe04a11d	-0.12952085
2	0xbde5cc20	-0.112205744
3	0xbc9aa072	-0.018875334
4	0x3a508605	0.0007954541
5	0xbcb886f2	-0.022525284
6	0xbd8358ae	-0.06413399
7	0x3bbfc4ce	0.0058523184
8	0xbc38a07c	-0.011268731
9	0xbd1dc967	-0.03852215
10	0xbc0588cc	-0.008150291
11	0x3cb46c15	0.022024194
12	0xbd2c3e98	-0.04205188
13	0xbb01fc11	-0.0019834081
14	0xbd221b8a	-0.039577045
15	0x3c92502b	0.017860493
16	0xbcb0ce4c	-0.021582745
17	0x3cdc41d1	0.026886852
18	0xbe04cdcb	-0.12969129
19	0xbcf27a3c	-0.029599302
20	0x3c6537ae	0.013990326
21	0xbab7ae9f	-0.0014013833
22	0x3bf0dede	0.0073507866
23	0x3ba9c955	0.0051814714
24	0x3cb36257	0.021897478
25	0x3c8e61c7	0.017380608
26	0xbc80aa30	-0.015706152
27	0xbdba8743	-0.091078304
28	0xbcf07101	-0.02935076
29	0xbd8b221d	-0.06793616
30	0xbe3b904d	-0.18316765
31	0x3c1c1bf0	0.009528145

res_conv1.2.weight f4 [32, 32, 3, 3]
0	0xbd255461	-0.040363673
1	0x3cb8e218	0.022568747
2	0xbc7c0a32	-0.01538329
3	0xbd20e41f	-0.039280053
4	0x3d638683	0.055548202
5	0x3d821b25	0.06352834
6	0x3d125112	0.035721846
7	0x3d29fed0	0.041502774
8	0x3dcea848	0.10090691
9	0xbc4740ac	-0.012161415
10	0x3cff1b0c	0.031140827
11	0xbd2b33f8	-0.041797608
12	0x3d20210d	0.03909402
13	0x3d5d5469	0.054035578
14	0xbda86863	-0.08223035
15	0xbd43260b	-0.047643702
16	0x3d7b0293	0.06128175
17	0x3d103bc6	0.035213254
18	0xbddc40bc	-0.107545346
19	0x3d7ff2f2	0.06248755
20	0x3d71bf1c	0.059020147
21	0xba1d6400	-0.0006003976
22	0xbd1ca22a	-0.03824059
23	0x3cc5c0e2	0.024139825
24	0xbd91d5b6	-0.0712084
25	0x3d941d71	0.07232178
26	0xbd77df3c	-0.060515627
27	0xbc5779b9	-0.01315158
28	0xbdac0bf0	-0.084007144
29	0xbc49e049	-0.01232154
30	0xbdf0bdb1	-0.11754931
31	0xbd1aaaf1	-0.03776068
32	0x3d055002	0.032547005
33	0xbde59daf	-0.112117164
34	0xbd0bdfbb	-0.034148913
35	0x3d6545e0	0.05597484
36	0xbe2f2a65	-0.17106016
37	0xbe3806b4	-0.17971307
38	0x3d12c36c	0.0358309
39	0xbd96b543	-0.07358792
40	0xbd3e94f2	-0.046528764
41	0x3d84e7f8	0.06489557
42	0x3db59b2f	0.088674895
43	0xbbb9c559	-0.0056692776
44	0xbbbd3467	-0.005774069
45	0xbda479bd	-0.08031032
46	0x3d2431a3	0.0400864
47	0xbcc1a27c	-0.023637049
48	0x3c5f0ae2	0.0136134345
49	0xbd9d4046	-0.07678275
50	0xbd97fa87	-0.07420831
51	0xbdca4dbe	-0.098781094
52	0x3bda1c03	0.0066561713
53	0xbd9ec264	-0.07751921
54	0xbd48cbcf	-0.049022492
55	0xbd483486	-0.048878215
56	0x3da5438e	0.08069526
57	0xbd2c4c6b	-0.042065065
58	0x3c26950c	0.0101673715
59	0xbd335869	-0.043785486
60	0xbc3a2145	-0.011360471
61	0xbbcd2c32	-0.006261372
62	0xbd19de1e	-0.037565343
63	0xbd8716f1	-0.065961726
64	0xbe13bd51	-0.14427687
65	0xbd295f94	-0.041350916
66	0x3d812894	0.06306568
67	0xbe049503	-0.12947468
68	0xbd0cda05	-0.034387607
69	0xbc4f537e	-0.012654183
70	0x3ab6b66a	0.0013939862
71	0x3e0fb3b9	0.14033403
72	0xbd1a4fa9	-0.037673626
73	0x3cf19aca	0.029492754
74	0xbc1d467e	-0.009599326
75	0x3c458148	0.012054749
76	0x3dba513c	0.090975255
77	0xbd79358d	-0.060842086
78	0x3d270016	0.040771566
79	0x3dd19a02	0.10234453
80	0xbb21670e	-0.0024628076
81	0x3b172d99	0.002306795
82	0x3e056b69	0.13029255
83	0xbd46b163	-0.048509013
84	0x3d8e37a2	0.06944205
85	0xbc86e424	-0.016466208
86	0x3cd2d0bb	0.025734296
87	0x3c9a532c	0.018838488
88	0x3d07498b	0.03302912
89	0x3dd6b937	0.10484546
90	0x3dba0c47	0.09084373
91	0xbdcdcfbd	-0.100493886
92	0xbd2e62b0	-0.042574584
93	0xbb17397b	-0.0023075033
94	0xbd914ffa	-0.070953324
95	0xbd61d52f	-0.05513495
96	0xbde27b41	-0.11058665
97	0xbe22a158	-0.1588186
98	0xbd5e92a4	-0.054339066
99	0xbc9e4d8e	-0.01932409
100	0xbdaf8275	-0.085698046
101	0x3d50be4a	0.050962724
102	0x3a9bc229	0.0011883426
103	0xbd096f4e	-0.033553414
104	0xbc965ece	-0.018355753
105	0x3d5435e5	0.05180921
106	0x3c86c92e	0.016453352
107	0xbcdca961	-0.026936235
108	0x3ce22cae	0.027609196
109	0x3cecad0a	0.028891105
110	0xbe087aa0	-0.13328028
111	0xbc2189fc	-0.009859558
112	0x3d83f1f5	0.06442634
113	0xbda07798	-0.07835311
114	0x3cc393bd	0.023874158
115	0xbad39510	-0.0016142447
116	0xbcccdc0e	-0.025007274
117	0xbd81683c	-0.06318709
118	0xbd246959	-0.04013953
119	0x3d639e24	0.055570737
120	0xbd9e2c15	-0.07723252
121	0x3cea1d5a	0.028578449
122	0x3bfef03f	0.0077801044
123	0xb880e90a	-6.1469225e-05
124	0x3de9fccc	0.1142517
125	0x3df559d0	0.11980021
126	0x3b39f796	0.0028376332
127	0xbe1120cc	-0.14172667
128	0xbd0408db	-0.032235008
129	0x3c8181d6	0.01580898
130	0xbe0488eb	-0.12942855
131	0xbe025e40	-0.12731266
132	0x3db110d4	0.08645788
133	0xbe016e16	-0.1263965
134	0xbe12d22b	-0.14337985
135	0xbc12054f	-0.0089123985
136	0x3da7d931	0.08195723
137	0x3b4bf7de	0.0031123082
138	0x3d44232a	0.047885098
139	0x3cbc127b	0.02295803
140	0xbdaf21ee	-0.085513934
141	0x3c45a53e	0.012063323
142	0xbdfcd63b	-0.12345549
143	0xbdae624a	-0.08514841
144	0x3e099659	0.1343626
145	0x3d831efb	0.064023934
146	0x3db127f4	0.086501986
147	0x3d880be1	0.06642891
148	0x3cf75b3a	0.030194867
149	0xbd220216	-0.03955277
150	0xbc3e2fc6	-0.01160807
151	0x3ded5fd2	0.11590542
152	0x3db43c31	0.08800543
153	0xbe24a75d	-0.16079469
154	0xbe0fe99b	-0.14053957
155	0xbda8cd3a	-0.08242269
156	0xbcb6f8f5	-0.022335509
157	0xbc0319e9	-0.008001783
158	0x3d80d4da	0.06290598
159	0xb93ad53d	-0.0001781778
160	0xbdb604f4	-0.088876635
161	0xbcf121b0	-0.029435009
162	0x3d2d673d	0.042334784
163	0xbd2f1aa7	-0.042750027
164	0x3d9366c5	0.07197336
165	0xbc50af12	-0.0127370525
166	0xbd03e506	-0.032200836
167	0x3c270842	0.01019484
168	0x39e19fe0	0.0004303446
169	0x3d61b490	0.05510384
170	0xbbd87e7a	-0.006606874
171	0xbd836c82	-0.064171806
172	0x3d670811	0.056404177
173	0x3dd5dd02	0.104425445
174	0x3d01ecc2	0.03171993
175	0x3c87b8df	0.016567646
176	0x3d54d0fc	0.051957116
177	0x3cc89014	0.024482764
178	0xbd2eaf73	-0.04264779
179	0xbd815bbd	-0.06316326
180	0xbd9ee5ab	-0.077586494
181	0x3dbb7e37	0.09154933
182	0x3dfb1e4d	0.12261639
183	0x3cfee782	0.03111625
184	0x3de38bfd	0.11110685
185	0x3d9698a2	0.07353331
186	0xbb47f053	-0.0030508235
187	0x3d05516e	0.03254836
188	0xbd2a17b3	-0.041526508
189	0x3dc92acc	0.09822616
190	0x3d16cd30	0.036816776
191	0xbdd2c245	-0.1029096
192	0xbc4c5ae0	-0.012472838
193	0x3ce8b9b8	0.02840887
194	0xbd01ef81	-0.03172255
195	0x3d4e5fae	0.050384216
196	0x3c5f03ee	0.013611777
197	0x3d822569	0.06354792
198	0xbdafbe2a	-0.08581193
199	0x3d3b85a5	0.04578175
200	0x3dcbaca5	0.09945039
201	0xbcc3fb8a	-0.023923654
202	0xbd2c9049	-0.04212979
203	0x3dcbc1f6	0.099491045
204	0xbcddc92f	-0.02707347
205	0xbb804a24	-0.0039150883
206	0xbcc88ee0	-0.02448219
207	0x3dbf0746	0.09327559
208	0x3d7f6228	0.06234947
209	0x3d0807cf	0.03321057
210	0x3be44c67	0.0069671157
211	0xbc074769	-0.008256772
212	0x3c1686f3	0.009187448
213	0x3dbb85f5	0.0915641
214	0xb924a5de	-0.00015702049
215	0xbdbe5981	-0.09294415
216	0x3d10d043	0.035354864
217	0xbc4654a1	-0.012105138
218	0x3d24dc8c	0.040249392
219	0xb97dcab7	-0.00024203477
220	0x3d497c3e	0.049190752
221	0x3c20bc48	0.009810515
222	0x3cad4200	0.021149635
223	0xbb9f14b3	-0.0048547625
224	0x3d1b268a	0.03787855
225	0x3ca50d72	0.020148013
226	0xbc94cbba	-0.01816355
227	0xbd0c7eae	-0.0343005
228	0x3d196b2a	0.037455715
229	0x3da3e9e1	0.08003593
230	0xbcfc971e	-0.030833777
231	0x3bd71b46	0.0065645305
232	0x3db3bbe4	0.08776072
233	0xbb3ba84c	-0.0028634248
234	0x3d1bce3d	0.03803848
235	0x3d8551e8	0.06509763
236	0x3d1ac220	0.03778279
237	0x3d5120fb	0.051056843
238	0xb83ced73	-4.5043835e-05
239	0x3c256f06	0.010097271
240	0x3d2b7084	0.04185535
241	0x3d2c9efd	0.04214381
242	0xbd41e638	-0.047338694
243	0x3cbc50d9	0.02298777
244	0x3dbe0c84	0.09279731
245	0x3d875b79	0.06609244
246	0x3e6ee113	0.23328047
247	0x3d8c02a2	0.0683644
248	0xbba42264	-0.0050089825
249	0x3e60536f	0.21906827
250	0xbd089b0c	-0.03335099
251	0x3dc2d1c9	0.095126696
252	0xbcb44635	-0.022006134
253	0xbbdd65e8	-0.006756533
254	0xbd1f0747	-0.0388253
255	0xbca2c097	-0.019867225

res_conv1.2.bias f4 [32]
0	0x3bd651c0	0.006540507
1	0xbd2264f1	-0.039647046
2	0x39c9b7e8	0.00038474728
3	0x3c967270	0.018365115
4	0x3c391484	0.011296395
5	0xbd9b1712	-0.0757276
6	0x3d1bcb8b	0.03803591
7	0x3c331502	0.010930302
8	0x3cd5bf0d	0.026092077
9	0xbd40c597	-0.047063436
10	0x3d2b1fdb	0.041778427
11	0xbc9a6d69	-0.018850999
12	0xbdbee4c6	-0.09320979
13	0xb9e95469	-0.00044504114
14	0x3cd058ea	0.025433023
15	0x3d5558c6	0.052086614
16	0x3c0f820f	0.008759036
17	0xbdbaac48	-0.09114891
18	0xbda99756	-0.08280818
19	0x3bbf3805	0.0058355355
20	0x3c5014e5	0.012700294
21	0xbd957ff6	-0.07299797
22	0xbbbcdd4f	-0.0057636867
23	0x3c0f7b94	0.008757491
24	0xbbbc58cb	-0.0057478896
25	0xbd90bf5b	-0.07067748
26	0x3c570462	0.013123604
27	0xbd79212a	-0.060822643
28	0x3a829f98	0.0009965776
29	0x3bf511f7	0.007478948
30	0xbd95a544	-0.073069125
31	0xbceafd48	-0.028685227

res_conv2.0.weight f4 [32, 32, 3, 3]
0	0xbd391e21	-0.04519475
1	0x3d2498ef	0.04018491
2	0x3c02a9b0	0.007975027
3	0xbdb06da8	-0.08614665
4	0x3c417799	0.011808299
5	0xbd221464	-0.039570227
6	0xbe0eff2f	-0.13964532
7	0xbde648d1	-0.112443574
8	0xbc82ac74	-0.015951373
9	0xbda365a9	-0.079783745
10	0xbf037da4	-0.5136359
11	0xbdfa613c	-0.12225577
12	0x3d2345d4	0.039861515
13	0xbdbe63c7	-0.09296375
14	0xbd47ac20	-0.048748136
15	0xbbeeff0e	-0.0072935885
16	0x3e4c12af	0.19929002
17	0xbd138a50	-0.036020577
18	0x3d294982	0.04132987
19	0x3df83c9a	0.12120934
20	0x3e11b7b9	0.14230241
21	0xbd81df65	-0.06341437
22	0xbc0afdd0	-0.008483365
23	0x3cc9af8b	0.024619838
24	0xbe06ec30	-0.13176036
25	0xbcd77d95	-0.026305
26	0xbbe3ae50	-0.00694827
27	0xbdb4d085	-0.088288344
28	0x3d20d59d	0.039266217
29	0x3e110cbd	0.14165016
30	0xbdb6d8c9	-0.08928067
31	0xbc457c7e	-0.012053607
32	0xbc1c1a2f	-0.009527727
33	0x3ae5cfc1	0.0017533229
34	0xbdb96f8a	-0.090544775
35	0xbc53c5a2	-0.012925537
36	0xbdd97f7d	-0.106200196
37	0x3b5b856f	0.003349628
38	0x3be3ca14	0.00695158
39	0xbddc2134	-0.107485205
40	0xbd1b6d6d	-0.037946153
41	0xbd080259	-0.033205364
42	0x3d1f3f89	0.03887895
43	0xbd040cac	-0.032238647
44	0xbcef9cbb	-0.02924954
45	0x3e416115	0.1888469
46	0x3e88dfd7	0.26733276
47	0x3b259e7a	0.0025271461
48	0xbd74b6ac	-0.059744522
49	0x3d6a8e2a	0.057264484
50	0xbc0df141	-0.008663476
51	0xbde6a038	-0.11261028
52	0xbdf73e96	-0.12072484
53	0xbdeca4d6	-0.115548775
54	0xbd7b7319	-0.061389063
55	0xbe07a1f4	-0.13245374
56	0x3d5786f7	0.052618947
57	0xbc392568	-0.011300422
58	0x3d84633a	0.064642385
59	0x3bb585ec	0.0055396464
60	0x3d20f210	0.03929335
61	0xbd1ec424	-0.038761273
62	0xbdd6b549	-0.10483796
63	0x3aacdc6b	0.0013188248
64	0x3cf4c37d	0.029878372
65	0x3c2fecbd	0.010737595
66	0xbdfa4dbc	-0.12221858
67	0x3c923068	0.017845348
68	0x3cb2902a	0.021797258
69	0x3d97badc	0.074086875
70	0x3cdd58bf	0.027019856
71	0xbb81ec5c	-0.003964944
72	0x3ddde737	0.10835116
73	0x3df8cd60	0.12148547
74	0x3e1140b7	0.14184843
75	0x3dbf809d	0.09350703
76	0x3e0c50a8	0.13702643
77	0x3d4d3717	0.050101366
78	0x3d333a65	0.04375686
79	0x3e8d3858	0.2758205
80	0x3e00be47	0.12572585
81	0x3e033d84	0.12816435
82	0x3e27599c	0.16342777
83	0xbcbeb028	-0.023277357
84	0x3dc67c0f	0.09691631
85	0x3d927d75	0.07152835
86	0xbe14a81e	-0.14517257
87	0x3d959af4	0.073049456
88	0xbd8a0fad	-0.06741271
89	0xbd0fa706	-0.035071395
90	0x3dc2a536	0.09504168
91	0x3e007bf6	0.12547287
92	0x3cdc27c9	0.02687444
93	0xbda30a76	-0.0796098
94	0x3d9ba69d	0.07600138
95	0x3c330115	0.010925551
96	0xbe3796d1	-0.17928626
97	0xbe43407e	-0.1906757
98	0xbd42cfb1	-0.04756135
99	0xbaf1c54a	-0.0018445638
100	0xbe08e3a7	-0.13368092
101	0xbe192feb	-0.14959686
102	0xbbc836bf	-0.006110042
103	0xbc8151d5	-0.01578609
104	0xbc42ec6e	-0.01189719
105	0x3e16fe09	0.14745344
106	0xbda0d897	-0.07853811
107	0xbc9a5e82	-0.018843893
108	0x3d646f56	0.05577024
109	0x3dbec76f	0.09315383
110	0x3d818065	0.063233174
111	0x3d9ffb78	0.07811636
112	0x3d840a72	0.06447305
113	0xbc28a648	-0.010293551
114	0x3e0ee888	0.13955891
115	0x3d985842	0.07438709
116	0xbddfc442	-0.10926105
117	0xbcbe1fe3	-0.023208564
118	0x3d8905b2	0.066905394
119	0x3db0bc61	0.086296804
120	0x3caac8ef	0.020847766
121	0xbd2b8211	-0.041872088
122	0x3d840b75	0.06447498
123	0x3d8b0c0f	0.06789409
124	0x3d5cce9a	0.053907968
125	0x3db5537a	0.088538125
126	0x3d701ce7	0.058621313
127	0x3e4e508f	0.20147918
128	0x3e38a646	0.18032178
129	0xbd91be02	-0.07116319
130	0x3d805e2a	0.0626796
131	0x3d8ce236	0.06879084
132	0xbe05bf41	-0.13061239
133	0xbe6e1489	-0.23250021
134	0xbe330f9c	-0.17486423
135	0x3dadd66a	0.08488162
136	0x3d9023f0	0.070381045
137	0x3d27dab4	0.040980056
138	0x3ce90bba	0.028447974
139	0x3d1bf886	0.038078807
140	0x3ccf9911	0.025341542
141	0x3d959dc3	0.07305481
142	0x3cf60f60	0.030036628
143	0xbd808677	-0.06275647
144	0x3de8a078	0.11358732
145	0xbca5a660	-0.020220935
146	0x3e3f5ff6	0.1868895
147	0xbe156c3f	-0.14592074
148	0xbad693c4	-0.0016370942
149	0xbb91b5d1	-0.004446723
150	0xbd993afd	-0.07481954
151	0xbe60c443	-0.21949868
152	0xbe4a9cdb	-0.19786398
153	0xbdaa16c2	-0.08305122
154	0x3d3f3385	0.046679992
155	0xbe34391d	-0.17599912
156	0x3d56b633	0.052419852
157	0x3d5e192f	0.054223236
158	0xbde21f0e	-0.110410795
159	0x3d259a5f	0.040430423
160	0x3db02794	0.08601299
161	0xbd8eeb90	-0.06978524
162	0xbdcc6708	-0.09980589
163	0xbcab286e	-0.020893302
164	0xbdf2b998	-0.118518054
165	0xbe9bb032	-0.30407864
166	0xbd800768	-0.06251413
167	0xbe006440	-0.12538242
168	0xbec3c451	-0.38235715
169	0xbe746661	-0.2386718
170	0xbd96a92e	-0.07356487
171	0xbe0b3fcc	-0.13598555
172	0x3d1296a7	0.035788205
173	0x3ddce125	0.107851304
174	0xbdb5a867	-0.08870011
175	0x3c0cc9f7	0.008593074
176	0x3caf9df8	0.02143763
177	0x3ce50408	0.027956024
178	0xbe3dec92	-0.18547276
179	0xbd85eeec	-0.06539711
180	0xbd12f5db	-0.035878997
181	0xbdbc58b1	-0.09196604
182	0x3de4858a	0.11158283
183	0xbd6c2269	-0.057650004
184	0x3ba48327	0.0050205174
185	0xbd04eac0	-0.032450438
186	0xbdf8e18d	-0.121523954
187	0xbdd3623e	-0.103214726
188	0x3d2ca01a	0.042144872
189	0x3db20859	0.086929984
190	0x3db9f1b0	0.09079301
191	0xbd2d06b7	-0.042242732
192	0x3d4c048a	0.049809016
193	0x3cb385c3	0.021914368
194	0xbdb50f10	-0.088407636
195	0x3b8c1b99	0.004275751
196	0xbcd587d5	-0.026065746
197	0xbd8cfd5d	-0.06884263
198	0x3e882d8a	0.26597244
199	0x3e025c63	0.12730555
200	0x3da4e3bd	0.0805125
201	0x3cf06223	0.02934367
202	0x3d7b933f	0.06141972
203	0x3ccd38a0	0.025051415
204	0xbd90a324	-0.070623666
205	0x3dcd4649	0.100231715
206	0x3d2e859f	0.0426079
207	0x3e73d99e	0.23813483
208	0x3df1463e	0.11780976
209	0xbd1b3258	-0.03788981
210	0x3dd48483	0.10376837
211	0x3d6109ff	0.054941174
212	0x3d09ced1	0.0336445
213	0xbcf6cf6f	-0.030128209
214	0xbdce35b9	-0.100688405
215	0xbe8faf72	-0.28063542
216	0x3ce4cb5e	0.027929004
217	0x3db8c934	0.090227515
218	0x3dc587b0	0.09645021
219	0x3d83347f	0.06406497
220	0xbc85d6c8	-0.016337767
221	0x3c7cb646	0.015424317
222	0xbc430b31	-0.011904524
223	0xbe643743	-0.22286706
224	0xbe81df14	-0.25365508
225	0x3bcf6e47	0.0063302848
226	0x3da2d863	0.07951429
227	0x3e218d0b	0.1577646
228	0xbd7dc9fc	-0.061960205
229	0xbe093bc5	-0.13401707
230	0xbd5fff8a	-0.05468706
231	0xbdf7f2c4	-0.12106851
232	0xbe1210ad	-0.14264174
233	0xbdceed3f	-0.10103845
234	0x3df6cb83	0.120505355
235	0x3cf6a4ed	0.03010794
236	0x3c335249	0.010944911
237	0xbc067860	-0.008207411
238	0x3ca2e12f	0.019882767
239	0xbc028e6e	-0.007968528
240	0xbcd19013	-0.025581395
241	0xbdac845f	-0.08423685
242	0x3caa4583	0.020785099
243	0x3e3a1251	0.1817105
244	0xbd92983d	-0.071579434
245	0xbd8795dd	-0.06620381
246	0xbd4f0b89	-0.05054811
247	0xbe1a2d68	-0.15056384
248	0xbdf761a0	-0.12079167
249	0xbdec5a9e	-0.11540721
250	0xbe07422c	-0.13208836
251	0xbd137899	-0.036003683
252	0xbca299cd	-0.019848729
253	0xbd8e07b3	-0.06935062
254	0xbd97904b	-0.074005686
255	0x3cabd088	0.020973459

res_conv2.0.bias f4 [32]
0	0xbbcf9d4f	-0.0063358913
1	0x3c616148	0.013756104
2	0x3bf9a7bb	0.007618872
3	0x3a2050b4	0.00061155413
4	0xbcfb491c	-0.03067451
5	0x3bc607a6	0.0060433922
6	0xbb9a2eb7	-0.004705276
7	0x3cdc89be	0.02692115
8	0xbd9e5749	-0.07731492
9	0x3c80f324	0.015740938
10	0xbd8491be	-0.064731106
11	0xbd87bcb7	-0.066277914
12	0xbba128a4	-0.004918175
13	0xbcc49363	-0.02399606
14	0xbbd40ddd	-0.006471379
15	0xbd894bc0	-0.06703901
16	0x3c65c65f	0.014024346
17	0x3ce336ac	0.02773603
18	0xbc2e698b	-0.010645281
19	0x397250e8	0.00023109058
20	0x3a6b3ac4	0.00089732953
21	0x3be891e3	0.007097469
22	0x3c634db6	0.013873508
23	0xbd926954	-0.07148996
24	0x3d312903	0.043252002
25	0xbd8bdc55	-0.068291344
26	0xbca59f07	-0.020217432
27	0xbdabc01b	-0.083862506
28	0xbda35e11	-0.07976926
29	0xbd558c2e	-0.05213564
30	0x3ca13e05	0.019682894
31	0xbc2e901a	-0.010654474

res_conv2.2.weight f4 [32, 32, 3, 3]
0	0x3dcd8445	0.10034994
1	0xba8ae967	-0.0010598124
2	0xbd355b11	-0.0442763
3	0x3d4d3546	0.050099634
4	0xbd885e03	-0.06658556
5	0xbcae833d	-0.021302814
6	0xbd4de89f	-0.050270673
7	0xbe17b843	-0.14816384
8	0x3d7b686d	0.061378885
9	0xbb804515	-0.003914485
10	0x3d7ec668	0.062200934
11	0xbbbb30b5	-0.0057125934
12	0x3cd84d62	0.026404087
13	0xbd06eeb6	-0.032942496
14	0x3be049ae	0.006844721
15	0x3db9536e	0.09049116
16	0xbd03007d	-0.031982888
17	0xbbcf55bc	-0.006327359
18	0xbe95532b	-0.29165015
19	0x3d88893a	0.06666799
20	0xbdb8a51c	-0.09015867
21	0x3d7c2fad	0.061568905
22	0xbd452c6d	-0.04813807
23	0x3bc573be	0.0060257604
24	0xbd2d7e87	-0.042356994
25	0xbc87744c	-0.016534947
26	0xbd8dcf00	-0.06924248
27	0xbdc1497f	-0.094378464
28	0xbd8f9b4c	-0.070120424
29	0x3ced3b41	0.028958919
30	0xbc024082	-0.00794995
31	0xbe06c388	-0.13160527
32	0xbc0fa033	-0.008766222
33	0xbd915a11	-0.07097257
34	0xbd73c90a	-0.059517898
35	0xbcb569cf	-0.02214518
36	0x3cfce2bc	0.030869834
37	0xbdd75146	-0.105135486
38	0xbe89ae2d	-0.26890698
39	0xbda1f873	-0.07908716
40	0xbe09a0c9	-0.13440241
41	0xbe120585	-0.14259918
42	0xbe994f1e	-0.29943174
43	0x3ccbb6b2	0.02486739
44	0xbd8b697b	-0.06807228
45	0xbe09fc06	-0.13475046
46	0xbdbbbe79	-0.09167189
47	0xbd9d9d72	-0.07696046
48	0xbcc8c913	-0.024509942
49	0xbc3694ab	-0.011143844
50	0xbd25f44a	-0.040516175
51	0xbd50e39f	-0.050998326
52	0xbd0aa958	-0.033852905
53	0xbdfbb9de	-0.12291311
54	0xbdb3d1d0	-0.08780253
55	0xbc9c2b56	-0.019063633
56	0xbdb94ddb	-0.09048053
57	0x3ca9cd77	0.020727856
58	0x3d036f05	0.0320883
59	0xbd810a49	-0.0630079
60	0x3d6b2001	0.05740357
61	0x3db41418	0.08792895
62	0xbc0c1f9b	-0.008552457
63	0x3df18910	0.11793721
64	0xbdf315b2	-0.118693724
65	0x3c8d1a35	0.01722441
66	0x3d0051d5	0.03132804
67	0x3db5edee	0.08883272
68	0xbc8316e0	-0.016002119
69	0xbd22ab57	-0.039714184
70	0xbcd90223	-0.026490277
71	0xbe4021d7	-0.18762909
72	0xbd1f5d97	-0.038907614
73	0x3b36b236	0.0027877218
74	0xbd3a1774	-0.045432523
75	0xbc8bbfe6	-0.017059278
76	0x3caf0c03	0.021368032
77	0xbd5fb7d9	-0.05461869
78	0x3cbc0db7	0.022955758
79	0x3ce470d9	0.027885841
80	0x3d349404	0.04408647
81	0x3d5f8ead	0.054579426
82	0x3bb9f92d	0.005675456
83	0xbe020414	-0.12696868
84	0x3c4f1c36	0.012641003
85	0xbd08d968	-0.03341046
86	0xbd86c28c	-0.065800756
87	0xbe2e81e2	-0.17041734
88	0xbd60d44d	-0.054889966
89	0x3d2908c4	0.041268125
90	0xbd5629e9	-0.052286062
91	0xbcea5caa	-0.028608639
92	0xbcab9e82	-0.020949606
93	0x3d366a46	0.044534944
94	0x3d30ab57	0.043132152
95	0xba3d72c3	-0.00072268787
96	0xbce5e690	-0.028064042
97	0x3d128453	0.035770725
98	0x3d627505	0.05528738
99	0xbcf8da85	-0.030377636
100	0xbc8c92bc	-0.017159812
101	0x3bd7908c	0.0065785106
102	0x3ccdb276	0.02510951
103	0xbbacaf8b	-0.00526995
104	0x3993bfe9	0.0002818101
105	0x3c543aa4	0.012953434
106	0x3d8774af	0.066140525
107	0x3d44dddb	0.04806314
108	0x3cf11f76	0.029433947
109	0xbd1f893d	-0.03894924
110	0xbd56a0a2	-0.052399285
111	0x3d08c612	0.03339202
112	0xbcd4d547	-0.025980605
113	0xbd3b221c	-0.045686826
114	0x3d2232c2	0.039599188
115	0x3e1532d4	0.1457017
116	0x3d6c54df	0.057698127
117	0xbde37f74	-0.11108294
118	0xbd25b257	-0.04045328
119	0x3d1a6f05	0.037703533
120	0xbcb45a5f	-0.022015749
121	0x3d94d204	0.0726662
122	0xbc33a353	-0.0109642325
123	0x3d26133a	0.04054568
124	0x3ac6888b	0.0015146894
125	0x3c37d793	0.0112208305
126	0x3cf8fa89	0.030392902
127	0x3dbf7a8f	0.09349548
128	0x3dd95705	0.10612301
129	0x3e270200	0.16309357
130	0xbcddff52	-0.027099285
131	0x3dbe5957	0.09294384
132	0x3de541d6	0.11194198
133	0x3c114c6a	0.008868316
134	0x3d580652	0.052740403
135	0x3d28f842	0.041252382
136	0xbd741f89	-0.059600387
137	0xbd6d2a8f	-0.057901915
138	0xbd0ef708	-0.034903556
139	0x3d07e3cf	0.03317624
140	0x3c1733b2	0.009228634
141	0xbcaff668	-0.0214798
142	0xbd531b27	-0.051539566
143	0x3d121013	0.03565986
144	0x3d05ce0c	0.032667205
145	0x3c3f0d45	0.011660879
146	0xbc008180	-0.007843375
147	0x3d183205	0.037157077
148	0xbd6a6082	-0.057220943
149	0xbd931cd3	-0.07183232
150	0xbcae76dc	-0.021296911
151	0xbd093a8e	-0.033503108
152	0xbdb3c82f	-0.08778416
153	0xbbc591a1	-0.006029323
154	0xbb4b5912	-0.0031028432
155	0x3beb7a39	0.007186201
156	0xbbb7f927	-0.005614418
157	0xbd1851e2	-0.037187465
158	0x3ce6df51	0.028182657
159	0xbdacc6e5	-0.084363736
160	0xb9f8242b	-0.00047329193
161	0x3e16e1e4	0.14734608
162	0xbc9f9e3c	-0.019484632
163	0x3b4e05d0	0.003143657
164	0x3d4ccfff	0.050003048
165	0x3c890554	0.016726173
166	0xbca2c2e2	-0.019868318
167	0x3cd9a12e	0.026566114
168	0x3ccc8946	0.0249678
169	0x3ca6d0f3	0.020363307
170	0x3d9cba7f	0.07652759
171	0xbd09bbb6	-0.03362628
172	0x3d80b237	0.06283992
173	0x3d6783fb	0.05652235
174	0xbd205ed1	-0.039152924
175	0xbc7f1ddb	-0.015571083
176	0x3d12f72d	0.035880256
177	0x3cf1dbdc	0.029523782
178	0xbd45cb94	-0.04828985
179	0xbbea686a	-0.0071535604
180	0xbdf4f462	-0.11960675
181	0xbd85ab25	-0.06526784
182	0xbc219d6b	-0.0098641915
183	0xbd9392af	-0.07205712
184	0x3d2c21e5	0.04202451
185	0x3d0a4288	0.033754855
186	0xbdd7924e	-0.10525952
187	0xbddcba76	-0.10777752
188	0xbbd2585c	-0.0064192247
189	0x3da41478	0.080117166
190	0xbda52f0e	-0.080656156
191	0xbd43fe6f	-0.04785007
192	0xbd6d0ffe	-0.05787658
193	0xbd811dae	-0.06304489
194	0xbcc63525	-0.024195263
195	0xbd2ba907	-0.041909244
196	0xbc559bd1	-0.013037638
197	0xbd19748d	-0.037464667
198	0xbc5f66be	-0.0136353355
199	0xbe17a90a	-0.14810577
200	0xbe1f35a2	-0.15547803
201	0x3d83923f	0.064243786
202	0x3c14f7fa	0.009092325
203	0x3d8729ed	0.065997936
204	0xbc342a26	-0.010996377
205	0xbe3003a3	-0.17188887
206	0x3cc16542	0.023607854
207	0xbca332d2	-0.019921694
208	0x3ccd034e	0.02502599
209	0x3d0d59fb	0.03450964
210	0xbd54c739	-0.051947806
211	0xbd3e2446	-0.04642131
212	0x3d562f12	0.052290983
213	0x3d1f1a09	0.03884319
214	0xbd7d6467	-0.06186333
215	0x3baf2a71	0.0053456356
216	0xbe0ab296	-0.13544688
217	0xbe124603	-0.1428452
218	0x3cab15a9	0.020884352
219	0xbd4f4c67	-0.050609972
220	0xbe02779f	-0.12740944
221	0x3d017bc1	0.03161216
222	0x3c0a61a5	0.008446132
223	0xbddacb35	-0.1068329
224	0xbd29a5b7	-0.041417804
225	0xbd5dfa22	-0.054193623
226	0x3d09e730	0.033667743
227	0x3d16417b	0.03668354
228	0x3d2fb2e3	0.04289521
229	0xbcbeec2b	-0.023305973
230	0x3ca9549d	0.02067023
231	0x3d47e825	0.048805375
232	0x3d0f4592	0.034978457
233	0xbd17ba95	-0.037043173
234	0xbe3a40dd	-0.18188806
235	0x3de173aa	0.11008389
236	0xbbd47b82	-0.00648445
237	0xbd8bd744	-0.06828168
238	0xbc96233f	-0.018327354
239	0x3c597ccf	0.013274386
240	0xbe1a2283	-0.15052228
241	0xbe36c48d	-0.17848416
242	0xbe2b0e57	-0.16704689
243	0x3c6062cc	0.01369543
244	0x3c6ae335	0.014336397
245	0x3d60b155	0.054856617
246	0x3d195988	0.0374389
247	0xbd179452	-0.037006684
248	0xbbeeccc1	-0.007287592
249	0xbc76bcdd	-0.015059677
250	0x3c9094a2	0.017648999
251	0xbd62dc80	-0.055386066
252	0x3ccdb676	0.025111418
253	0xbd9051b9	-0.07046837
254	0x3d147c16	0.03625115
255	0xbbb682d2	-0.005569794

res_conv2.2.bias f4 [32]
0	0x3cc8cbf1	0.02451131
1	0xbd180eb6	-0.037123404
2	0x3c053982	0.008131387
3	0xbde20253	-0.110355996
4	0x3b8a20ee	0.0042153513
5	0xba3d2e89	-0.0007216712
6	0xbb867fd9	-0.004104596
7	0x3b2f1963	0.0026718013
8	0x3d3031c4	0.04301621
9	0x3cf5319c	0.029930882
10	0x3ca2b3dc	0.019861154
11	0x3c4facf1	0.01267551
12	0x3cd555d9	0.026041912
13	0xbd4459aa	-0.047937073
14	0x3c737839	0.014860206
15	0xbd932f26	-0.07186727
16	0xbdc167a8	-0.09443599
17	0x3d06b53d	0.032887686
18	0xbc3f84d8	-0.011689387
19	0x3cbfbe4d	0.023406172
20	0xbc3721e9	-0.011177518
21	0xbd8c5cc2	-0.0685363
22	0x3d2396f4	0.039938882
23	0xbbd0ddc5	-0.0063740932
24	0x3c9aff52	0.018920574
25	0x3c9dbd75	0.01925538
26	0xbdbcfe69	-0.092282124
27	0xbb458ced	-0.0030143813
28	0x3ccec036	0.025238138
29	0xbd532ca3	-0.05155624
30	0x3c8798e9	0.016552405
31	0xbb8f4c5d	-0.004373117

res_conv3.0.weight f4 [32, 32, 3, 3]
0	0xbd689050	-0.056778252
1	0xbd011e08	-0.03152278
2	0x3d1134f8	0.035450906
3	0x3d09144b	0.03346662
4	0xbbcaaed9	-0.0061853942
5	0xbd00711c	-0.03135787
6	0x3ca539d2	0.020169172
7	0x3d362745	0.044471044
8	0x3a77e4fb	0.0009456423
9	0x3c32cb93	0.010912794
10	0x3ba97f01	0.0051726107
11	0x3d8cdd1d	0.068781115
12	0x3a7a5626	0.000954958
13	0xbcd0b726	-0.025477957
14	0xbc5d79a4	-0.013517771
15	0xbc4f302f	-0.012645765
16	0x3d36bcb7	0.044613566
17	0x3b33bcf9	0.002742587
18	0xbcde4508	-0.027132526
19	0xbc8eb2bc	-0.017419212
20	0x3cac8127	0.021057678
21	0xbd2bab2b	-0.041911285
22	0xbd88ef1b	-0.06686231
23	0xbcc2cde1	-0.023779811
24	0xbd3b2fda	-0.04569993
25	0xbce2baa8	-0.027676895
26	0x3b343c09	0.0027501604
27	0x3d1e1df3	0.03860278
28	0xbcec37c0	-0.028835177
29	0x3d094416	0.033512197
30	0x3ceadcd3	0.02866975
31	0xbd4bd8c3	-0.049767267
32	0x3a4ab6b5	0.0007732914
33	0x3cd338ed	0.02578398
34	0xbd086e9e	-0.033308618
35	0x3bd13a15	0.0063850977
36	0xbd4613f9	-0.04835889
37	0xbd4d2dec	-0.050092623
38	0xbd33b492	-0.043873377
39	0xbd287f96	-0.0411373
40	0x3cf1b675	0.029505948
41	0xbd2bdde1	-0.041959647
42	0xbcfff6a6	-0.03124554
43	0xbbfd9865	-0.007739114
44	0x3c9e53f2	0.019327138
45	0xbc35fa12	-0.011106985
46	0x3c3e6777	0.011621348
47	0x3cb100e7	0.021606876
48	0x3cd9ca30	0.026585668
49	0x3ce5bb26	0.02804334
50	0xbd7517ed	-0.05983727
51	0x3b77bfed	0.0037803606
52	0x3d256fdd	0.040389884
53	0xbd2139b4	-0.03936167
54	0xbd80d9a0	-0.06291509
55	0x3cd7197c	0.02625727
56	0x3d3f77f9	0.046745274
57	0xbbb58372	-0.005539351
58	0x3bd2a259	0.0064280448
59	0xbd685aae	-0.056727104
60	0xbc90ee59	-0.017691778
61	0xbd09164b	-0.033468526
62	0x3d3c8eef	0.04603475
63	0x3c69b29c	0.014263775
64	0x3c150cbd	0.009097275
65	0x3a84f47e	0.0010143665
66	0xbd5e1632	-0.054220386
67	0xbd1364ed	-0.035984922
68	0xbc15a540	-0.009133637
69	0x3cac7dec	0.021056138
70	0xbd4e4455	-0.050358135
71	0x3d381cc5	0.04494931
72	0xbd06163c	-0.032736048
73	0x3d345d47	0.04403427
74	0x3d2cab2f	0.04215544
75	0xbd561488	-0.052265674
76	0x3d2fef80	0.042953014
77	0x3c228686	0.009919768
78	0x3cab9280	0.02094388
79	0xbc5935dc	-0.01325747
80	0xbcc4ef89	-0.02404
81	0x3d1a71b9	0.03770611
82	0x3cef68c5	0.029224763
83	0xbb022a8a	-0.001986178
84	0xbc66109a	-0.014042044
85	0xbc893670	-0.01674959
86	0xbd252e41	-0.040327314
87	0xbcb01be6	-0.021497678
88	0xbc0ac5a7	-0.008469976
89	0xbc49dba2	-0.012320431
90	0xbc87ad2e	-0.01656207
91	0xbc9258ca	-0.017864604
92	0xbd23df59	-0.040007923
93	0x3b8e8d80	0.004350364
94	0x3bf2b84b	0.0074072233
95	0x3cb8ac3c	0.022543065
96	0x3cb7468d	0.022372508
97	0x3d0b12de	0.03395354
98	0x3c4129d7	0.011789761
99	0x3cfe68d9	0.031055855
100	0x3d301cbe	0.04299616
101	0xbca3f45f	-0.020013986
102	0x3cfa212b	0.030533394
103	0x3d171cc5	0.03689267
104	0xbd754bdd	-0.059886802
105	0x3beae14f	0.007167972
106	0x3caf886d	0.021427358
107	0xbd621c21	-0.055202607
108	0xbd6596c6	-0.056051992
109	0x3d1e0cfc	0.0385866
110	0x3d139baa	0.036037125
111	0xbd253f0a	-0.04034332
112	0x3d16e0f5	0.03683563
113	0x3d292704	0.041296974
114	0xba470c26	-0.0007593058
115	0x3d290d35	0.04127236
116	0xbc4d98ce	-0.0125486385
117	0xbc9a8a7d	-0.018864864
118	0xbc40bcbe	-0.01176375
119	0xbd63ca03	-0.055612575
120	0xbd53cfd4	-0.051711872
121	0x3c93c87c	0.018039934
122	0xbb3081a1	-0.0026932734
123	0x3c4d1bc0	0.012518823
124	0x3d1b0e28	0.037855297
125	0xbd415ee5	-0.04720964
126	0xbcf956a4	-0.030436821
127	0xbcc163dd	-0.023607189
128	0x3ca18380	0.019716024
129	0x3cef784e	0.02923217
130	0x3d3967fb	0.04526518
131	0x3c2a3c37	0.010390333
132	0xbca86d7b	-0.020560017
133	0xbd56a78d	-0.052405883
134	0x3c0e94dc	0.008702483
135	0x3ca62a6f	0.020283906
136	0xbc3caaaa	-0.011515299
137	0x3cdee24a	0.027207512
138	0x3b388865	0.002815747
139	0x3d1d343b	0.03837989
140	0xbd082e76	-0.033247434
141	0xbcddff69	-0.027099328
142	0xbd367153	-0.04454167
143	0x3d3753f3	0.044757795
144	0x3d3922ac	0.04519908
145	0xbc8f60b9	-0.017502176
146	0xbb89b5a8	-0.0042025633
147	0x3b920dee	0.004457227
148	0x3ccef5d3	0.025263702
149	0xbd449188	-0.047990352
150	0x3d015db1	0.03158349
151	0xbd0d48a2	-0.034493096
152	0x3d4597bf	0.04824042
153	0x3d4605e3	0.048345458
154	0xbc69413e	-0.014236746
155	0xbcf5e439	-0.030016052
156	0xbd6f3f81	-0.05841017
157	0x3d1c9c1f	0.038234826
158	0xbd7503f7	-0.059818234
159	0xbd870135	-0.06592027
160	0xbd615545	-0.05501296
161	0x3cbc8c56	0.023016136
162	0x3c605b21	0.013693602
163	0xbd455554	-0.04817708
164	0x3d3ae650	0.0456298
165	0x3d092eb8	0.03349182
166	0xbcf8ae78	-0.03035663
167	0x3d1cfcaa	0.038326897
168	0xbd5a63b2	-0.053317733
169	0xbc93d17f	-0.018044231
170	0xbd7b0fe7	-0.061294463
171	0xbc8be78c	-0.017078184
172	0x3d121352	0.035662957
173	0xbca79920	-0.020458758
174	0x3d3301f3	0.04370303
175	0xbc00a212	-0.007851141
176	0x3c27964c	0.010228705
177	0xbc8d27d9	-0.017230915
178	0xbd5438f6	-0.051812135
179	0x3d21e470	0.039524496
180	0x3b38d85f	0.002820514
181	0x39166841	0.00014343952
182	0x3ce043d8	0.0273761
183	0xbbbd08c6	-0.005768868
184	0xbd522508	-0.051304847
185	0xbceb475a	-0.028720547
186	0x3addafb7	0.0016913329
187	0xbd09574f	-0.03353053
188	0xbb2bd9c3	-0.0026222325
189	0xbd83839d	-0.064215876
190	0xbcd72085	-0.026260624
191	0x3d24fe03	0.040281307
192	0x3d2024cd	0.039097596
193	0xbc215d20	-0.009848863
194	0xbd45084a	-0.04810361
195	0x3d2005de	0.039068095
196	0xbd4b28f6	-0.04959961
197	0x3d367d11	0.044552866
198	0xbd4b2464	-0.04959525
199	0xbc934356	-0.017976444
200	0x3cc3d1ee	0.023903813
201	0x3d010bf6	0.031505547
202	0xbd1852f0	-0.03718847
203	0x3d0aa440	0.033848047
204	0x3d460c54	0.0483516
205	0x3d10fa78	0.035395116
206	0xbc8be8c7	-0.01707877
207	0x3b8ce834	0.0043001417
208	0xbc9f1559	-0.019419359
209	0x3cdf4c22	0.027257983
210	0x3c612ea1	0.013744027
211	0x3c3156bf	0.010823905
212	0x3c5977a2	0.013273152
213	0xba7517c3	-0.0009349549
214	0xbd3a9e5c	-0.04556118
215	0xbcd2ebbb	-0.02574717
216	0xbd3707b0	-0.044685066
217	0xbd77f25e	-0.060533874
218	0xbd860af6	-0.065450594
219	0x3c3a14ef	0.01135753
220	0xbd5352a7	-0.051592495
221	0xbd724e44	-0.05915667
222	0xbd57340b	-0.052539866
223	0xbbd7f753	-0.0065907626
224	0x3d3562cd	0.044283677
225	0x3c431aa7	0.01190821
226	0xbd5407b3	-0.051765155
227	0x3d02f7af	0.03197449
228	0x3c7744d7	0.015092096
229	0xbcb77445	-0.022394309
230	0x3ce24685	0.027621517
231	0x3c3d7100	0.011562586
232	0xbd6f53cf	-0.058429535
233	0xbd9907e6	-0.0747221
234	0x3d03de52	0.032194443
235	0xbb296ba5	-0.0025851515
236	0x3d07ae23	0.033125054
237	0xbce69de0	-0.028151453
238	0x3d09cdd5	0.033643562
239	0xbd7f0e26	-0.062269352
240	0xbb60c644	-0.0034297863
241	0xbb1e0519	-0.0024111925
242	0xbcad3129	-0.021141605
243	0xbd87cd5e	-0.066309676
244	0xbd60687b	-0.05478714
245	0x3cce17fa	0.025157917
246	0x3d0067c2	0.03134895
247	0x3d4d79ea	0.050165094
248	0xbc66e56f	-0.014092787
249	0x3c0821df	0.008308857
250	0x3d55f7f7	0.05223843
251	0xbd4a51d0	-0.04939443
252	0x3b63442f	0.0034678092
253	0x3cab4809	0.020908372
254	0x3ceee55f	0.029162107
255	0x3c1262f2	0.008934723

res_conv3.0.bias f4 [32]
0	0xbd685351	-0.05672008
1	0x3bfe54fa	0.007761595
2	0x3c0eafcc	0.008708905
3	0x3d011661	0.031515483
4	0x3c9586e0	0.01825279
5	0xbd1e960a	-0.038717307
6	0x3c14f01d	0.009090451
7	0xbc383c6f	-0.011244877
8	0xbc9ce455	-0.019151846
9	0xbb6ed24a	-0.003644126
10	0xbd6c8545	-0.057744283
11	0xba7eacc8	-0.00097150775
12	0xbc5ba548	-0.013406105
13	0x3b55206d	0.0032520548
14	0x3c3c8bcd	0.0115079405
15	0xbd85a33c	-0.06525275
16	0xbd072568	-0.032994658
17	0xbbd7a6bc	-0.0065811556
18	0xba98d39c	-0.0011659744
19	0xbd72adb3	-0.059247684
20	0x3ba8f1a9	0.0051557613
21	0x3cf9bc98	0.030485436
22	0xb9afb8f1	-0.00033516393
23	0xbd757c44	-0.059932962
24	0xbd4f55a5	-0.050618786
25	0x3b26165d	0.002534292
26	0xbc76684e	-0.015039517
27	0xbcc6b211	-0.02425483
28	0xbd5f828c	-0.05456786
29	0x3d7d4238	0.06183073
30	0xbd8ee8e0	-0.06978011
31	0x3b735e9f	0.0037135256
